checkpoints/336_96_DLinear_ETTh1_ftM_sl336_ll48_pl96_dm16_nh4_el3_dl1_df128_fc1_ebtimeF_dtTrue_Exp_0/checkpoint.pth (torch, 260447 bytes, 4 tensors)

Linear_Seasonal.weight f4 [96, 336]
-0.026363306 -0.0062800013 -0.013952888 -0.0018786407 -0.00577133 -0.045379266 -0.05147957 0.044309404
-0.026491882 -0.039728574 0.041387267 -0.04018635 0.030853763 -0.037105255 0.024024263 -0.027563171
-0.026228247 -0.035492606 0.009773285 0.0036351995 0.017376933 -0.03153752 0.042477585 0.0046442086
0.011481964 -0.03010443 0.041532677 -0.035238888 -0.03266252 -0.025560284 0.012061267 0.010271141
0.020929188 -0.004672384 0.027636811 0.039592568 -0.04520555 -0.022052387 -0.019597095 -0.014848481
0.022774966 0.051885933 0.021395568 -0.04236052 0.021610891 0.022897962 0.039696813 -0.04178499
0.017661417 -0.011532784 0.042464152 0.023177044 0.00014225792 -0.005390963 0.020091346 -0.045187112
-0.015000437 -0.046238624 0.0131517155 0.0069346665 -0.06562135 -0.021148304 0.0005861291 -0.005701365
0.012924827 -0.057577793 -0.02144999 -0.025139874 -0.041353438 -0.046238903 -0.03783253 0.03316747
-0.021984389 -0.010124168 -0.03405366 -0.045454554 0.033579793 -0.021333704 -0.027667433 0.03879411
-0.039486174 -0.02202024 -0.0061941184 -0.022372698 -0.020856034 -0.0013385443 0.015335918 -0.024343083
-0.011082511 0.056546163 0.009158815 0.0008734328 -0.043072976 -0.03294531 0.028948372 0.042867206
-0.022887485 0.030222207 0.01545244 -0.022460008 0.0317207 -0.0041565807 -0.048897482 0.032943126
0.009295489 -0.03537649 -0.0032075897 0.026110437 0.017010596 0.0052935835 -0.0021371932 -0.017626857
-0.006332656 -0.021860603 0.012200718 -0.044681057 0.03575625 -0.03356208 -0.037211385 0.049407605
0.008132896 -0.017513689 -0.03771538 0.020026373 -0.05239263 0.028531346 0.01132095 0.044396065
-0.02533862 -0.044897433 0.0009981977 0.044984024 -0.031023402 -0.048316546 0.03659086 0.02200049
0.02017704 0.038334493 0.010417203 -0.036196668 -0.030535886 -0.021220485 -0.035464715 -0.03587848
0.060529854 0.04425238 -0.05642462 -0.033720028 0.025774306 0.0032917175 -0.02695673 -0.027992599
0.014018975 -0.022231737 -0.031371534 -0.0057820952 0.0311235 -0.0122841345 -0.018544644 -0.007403898
-0.023557693 -0.029300576 -0.0040343166 0.013722074 0.036799796 0.0028995755 0.03171651 0.024101976
0.012457615 -0.019132242 -0.00034199358 0.04022101 0.020458605 -0.010630734 0.003560618 0.020975739
-0.009706287 0.038687807 -0.028547341 0.0065295273 0.013237989 0.029694954 -0.0022123177 -0.00812565
0.02830527 -0.0242783 -0.014168397 -0.028894173 0.05146037 0.0033928647 -0.04179343 0.016500477
-0.024178758 0.041483272 0.029078966 0.00028501195 -0.026868394 -0.046570204 0.033770196 -0.020492397
0.007766291 -0.012625616 0.038820744 -0.011561922 0.022794725 -0.03578501 -0.02944968 0.017459631
0.03971913 -0.018072488 0.045834444 0.011478294 -0.041323602 -0.028563635 -0.0073522273 0.017214
0.04785929 0.061061222 0.042012416 -0.04910897 0.019709563 -0.025135726 -0.010506559 0.0413427
-0.020313336 -0.026743919 0.028781785 -0.002367028 -0.0008245449 -0.008543478 0.034574606 0.020639854
-0.010602061 0.0056106234 0.016594889 -0.024264004 0.027056849 0.03946797 0.03844386 -0.021120882
0.0024830254 0.058854714 0.030381609 0.010015215 0.026753847 0.032866437 -0.033743422 -0.042915624
-0.0028493411 0.037441965 -0.008594045 -0.014225298 -0.04559106 0.019014074 0.0194709 -0.01957217
00000000: dcf7 d7bc 78c8 cdbb a79a 64bc b93c f6ba
00000010: 6d1d bdbb 9cdf 39bd 3edc 52bd c77d 353d
00000020: 8105 d9bc 6eba 22bd b285 293d 719a 24bd
00000030: 08c1 fc3c aefb 17bd 88ce c43c 29cc e1bc
00000040: 9fdc d6bc b260 11bd 2120 203c 873c 6e3b
00000050: 125a 8e3c 7d2d 01bd fafc 2d3d 722e 983b
00000060: d91e 3c3c 919d f6bc 2b1e 2a3d a756 10bd
00000070: 22c9 05bd cd63 d1bc 9f9c 453c 4a48 283c
00000080: b073 ab3c cc1a 99bb 9866 e23c d12b 223d
00000090: 7429 39bd 35a7 b4bc 168a a0bc 0b47 73bc
000000a0: 9192 ba3c 5886 543d c245 af3c 3a82 2dbd
000000b0: 5309 b13c 8294 bb3c 2099 223d bd26 2bbd
000000c0: adae 903c 01f4 3cbc e4ee 2d3d c9dd bd3c
000000d0: 122b 1539 ada6 b0bb 9b96 a43c 1f16 39bd
000000e0: 65c4 75bc b664 3dbd 4b7a 573c 333c e33b
000000f0: 7d64 86bd 353f adbc 75a6 193a 84d2 babb
00000100: a7c2 533c b1d6 6bbd e4b7 afbc 23f2 cdbc
00000110: 3962 29bd 0165 3dbd 48f6 1abd 9dda 073d
00000120: 9b18 b4bc d7df 25bc da7b 0bbd 8e2e 3abd
00000130: f78a 093d 05c4 aebc d0a6 e2bc 93e6 1e3d
00000140: 41bc 21bd ca63 b4bc 08f8 cabb f346 b7bc
00000150: 46da aabc 1872 afba 8143 7b3c 256b c7bc
00000160: 6c93 35bc f39c 673d db0e 163c 15f7 643a
00000170: 4a6d 30bd a9f1 06bd 2325 ed3c 8695 2f3d
00000180: 897e bbbc 9094 f73c 3b2c 7d3c 0dfe b7bc
00000190: 91ed 013d ed33 88bb ba48 48bd 5fef 063d
000001a0: 1b4c 183c f0e6 10bd 6d36 52bb 8ee5 d53c
000001b0: ce59 8b3c cc75 ad3b 2710 0cbb 3366 90bc
000001c0: 2b82 cfbb 0215 b3bc 85e5 473c 7c03 37bd
000001d0: 2575 123d 6478 09bd f76a 18bd a15f 4a3d
000001e0: d73f 053c de78 8fbc 717b 1abd 590e a43c
000001f0: a899 56bd 92ba e93c 827b 393c a6d8 353d
00000200: f092 cfbc 5fe6 37bd f5d5 823a 2b41 383d
00000210: ca24 febc 92e7 45bd 4ce0 153d 5f3a b43c
00000220: 524a a53c a104 1d3d ebac 2a3c f542 14bd
00000230: 6526 fabc 95d6 adbc 7343 11bd 50f5 12bd
00000240: 27ee 773d fc41 353d 811d 67bd 031e 0abd
00000250: a324 d33c dbb9 573b 5cd4 dcbc bc50 e5bc
00000260: d8af 653c 551f b6bc 707f 00bd bb77 bdbb
00000270: b6f6 fe3c 6543 49bc f0ea 97bc 669c f2bb
00000280: 10fc c0bc c307 f0bc 4d32 84bb 8dd2 603c
00000290: 62bb 163d ce06 3e3b 2ce9 013d 8271 c53c
000002a0: 061b 4c3c 38bb 9cbc 9a4d b3b9 c9be 243d
000002b0: ce98 a73c 882c 2ebc 4259 693b 50d5 ab3c
000002c0: 1e07 1fbc 1b77 1e3d 1ddc e9bc a5f5 d53b
000002d0: 26e4 583c d542 f33c 88fc 10bb 7221 05bc
000002e0: 74e0 e73c 49e3 c6bc 9022 68bc 79b3 ecbc
000002f0: 1cc8 523d d35a 5e3b 962f 2bbd 022c 873c
00000300: 8812 c6bc 5dea 293d 0337 ee3c a86d 9539
00000310: 1b1b dcbc 66c0 3ebd 9e52 0a3d acdf a7bc
00000320: 5f7c fe3b acdb 4ebc 8002 1f3d 376e 3dbc
00000330: 01bc ba3c 4d93 12bd 7540 f1bc 8007 8f3c
00000340: 87b0 223d c10c 94bc e6bc 3b3d 740f 3c3c
00000350: f042 29bd 49fe e9bc f4ea f0bb 6004 8d3c
00000360: 1a08 443d 551b 7a3d 3615 2c3d 7d26 49bd
00000370: f375 a13c 70e9 cdbc b423 2cbc f756 293d
00000380: 2768 a6bc 1016 dbbc c7c7 eb3c 2420 1bbb
00000390: 4626 58ba f2f9 0bbc 1a9e 0d3d e914 a93c
000003a0: 44b4 2dbc 52d9 b73b 01f2 873c 4ec5 c6bc
000003b0: 53a6 dd3c 2ba9 213d 4f77 1d3d b305 adbc
000003c0: 41ba 223b a411 713d dae2 f83c db16 243c
000003d0: e22a db3c f59e 063d 8b36 0abd 4bc8 2fbd
000003e0: 03bc 3abb bf5c 193d 0ace 0cbc 3911 69bc
000003f0: b1bd 3abd 67c3 9b3c 7081 9f3c d155 a0bc

Linear_Seasonal.bias f4 [96]
-0.010035724 0.013457353 0.0081489235 -0.014825902 -0.016218422 0.013116511 -0.023279993 0.010500543
0.005979887 0.009349956 0.005331762 0.00049674517 0.027242562 -0.035723653 0.026556443 -0.03405976
-0.009780771 0.020879908 -0.016061027 -0.031128395 -0.027727012 -0.0051808357 -0.00408489 0.010725526
0.012633648 0.002510277 0.0031297405 -0.0119541995 -0.03442327 -0.027069954 -0.04263281 -0.015544281
-0.0074975044 -0.008533717 0.020804366 0.01974118 0.020073777 -0.019003695 0.012278549 -0.013783506
-0.04340567 -0.0045950525 0.0008712746 -0.020343773 -0.04799554 -0.0021294595 0.03786713 0.0030013022
-0.020441933 0.031888064 -0.011550747 0.028129395 -0.024407059 -0.044844307 -0.0147616435 0.012408285
-0.019583125 -0.007829356 -0.03578268 -0.016728504 -0.017893268 -0.011578281 0.033018306 -0.012578411
-0.036304556 -0.012685335 -0.0049624257 -0.0028389192 -0.021717953 -0.027077157 -0.0134910075 -0.007105989
-0.034971423 0.031181516 0.011421528 0.009686553 -0.0026103861 -0.014621864 -0.03853627 -0.05941817
0.03810868 0.03396173 0.0043930644 0.000108477216 -0.0069403686 -0.045689166 0.02304956 -0.02225079
0.0119919265 0.024766339 -0.021005327 0.034925476 0.020693894 -0.03625017 -0.00550565 0.014599258
00000000: e16c 24bc 3b7c 5c3c 1083 053c 57e8 72bc
00000010: 7fdc 84bc a2e6 563c afb5 bebc 780a 2c3c
00000020: eef2 c33b 8f30 193c 10b6 ae3b 0138 023a
00000030: cb2b df3c f752 12bd e68c d93c 3f82 0bbd
00000040: 873f 20bc 570c ab3c 6a92 83bc fa00 ffbc
00000050: c223 e3bc 00c4 a9bb 8ada 85bb 1eba 2f3c
00000060: 5cfd 4e3c 7683 243b 551c 4d3b 8cdb 43bc
00000070: 6aff 0cbd cfc1 ddbc be9f 2ebd 71ad 7ebc
00000080: a0ad f5bb 01d1 0bbc eb6d aa3c 41b8 a13c
00000090: c371 a43c a3ad 9bbc f82b 493c 37d4 61bc
000000a0: 25ca 31bd 1892 96bb 4066 643a fca7 a6bc
000000b0: f996 44bd 678e 0bbb 901a 1b3d 7fb1 443b
000000c0: d775 a7bc 0f9d 023d 583f 3dbc 9e6f e63c
000000d0: 50f1 c7bc aaae 37bd d2da 71bc 1f4c 4b3c
000000e0: ca6c a0bc b346 00bc dc90 12bd 370a 89bc
000000f0: e794 92bc d5b2 3dbc 343e 073d ae15 4ebc
00000100: 16b4 14bd 27d6 4fbc d89b a2bb 290d 3abb
00000110: d9e9 b1bc ead0 ddbc 6309 5dbc 5bd9 e8bb
00000120: 323e 0fbd 6170 ff3c 5c21 3b3c 59b4 1e3c
00000130: 0313 2bbb 8b90 6fbc 35d8 1dbd 7860 73bd
00000140: d917 1c3d 741b 0b3d b2f3 8f3b 437e e338
00000150: 086c e3bb 9024 3bbd 6ed2 bc3c 4a47 b6bc
00000160: c979 443c c7e2 ca3c 5d13 acbc 040e 0f3d
00000170: 3e86 a93c 0f7b 14bd bd68 b4bb ba31 6f3c

Linear_Trend.weight f4 [96, 336]
-0.021895865 -0.011464514 0.040621586 0.021008253 0.026308915 0.008136963 -0.02899741 -0.05369792
0.025543442 0.032910917 -0.036220565 -0.0034098213 -0.042886663 -0.03659944 -0.012102484 0.036695886
0.044472825 -0.0014381902 0.02903023 -0.018189266 -0.01688408 0.044087023 0.01218033 -0.026478918
-0.014696985 0.018251266 0.035140257 0.023886742 0.010655063 0.012336087 0.049415093 -0.010457304
-0.045665544 0.046127815 -0.046681415 0.0026377742 -0.042063706 -0.006623791 -0.017942265 -0.053922247
0.01009217 0.036330078 -0.045551725 -0.05505882 0.041941874 -0.04853879 0.018965557 0.010384216
0.016314458 -0.019918062 -0.009852626 0.037008442 0.046374347 -0.0340639 -0.0044821925 0.040421907
0.01063438 0.045732934 0.03172426 -0.018709557 0.012507886 -0.029719692 -0.015529912 0.024214167
0.019529192 0.013404713 5.7120516e-05 -0.021826409 -0.016075287 0.019920984 -0.007215458 -0.01469421
-0.007839391 -0.023884255 0.05656004 -0.040188715 0.05888632 0.036652964 -0.027322248 0.02909145
-0.03020083 -0.028864333 -0.028692074 0.0236696 0.0010251742 0.025498157 -0.0074357465 -0.0026892433
-0.042865187 -0.040508807 0.050954215 0.0076710423 0.039180815 -0.0073194397 -0.04213702 -0.022915225
-0.012832642 -0.04102609 -0.005904524 0.014440187 0.006909686 -0.029969212 -0.009821794 0.0112336725
-0.011008308 -0.030164002 0.018273257 -0.0139554655 -0.0063653267 0.011557867 0.018518507 0.0103809675
0.044898856 0.04821777 -0.0032213926 0.013593528 -0.026207613 0.04079021 0.032384746 0.008403821
-0.02640183 -0.0018459248 -0.009542263 -0.009073252 -0.03425743 -0.027180819 -0.038068783 0.0186465
-0.001229408 0.019384082 -0.00095266674 -0.03432887 -0.042210788 0.0063457387 -0.004388441 0.047154147
0.033450793 -0.035083983 0.030583238 0.0074264165 0.048130218 -0.017295506 -0.012336065 0.013365486
-0.02604169 0.027072566 -0.041099556 0.023247562 -0.021457603 0.019937629 -0.045197908 0.044451304
-0.056889582 0.0107008135 0.038982306 -0.056329496 0.04321529 0.015285465 0.0311922 -0.04462303
0.048916765 0.051218152 0.032957602 -0.019452779 -0.004395865 -0.02032041 0.0030097424 0.054196864
0.045956872 -0.048444096 0.0057253675 0.029647313 -0.014528914 -0.0154662505 -0.029205292 -0.045075703
-0.04274591 -0.05011216 -0.027782738 0.02037441 -0.042424962 -0.04298023 0.028376298 0.010026777
-0.037851725 -0.0120133385 0.026208544 0.053479057 0.021946218 -0.019226115 0.013383266 -0.01632928
0.043335702 0.040937033 0.029864267 0.02025783 -0.0053592967 0.0015973726 0.04295984 -0.042885788
-0.040317703 0.019648286 0.0183598 -0.016618257 0.01652111 -0.047320135 0.00435974 -0.039360013
-0.005393706 0.014648976 -0.02399429 -0.016987344 -0.0044083646 0.04165121 0.033411082 0.0034587309
-0.009496841 0.047377773 -0.016279468 -0.008676118 -0.02988705 0.03792368 0.021409646 -0.028830275
0.035139997 0.010578435 -0.049711715 0.022858985 -0.0072817206 -0.045458585 0.0010932042 0.019056182
0.024710046 0.0068541793 -0.010332389 -0.019819181 0.042789984 0.029780041 0.03285432 0.0036416333
0.009655821 -0.010966077 -0.0042243255 -0.030040706 0.03329452 0.0160139 -0.00685228 -0.020161524
-0.001626148 0.025437243 -0.04201016 -0.035102356 0.017723575 -0.040189493 -0.04883252 -0.017843196
00000000: f55e b3bc a8d5 3bbc d262 263d 8019 ac3c
00000010: cb85 d73c e550 053c fa8b edbc 5af2 5bbd
00000020: 7b40 d13c 99cd 063d 045c 14bd 4f77 5fbb
00000030: eda9 2fbd 4be9 15bd 7f49 46bc 6d4e 163d
00000040: 2329 363d a881 bcba ced0 ed3c a801 95bc
00000050: 7b50 8abc 9894 343d 0290 473c 51ea d8bc
00000060: 9fcb 70bc ae83 953c 3bef 0f3d 21ae c33c
00000070: 9392 2e3c 4d1d 4a3c 7b67 4a3d 1d55 2bbc
00000080: cb0b 3bbd 85f0 3c3d 0335 3fbd 82de 2c3b
00000090: fe4a 2cbd 630c d9bb a8fb 92bc 93dd 5cbd
000000a0: a159 253c d9ce 143d 7294 3abd 5b85 61bd
000000b0: 3ecb 2b3d 9cd0 46bd a85d 9b3c 8f22 2a3c
000000c0: e6a5 853c 342b a3bc e96c 21bc 2a96 173d
000000d0: 07f3 3d3d 9786 0bbd 5bdf 92bb 7191 253d
000000e0: d33b 2e3c 7552 3b3d 4cf1 013d c944 99bc
000000f0: e0ed 4c3c b676 f3bc 2c71 7ebc ca5c c63c
00000100: affb 9f3c 719f 5b3c b094 6f38 4ccd b2bc
00000110: 52b0 83bc 5531 a33c a66f ecbb fcbf 70bc
00000120: ca70 00bc eaa8 c3bc 80ab 673d ec9c 24bd
00000130: c832 713d 6b21 163d e8d2 dfbc 3151 ee3c
00000140: bb67 f7bc e574 ecbc a40b ebbc c0e6 c13c
00000150: 235f 863a 83e1 d03c 90a7 f3bb 043e 30bb
00000160: 6893 2fbd 90ec 25bd 5eb5 503d 5e5d fb3b
00000170: 107c 203d e9d7 efbb de97 2cbd b6b8 bbbc
00000180: 0040 52bc f90a 28bd bd7a c1bb 8996 6c3c
00000190: a66a e23b fe81 f5bc 97eb 20bc 700d 383c
000001a0: 315c 34bc 7f1a f7bc ccb1 953c 77a5 64bc
000001b0: 3b94 d0bb 355d 3d3c 20b4 973c ef14 2a3c
000001c0: dde7 373d ff7f 453d 001e 53bb 64b7 5e3c
000001d0: 59b1 d6bc a313 273d dea5 043d 2eb0 093c
000001e0: a748 d8bc f5f2 f1ba 2757 1cbc faa7 14bc
000001f0: 8551 0cbd 4faa debc 03ee 1bbd 8bc0 983c
00000200: 1624 a1ba 5ecb 9e3c 62bc 79ba 6e9c 0cbd
00000210: 38e5 2cbd eaef cf3b e9cc 8fbb b524 413d
00000220: b303 093d 39b4 0fbd b389 fa3c 4c59 f33b
00000230: 3124 453d 4eaf 8dbc 351d 4abc e9fa 5a3c
00000240: 6255 d5bc 49c7 dd3c 0258 28bd ac71 be3c
00000250: dbc7 afbc 3d54 a33c 7121 39bd 9212 363d
00000260: 0d05 69bd 7752 2f3c e9ab 1f3d c2b9 66bd
00000270: 8402 313d e36f 7a3c c986 ff3c a3c6 36bd
00000280: f25c 483d 20ca 513d 8dfe 063d 6f5b 9fbc
00000290: 300b 90bb fd76 a6bc 193f 453b 88fd 5d3d
000002a0: 463d 3c3d 516d 46bd dd9b bb3b ecde f23c
000002b0: af0a 6ebc 2866 7dbc f03f efbc 4da1 38bd
000002c0: 5616 2fbd 6942 4dbd a098 e3bc 3ce8 a63c
000002d0: ccc5 2dbd 0a0c 30bd 6975 e83c 5a47 243c
000002e0: 690a 1bbd 98d3 44bc 4db3 d63c db0c 5b3d
000002f0: 8ec8 b33c 1680 9dbc 7c45 5b3c fbc4 85bc
00000300: c780 313d 97ad 273d e8a5 f43c c0f3 a53c
00000310: 0a9d afbb ee5e d13a a8f6 2f3d 02a9 2fbd
00000320: 2d24 25bd 71f5 a03c 4b67 963c 0323 88bc
00000330: 4757 873c c2d2 41bd 26dc 8e3b f737 21bd
00000340: afbd b0bb 4202 703c ac8f c4bc 0b29 8bbc
00000350: 0b74 90bb 769a 2a3d 0fda 083d e0ab 623b
00000360: a398 1bbc 320f 423d 855c 85bc 4726 0ebc
00000370: b0d5 f4bc dc55 1b3d 4863 af3c 782d ecbc
00000380: f5ee 0f3d 2c51 2d3c 839e 4bbd c442 bb3c
00000390: 809b eebb c832 3abd d949 8f3a b61b 9c3c
000003a0: b96c ca3c 0699 e03b 2e49 29bc d65b a2bc
000003b0: 8d44 2f3d 46f5 f33c 4092 063d 78a8 6e3b
000003c0: 7333 1e3c 10ab 33bc 366c 8abb ed17 f6bc
000003d0: d65f 083d 952f 833c 1789 e0bb c829 a5bc
000003e0: 7924 d5ba c461 d03c d812 2cbd 7dc7 0fbd
000003f0: 0831 913c bd9d 24bd 9c04 48bd e52b 92bc

Linear_Trend.bias f4 [96]
0.00908673 -0.020829696 -0.01825144 0.012089537 0.01628978 -0.020176519 0.010646956 -0.013828643
-0.0111208465 -0.019561073 -0.014856186 -0.012149859 -0.03911954 0.021278515 -0.03883373 0.020764237
0.006141712 -0.03207142 0.0027874445 0.021643696 0.015922727 -0.007470582 -0.0068129185 -0.02369026
-0.018986128 -0.015171023 -0.009366451 0.009006847 0.022968253 0.0149801755 0.026976928 -0.0031727315
-0.012762789 -0.0031729368 -0.03604289 -0.0341541 -0.0300678 0.0044053947 -0.02565041 -0.0009931541
0.02787148 -0.013188167 -0.0107293185 0.006106024 0.032975897 -0.01465913 -0.053865407 -0.019707318
0.0038605926 -0.048424136 0.0014564664 -0.0446984 0.0042035496 0.028907416 -0.0016434246 -0.031678624
0.010035994 0.0068307617 0.018176578 -0.0051692585 0.009651352 -0.006294646 -0.051446073 -0.009721065
0.018894635 -0.009836186 -0.01235811 -0.008883792 0.0039535505 0.0077972095 0.00025053608 -0.015757203
0.017605286 -0.050037365 -0.030574055 -0.026977142 -0.014935928 0.001165349 0.01906287 0.03964
-0.05729704 -0.052748885 -0.02662925 -0.01635816 0.0031904066 0.026643515 -0.041443437 0.0046124835
-0.026020454 -0.046241228 -0.001991475 -0.054937705 -0.03680012 0.020033214 -0.016357554 -0.03390619
00000000: 82e0 143c 0aa3 aabc 0b84 95bc 3213 463c
00000010: 2572 853c 3a49 a5bc 9270 2e3c 8891 62bc
00000020: 3634 36bc 8b3e a0bc 5c67 73bc 3410 47bc
00000030: d03b 20bd 4850 ae3c 1e10 1fbd c319 aa3c
00000040: 6a40 c93b 525d 03bd 8fad 363b 1f4e b13c
00000050: 6170 823c c9cb f4bb e73e dfbb 1312 c2bc
00000060: cc88 9bbc e28f 78bc be75 19bc 7491 133c
00000070: eb27 bc3c 696f 753c b8fe dc3c 9aed 4fbb
00000080: 041b 51bc 0cf1 4fbb b6a1 13bd 2be5 0bbd
00000090: bf50 f6bc 215b 903b cf20 d2bc b92c 82ba
000000a0: bb52 e43c 2e13 58bc 06ca 2fbc 0b15 c83b
000000b0: bc11 073d d92c 70bc f9a1 5cbd 3e71 a1bc
000000c0: ff01 7d3b 6358 46bd e7e6 be3a ab15 37bd
000000d0: eebd 893b 3fcf ec3c 2e68 d7ba 72c1 01bd
000000e0: 036e 243c 95d4 df3b 0ce7 943c e262 a9bb
000000f0: b420 1e3c 5143 cebb 1eb9 52bd 1a45 1fbc
00000100: ecc8 9a3c f427 21bc ac79 4abc 538d 11bc
00000110: c98c 813b bc7f ff3b 625a 8339 4015 81bc
00000120: f638 903c fbf3 4cbd 7176 fabc 2bff dcbc
00000130: d3b5 74bc a0be 983a bc29 9c3c 8d5d 223d
00000140: 4db0 6abd 370f 58bd 9625 dabc 8c01 86bc
00000150: 2416 513b 8043 da3c 98c0 29bd 5124 973b
00000160: d928 d5bc 7167 3dbd 6883 02bb 5c06 61bd
00000170: b9bb 16bd b21c a43c 4700 86bc 38e1 0abd
