checkpoints/336_96_NLinear_ETTh1_ftM_sl336_ll48_pl96_dm16_nh4_el3_dl1_df128_fc1_ebtimeF_dtTrue_Exp_0/checkpoint.pth (torch, 130471 bytes, 2 tensors)

Linear.weight f4 [96, 336]
0	0xbc748520	-0.014924318
1	0x3c3d7b22	0.011565002
2	0x3c88c5c4	0.016695864
3	0x3c830a3b	0.01599609
4	0x3bc89912	0.006121763
5	0xbd14c41d	-0.03631984
6	0xbd22ddb8	-0.03976223
7	0x3d632046	0.0554507
8	0xbc895240	-0.016762853
9	0xbcfb522e	-0.030678835
10	0x3d3f1f76	0.046660863
11	0xbd0e3f18	-0.03472814
12	0x3d0d3b02	0.034480102
13	0xbd11c416	-0.035587393
14	0x3ce8de23	0.028426236
15	0xbc84311f	-0.016136704
16	0xbc2a97f2	-0.010412203
17	0xbccb0603	-0.02478314
18	0x3cb8158e	0.022471216
19	0x3c34d8ae	0.011037989
20	0x3cbd223b	0.023087611
21	0xbcce9b70	-0.025220603
22	0x3d0d1c61	0.034450892
23	0xbc34bb49	-0.01103098
24	0x3c81e613	0.015856778
25	0xbcc3b4bb	-0.02388989
26	0x3d3fe718	0.046851248
27	0xbcf200fc	-0.029541485
28	0xbcc2809a	-0.023742963
29	0xbcb73510	-0.02236417
30	0x3c4dbb88	0.012556918
31	0x3c446794	0.011987586
32	0x3c92ac11	0.017904313
33	0xbbdbdc45	-0.006709608
34	0x3ce127b0	0.027484745
35	0x3d3136fc	0.043265328
36	0xbd329c23	-0.043605935
37	0xbce82f80	-0.028342962
38	0xbd0ba1fb	-0.034090023
39	0xbcdd782e	-0.027034845
40	0x3c9b9377	0.018991215
41	0x3d2d3dac	0.042295143
42	0x3c72928b	0.014805446
43	0xbd40e45c	-0.04709278
44	0x3c94e890	0.0181773
45	0x3c9a6ad0	0.01884976
46	0x3cc3c4f6	0.02389763
47	0xbd85d2dc	-0.06534359
48	0x3c90f67b	0.017695656
49	0xbc51529a	-0.012776041
50	0x3d126579	0.035741303
51	0x3ca7234a	0.02040257
52	0x3a90c7a0	0.0011045821
53	0xbb9df896	-0.0048208935
54	0x3cdc927f	0.026925324
55	0xbcf16be2	-0.029470388
56	0xbac8ce7d	-0.0015320327
57	0xbcfc6242	-0.030808572
58	0x3ce79dde	0.02827352
59	0x3cd2ec53	0.025747454
60	0xbd463bc3	-0.048396837
61	0xbb8df454	-0.0043321047
62	0x3cae0d5c	0.021246605
63	0x3caf02c2	0.02136362
64	0x3d2f4457	0.042789783
65	0xbd174204	-0.03692819
66	0xba9077d3	-0.0011022039
67	0xbbbc38fc	-0.0057440978
68	0xbcb737d8	-0.022365496
69	0xbcca21ae	-0.024674263
70	0xbca346ee	-0.019931283
71	0x3d245862	0.04012335
72	0xbc31fdee	-0.010863764
73	0x3b44e61a	0.0030044378
74	0xbc8a9d96	-0.016920846
75	0xbcbdf23a	-0.023186792
76	0x3d62774c	0.05528955
77	0xbc225b87	-0.009909517
78	0xbc840ad0	-0.016118437
79	0x3d547318	0.051867574
80	0xbcce3c58	-0.025175259
81	0xbc0114a7	-0.007878459
82	0x3b8ae699	0.004238915
83	0xbc5f6f17	-0.013637326
84	0xbc4cfb1a	-0.012511039
85	0x3ab7dc15	0.0014027382
86	0x3c6e723b	0.014553602
87	0xbcc3ed67	-0.023916913
88	0xbbd75f99	-0.0065726754
89	0x3d5d621a	0.054048635
90	0x3befdf00	0.007320285
91	0x3aa2062c	0.0012361459
92	0xbd205db7	-0.039151873
93	0xbce2d9f5	-0.02769182
94	0x3cb590d0	0.022163779
95	0x3cc4294b	0.023945471
96	0xbcaa988c	-0.020824693
97	0x3ce161a5	0.02751238
98	0x3bcc4cd3	0.006234744
99	0xbce452ac	-0.027871452
100	0x3cf2ad3e	0.029623624
101	0xbbb301c3	-0.0054628565
102	0xbd3fef22	-0.046858914
103	0x3d12e04c	0.035858437
104	0x3c07221c	0.008247878
105	0xbd157a6d	-0.036493707
106	0xbb41abc1	-0.0029551836
107	0x3cf15e4e	0.029463913
108	0x3c8a192c	0.016857706
109	0x3c0ab778	0.008466594
110	0x3ba5cfdc	0.005060179
111	0xbbcd00db	-0.0062562055
112	0x3b304750	0.0026897974
113	0xbcd7378a	-0.0262716
114	0x3c685430	0.014180228
115	0xbd207f92	-0.03918416
116	0x3d3b4ada	0.04572568
117	0xbc940b3d	-0.018071765
118	0xbd032f74	-0.032027677
119	0x3d1b023b	0.037843924
120	0x3c843afc	0.016141407
121	0xbc0c2fd9	-0.00855633
122	0xbcfa8cc7	-0.030584706
123	0x3cdf8861	0.02728671
124	0xbd40f977	-0.04711291
125	0x3cdd48b8	0.027012214
126	0x3c28ba30	0.010298297
127	0x3d3d0524	0.04614748
128	0xbcba2363	-0.022721952
129	0xbd3217d8	-0.04347977
130	0x3aba6566	0.0014220893
131	0x3d420c81	0.047375206
132	0xbd0624c7	-0.032749917
133	0xbd595827	-0.053062584
134	0x3d041808	0.03224948
135	0x3cbd8a2e	0.023137178
136	0x3cbe7f9f	0.023254214
137	0x3d0347ba	0.032050826
138	0x3c28310a	0.010265598
139	0xbcfa4853	-0.030552065
140	0xbca00587	-0.019533886
141	0xbbd0e5f5	-0.0063750693
142	0xbd002ba2	-0.03129161
143	0xbd43de16	-0.04781922
144	0x3d8f6155	0.070009865
145	0x3d4ff052	0.050766297
146	0xbd4f163b	-0.05055831
147	0xbca730b3	-0.020408964
148	0x3d0ff72d	0.035147835
149	0x3c2f5fc1	0.010703982
150	0xbc904086	-0.017608892
151	0xbc832e84	-0.016013391
152	0x3cb34beb	0.021886786
153	0xbc5c48fd	-0.013445136
154	0xbcadb203	-0.021203047
155	0x3bbe4f1b	0.00580777
156	0x3d1f2762	0.038855918
157	0xbc0167d4	-0.00789829
158	0xbc99c248	-0.018769398
159	0xbb60fcdf	-0.003433041
160	0xbc946c67	-0.018118097
161	0xbceafc49	-0.028684752
162	0x3b41722e	0.002951752
163	0x3c8f5e24	0.017500944
164	0x3d173d9b	0.036923986
165	0xbabc306e	-0.0014357695
166	0x3c0c574b	0.008565734
167	0xbc632a7a	-0.013865108
168	0x3cbb5d93	0.022871768
169	0xbc6b9bcc	-0.014380407
170	0xbc61dffc	-0.013786312
171	0x3cb3386a	0.021877486
172	0x3c144aa4	0.009050999
173	0xbc9de6bc	-0.019275062
174	0xbb82b2f6	-0.003988619
175	0x3c89fa72	0.016843054
176	0xbc6a2058	-0.014289938
177	0x3cfdb7ed	0.030971492
178	0xbd141791	-0.036155287
179	0x3b050e58	0.002030274
180	0x3c01275f	0.007882922
181	0x3cbb23f6	0.022844296
182	0xbbf30ddc	-0.0074174237
183	0xbc1a044d	-0.009400439
184	0x3cdf0119	0.027222203
185	0xbcfe1746	-0.031016957
186	0xbc453fdf	-0.012039154
187	0xbcd85a9b	-0.026410392
188	0x3d5c269a	0.05374775
189	0x3c0ae801	0.008478166
190	0xbd4e014f	-0.050294217
191	0xbc1d96b8	-0.009618454
192	0xbbd545c4	-0.006508561
193	0x3d22b1d8	0.039720386
194	0x3cd76929	0.026295261
195	0x3c125aae	0.008932753
196	0xbcad9bc3	-0.021192437
197	0xbd2eb144	-0.042649522
198	0x3d15217f	0.036408897
199	0xbc8737b2	-0.01650605
200	0x3c2bd030	0.0104866475
201	0xbc37acfd	-0.011210677
202	0x3d208169	0.039185915
203	0xbc00868e	-0.00784458
204	0x3cc0a647	0.023516787
205	0xbd1f6e1a	-0.03892336
206	0xbd158155	-0.036500294
207	0x3c5a7411	0.013333336
208	0x3d0bd7ca	0.03414134
209	0xbce022e5	-0.027360389
210	0x3d355744	0.044272676
211	0x3c38e399	0.011284732
212	0xbd14863c	-0.03626083
213	0xbccb0a1b	-0.024785092
214	0xbcf58032	-0.029968355
215	0xbc9d33f8	-0.01918982
216	0x3d569ef1	0.052397672
217	0x3d487a3c	0.048944697
218	0x3cfd65d1	0.030932339
219	0xbd5d5875	-0.054039437
220	0x3c9ff517	0.019526048
221	0xbcce8f3c	-0.025214784
222	0xbc3e23d3	-0.011605221
223	0x3d2d5e0d	0.042326022
224	0xbca31966	-0.019909572
225	0xbcf53abc	-0.029935233
226	0x3cb374ab	0.021906218
227	0xbc01a7e6	-0.007913565
228	0xbbc58f6d	-0.0060290606
229	0xbc86f18e	-0.016472604
230	0x3ce16831	0.027515503
231	0x3ca1f738	0.019771203
232	0xbc415ada	-0.011801446
233	0xbc1cb56e	-0.009564741
234	0x3bae1d64	0.005313562
235	0xbd130686	-0.035894893
236	0x3c6c1bf8	0.014410965
237	0x3cc4cace	0.024022486
238	0x3c289d8d	0.010291469
239	0xbd7d035a	-0.061770774
240	0x3b5dd73e	0.0033850218
241	0x3d20ef0f	0.039290484
242	0x3c9ed82a	0.019390184
243	0x3c38e97d	0.011286137
244	0x3cd73c83	0.026273971
245	0x3cff329c	0.031152062
246	0xbd138ab2	-0.036020942
247	0xbd2b9d6c	-0.041898176
248	0xbb26d756	-0.002545794
249	0x3d12ad39	0.03580973
250	0xbc11e54b	-0.008904765
251	0xbc14d298	-0.009083413
252	0xbd2a00b2	-0.04150457
253	0x3cad7f1a	0.02117877
254	0x3cab16ff	0.020884989
255	0xbc8a2135	-0.016861537

Linear.bias f4 [96]
0	0xb9b7758a	-0.00034992053
1	0xbb362149	-0.0027790836
2	0xbbacb8da	-0.0052710595
3	0xbb58c687	-0.0033077316
4	0xbb2dd2e7	-0.0026523413
5	0xbb8e59fd	-0.0043442235
6	0xbc5ccaf3	-0.013476121
7	0x3b5c3f60	0.003360711
8	0xb983cfe3	-0.00025141155
9	0xbc11b678	-0.008893602
10	0xbba3e607	-0.0050017866
11	0xbc521612	-0.012822645
12	0xbbb70fb1	-0.0055865874
13	0xbc6c41a3	-0.014419946
14	0xbb88debb	-0.004176942
15	0xbca8798c	-0.02056577
16	0xbb7cfb87	-0.003860207
17	0xbc07b43c	-0.008282717
18	0xbc4251f8	-0.011860363
19	0xbc20c236	-0.0098119285
20	0xbc3fe867	-0.011713124
21	0xbc42170c	-0.011846315
22	0xbba97035	-0.005170847
23	0xbc261735	-0.010137369
24	0x3b6cae45	0.0036114615
25	0xbbf7fc0c	-0.007567888
26	0xba995d98	-0.0011700867
27	0xbba5058a	-0.0050360607
28	0xbc64a373	-0.013954985
29	0xbc50b094	-0.012737412
30	0xbca57ccc	-0.02020111
31	0xbc98c8d9	-0.01865046
32	0xbc821b5f	-0.015882192
33	0xbc159a03	-0.009130958
34	0xbb22d869	-0.0024848229
35	0xbbd776df	-0.00657545
36	0x3ba7007e	0.005096494
37	0xbc6aeed1	-0.014339165
38	0xbbe2dd0c	-0.0069233235
39	0xbc6e7168	-0.014553405
40	0xbca6bcfc	-0.020353787
41	0xbc858967	-0.01630087
42	0xbb4f1e70	-0.0031603836
43	0xbc575407	-0.013142592
44	0xbc8c9c26	-0.017164301
45	0xbc747e89	-0.014922746
46	0x3b842a4c	0.0040333625
47	0xbc60db05	-0.013724093
48	0xbc706596	-0.0146726575
49	0xbbdb28bf	-0.006688207
50	0xbc0ed42e	-0.00871758
51	0xbc31a111	-0.010841624
52	0xbc946201	-0.018113138
53	0xbca21d87	-0.01978947
54	0xbc6f4d85	-0.014605884
55	0xbc80cc17	-0.015722318
56	0xbc2845bb	-0.010270531
57	0xbb8dc928	-0.004326958
58	0xbca45628	-0.020060614
59	0xbcbca778	-0.023029074
60	0xbc318d3c	-0.010836896
61	0xbc8ed7c4	-0.01743687
62	0xbb45840b	-0.0030138518
63	0xbcbcaf34	-0.023032762
64	0xbcae2124	-0.021256037
65	0xbcb70376	-0.022340517
66	0xbc639fbc	-0.013893064
67	0xbbd96aac	-0.0066350307
68	0xbc842e05	-0.016135225
69	0xbcb05339	-0.021524059
70	0xbc3a117b	-0.011356707
71	0xbca0f3aa	-0.019647438
72	0xbc89bcac	-0.016813599
73	0xbc027918	-0.007963441
74	0xbc6174ad	-0.013760728
75	0xbc0819f7	-0.008306972
76	0xbbfc0350	-0.0076908246
77	0xbc580a7f	-0.013186096
78	0xbcc41563	-0.02393598
79	0xbce7250a	-0.028215904
80	0xbaaaf426	-0.0013042733
81	0x3b8b9e3e	0.0042608073
82	0xbcaa886e	-0.020817008
83	0xbbdd6048	-0.0067558624
84	0xbb8a347e	-0.0042176833
85	0xbcbccebb	-0.023047796
86	0x3a98e43e	0.0011664701
87	0xbc7c3e9d	-0.015395788
88	0x3a97c627	0.001157944
89	0xbc3b5b0b	-0.011435281
90	0xbcd2190a	-0.025646705
91	0xb920a316	-0.00015319543
92	0x3ba0fa9a	0.0049126865
93	0xbc8e9913	-0.017406976
94	0xbc8623a0	-0.01637441
95	0xbb6544c2	-0.003498361
