checkpoints/336_96_Informer_ETTh1_ftM_sl336_ll48_pl96_dm16_nh4_el3_dl1_df128_fc1_ebtimeF_dtTrue_Exp_0/checkpoint.pth (torch, 778617 bytes, 98 tensors)

enc_embedding.value_embedding.tokenConv.weight f4 [16, 7, 3]
000000 9c 7a 2d 3d 34 a1 0a 3d 56 2b 8f bd 30 4d d5 bd
       0.042353258 0.03384514 -0.069906875 -0.10415113
000010 72 b9 10 bf c5 82 1b be 4d bd 0c 3e 89 87 eb 3e
       -0.5653297 -0.15186603 0.13744088 0.46001843
000020 4a 27 ea be d7 84 91 3e ac 7b 6a 3d 15 25 40 3d
       -0.457331 0.2842166 0.05724685 0.046910364
000030 ca b3 be 3e ff 4a b0 3d fe 85 4e be 3e ab 0d 3e
       0.37246543 0.08608054 -0.20168301 0.13834855
000040 46 23 d8 bc ff 68 ca 3e 2a 1d 45 be 1a 90 90 be
       -0.026384007 0.3953323 -0.19249406 -0.2823494
000050 5b be 94 be b3 05 ad be ab c1 b0 be 41 94 34 3e
       -0.2905148 -0.3379341 -0.34522757 0.1763468
000060 f5 a3 02 bf 6e 2a fa bc 34 f6 21 3f ab 91 22 3e
       -0.5103143 -0.03053781 0.632663 0.1587588
000070 f5 90 02 3d 16 d5 97 bd 0f 0e 93 bd aa 1d 65 be
       0.031876523 -0.0741369 -0.07180416 -0.22374597
000080 11 58 ca 3e 36 9e b6 bd 65 4a ef 3c 34 5b 48 be
       0.39520314 -0.08916895 0.029210279 -0.19566041
000090 50 ef d3 3d f2 34 9c 3e eb b8 d4 3d d5 22 c2 be
       0.103483796 0.30509144 0.10386833 -0.379172
0000a0 32 a7 22 3e 34 0b 32 3f f4 b5 fa be 1c db 26 3e
       0.15884092 0.69548345 -0.48966944 0.16294521
0000b0 18 b0 8f bd be c7 da 3d 41 ef be be 27 71 8a 3e
       -0.07016009 0.10682629 -0.3729191 0.27039453
0000c0 dc 9a 12 be 88 ab c0 3e ab 1f d0 be 6e 4d 1f 3d
       -0.14316887 0.37630868 -0.4064916 0.038892202
0000d0 f0 f1 11 bf 44 54 62 3e d5 08 d1 3d 4e 80 fb bd
       -0.5700979 0.22102457 0.10206763 -0.122803316
0000e0 f8 a9 2e 3e 93 a4 2a be 2b 3e 1a bd 03 d4 88 be
       0.17057025 -0.16664343 -0.037656944 -0.26724252
0000f0 2a 8d 95 be 11 cf 42 be 32 e6 b8 3e 5d 07 6e bd
       -0.29209262 -0.19024302 0.36113125 -0.05811249
000100 a8 63 34 3e c3 00 99 3e 36 d4 f5 b9 d4 27 1b bf
       0.17616141 0.29883394 -0.0004688815 -0.6060765
000110 13 d6 ea 3e 4c e9 3d 3e ee 39 63 3e 8c 4a b3 3e
       0.4586645 0.18546027 0.22190067 0.35017812
000120 85 b5 45 3e 75 8e 67 be 80 87 c9 3d 0e c8 c6 3d
       0.19307525 -0.22612937 0.09840298 0.09706126
000130 48 9e 34 bc 72 71 88 be 7b e1 2a 3e ab a9 26 bf
       -0.011024065 -0.26649052 0.16687576 -0.6510264
000140 b1 f7 d6 3d 2d 99 3c be 3b 2b 01 3f 1c 82 8e 3e
       0.10496462 -0.18417807 0.5045659 0.2783364
000150 6a 96 92 bd 1c 75 f8 3e 81 18 c1 3c 90 b4 e8 be
       -0.071575955 0.48526847 0.023571255 -0.45450258
000160 3e 05 aa 3e 11 d9 07 bf 99 53 67 be 37 24 96 be
       0.33207124 -0.5306559 -0.22590484 -0.29324505
000170 29 ef b4 3e 26 a9 e8 bd a7 53 20 3e 71 53 bf 3e
       0.35338715 -0.113603875 0.15656911 0.37368348
000180 ad 4a 2d 3e 01 21 85 3d 6a df 9a be 8c 3e 53 be
       0.16923018 0.065004356 -0.30248576 -0.20629328
000190 5f 6f 6e bd 2d b0 1c 3f 11 3d 0d bd c2 da 96 3e
       -0.05821168 0.6120632 -0.034482066 0.29463774
0001a0 3e 8a 5c bd d6 33 0e 3c 10 c1 7f be d7 3a ac bd
       -0.053842776 0.008679351 -0.24975991 -0.0840966
0001b0 f2 2e b3 bd fb 7a 26 be e8 24 37 be 60 91 7c be
       -0.087491885 -0.16257851 -0.17885172 -0.24664831
0001c0 aa 2f 2b 3e 5f 71 d4 3e 05 a2 f8 3d 4c fe 92 3e
       0.16717401 0.41492745 0.12140278 0.28709638
0001d0 cf 11 b4 3d f0 3b a7 3e f5 74 97 3e 84 50 a5 3d
       0.08792459 0.32662916 0.2958142 0.08071998
0001e0 c8 4c 12 be 52 b5 9f be c9 45 0e 3f 54 86 f6 3e
       -0.14287102 -0.31193024 0.55575234 0.4814936
0001f0 cc 81 54 be d5 19 05 bf 53 5b 5e 3e c9 e1 28 3c
       -0.20752639 -0.5199254 0.21714525 0.010307738
000200 2f 02 8b 3e 63 fb bc bd d3 0d 43 3e 43 b1 a8 be
       0.27150103 -0.09227636 0.19048242 -0.3294774
000210 f9 f5 e8 3d a2 17 39 3f 30 08 89 3e 7f 3f 5c 3e
       0.113750406 0.72301686 0.2676406 0.21508597
000220 e8 c1 54 bd 4e 7c 02 3e b7 55 76 be fb 9f d1 be
       -0.051942736 0.12742731 -0.24056135 -0.40942368
000230 b3 b9 6e be 7c 3a 8b be f5 61 a8 3d be d5 14 3e
       -0.23313026 -0.27193058 0.08221809 0.14534661
000240 2e 70 84 3e ee 48 2a be ac 42 d4 3e df 86 c5 3e
       0.25866836 -0.16629383 0.41457117 0.3857946
000250 a2 0c be bd 16 21 4f be 9f a3 eb 3e 7e 3d 07 3f
       -0.09279753 -0.20227465 0.4602327 0.52828205
000260 30 83 90 be 80 7c 8b be 4a 49 4a be f6 43 06 be
       -0.28225088 -0.27243423 -0.1975452 -0.13111863
000270 22 74 07 3f 54 33 dc 3e 7d 95 1f 3f 40 de 62 3e
       0.5291158 0.4300791 0.62337476 0.22155094
000280 5b c5 77 3e 1f 3d 02 bf 14 48 d4 bd 58 8c ea 3e
       0.24196379 -0.50874513 -0.1036531 0.458102
000290 6d ba ca 3d 49 29 8e be dd 06 d5 be f8 18 17 be
       0.09898839 -0.27765873 -0.416068 -0.14755619
0002a0 59 82 10 3f 14 df 1e be 63 f2 16 bf 82 28 42 3f
       0.56448895 -0.15514785 -0.589636 0.7584306
0002b0 fe 1c 4b bd 39 c4 81 bd 48 00 5a 3d da de c4 bd
       -0.049588196 -0.063362546 0.053222924 -0.09612818
0002c0 6d 9d 00 3c ac da b4 3e 64 0a 58 be d6 5c 9e 3e
       0.007850033 0.35323083 -0.21097714 0.30930203
0002d0 fd 44 9a be 8b c5 0a 3e 3d 4f 6a be 81 a7 8c be
       -0.3013076 0.13551919 -0.2288179 -0.27471545
0002e0 90 30 88 be ea 6c 23 bd 5a b1 ea be 9b a6 aa be
       -0.2659955 -0.03989879 -0.45838434 -0.33330235
0002f0 b7 92 14 bf 49 f0 15 bd df 47 81 3d bc cc a1 3e
       -0.5803637 -0.036606107 0.063125364 0.31601512
000300 17 0a a4 3d 22 86 02 3f 5f 32 df be f6 9b ce be
       0.08009737 0.5098592 -0.43593118 -0.40353364
000310 6d 30 ed be dc 62 1a be fc c9 06 3f 08 66 0e 3e
       -0.46326008 -0.15076774 0.52651954 0.1390611
000320 ab 38 ff 3c 9c 1d b0 3e 47 22 7d bc 31 17 18 be
       0.031154951 0.3439759 -0.015450067 -0.14852597
000330 c1 c2 86 be 85 c0 c1 3e a1 b8 43 3e cb ba 07 3e
       -0.2632046 0.37842193 0.19113399 0.1325485
000340 7b a7 23 be 0b 83 15 3f 82 0c 91 3e f0 db d4 be
       -0.15981857 0.5840308 0.28329855 -0.4157405
000350 73 e7 8b bb a9 14 00 3f 60 ac ea be 69 49 d0 3d
       -0.0042695343 0.50031525 -0.45834637 0.10170252
000360 f0 c0 22 ba 21 1d 8a 3e a2 04 6b 3e 6a 94 68 bc
       -0.00062085595 0.2697535 0.22950986 -0.014195541
000370 4a 14 f4 be 6d ed fe 3e 36 b3 4f 3e 81 d0 f8 be
       -0.4767173 0.49790516 0.20283207 -0.48596576
000380 eb f5 38 3e fa 1a 4d 3c df 58 12 be d8 31 ab be
       0.1806256 0.012518639 -0.14291714 -0.33436465
000390 5f f8 d3 3d 93 2d d9 3e e6 17 77 3d 3d 69 0b 3b
       0.103501074 0.42417583 0.060325526 0.0021272444
0003a0 da f5 18 3f d5 c7 b8 be c3 71 89 be 58 6d 84 3e
       0.5975014 -0.3608996 -0.26844606 0.25864673
0003b0 fd fa 48 be 63 58 51 3d 2f 7e bc bd 7c 52 db 3e
       -0.19626994 0.051109683 -0.09203755 0.42836368
0003c0 3a e3 8a 3e 49 a2 eb 3e be 11 1a 3f 93 3f 34 3e
       0.27126485 0.4602225 0.6018332 0.17602377
0003d0 3f 9a 87 be 95 a3 23 3e 19 ff 56 3e b3 ac 42 3e
       -0.26484868 0.1598037 0.2099575 0.19011192
0003e0 18 14 c9 be 4d 47 e2 3e 12 2b 09 3f 94 84 07 3d
       -0.39273143 0.44195023 0.53581345 0.03308542
0003f0 3f 2a 56 be 31 0c f1 be 24 8c 97 bd 66 6e d0 bd
       -0.20914553 -0.47079614 -0.073997766 -0.10177307

enc_embedding.position_embedding.pe f4 [1, 5000, 16]
000000 00 00 00 00 00 00 80 3f 00 00 00 00 00 00 80 3f
       0.0 1.0 0.0 1.0
000010 00 00 00 00 00 00 80 3f 00 00 00 00 00 00 80 3f
       0.0 1.0 0.0 1.0
000020 00 00 00 00 00 00 80 3f 00 00 00 00 00 00 80 3f
       0.0 1.0 0.0 1.0
000030 00 00 00 00 00 00 80 3f 00 00 00 00 00 00 80 3f
       0.0 1.0 0.0 1.0
000040 a4 6a 57 3f 41 51 0a 3f 3e 39 9f 3e 6b 4e 73 3f
       0.84147096 0.54030234 0.3109836 0.9504153
000050 76 75 cc 3d 98 b8 7e 3f 5b 81 01 3d 3c df 7f 3f
       0.099833414 0.9950042 0.031617504 0.99950004
000060 57 d6 23 3c b9 fc 7f 3f 1c 3e 4f 3b ac ff 7f 3f
       0.009999833 0.99995 0.0031622713 0.999995
000070 6d 12 83 3a f8 ff 7f 3f 61 cb a5 39 ff ff 7f 3f
       0.0009999998 0.9999995 0.00031622782 0.99999994
000080 b7 c7 68 3f 33 11 d5 be 1b 54 17 3f ec 7b 4e 3f
       0.9092974 -0.41614684 0.5911271 0.8065784
000090 f8 6f 4b 3e a5 e5 7a 3f c8 70 81 3d f9 7c 7f 3f
       0.19866931 0.9800666 0.063203394 0.9980007
0000a0 3e d4 a3 3c e5 f2 7f 3f d8 3d cf 3b b1 fe 7f 3f
       0.019998666 0.9998 0.006324511 0.99998003
0000b0 68 12 03 3b df ff 7f 3f 60 cb 25 3a fd ff 7f 3f
       0.0019999985 0.99999803 0.0006324556 0.9999998
0000c0 c3 81 10 3e 26 70 7d bf c2 09 50 3f 58 2f 15 3f
       0.14112 -0.9899925 0.8126489 0.58275366
0000d0 6c 4e 97 3e ef 90 74 3f c0 ff c1 3d 4f d9 7e 3f
       0.2955202 0.9553365 0.094726086 0.99550337
0000e0 1f b9 f5 3c 83 e2 7f 3f 0d 6e 1b 3c 0d fd 7f 3f
       0.0299955 0.99955004 0.009486687 0.999955
0000f0 92 9b 44 3b b5 ff 7f 3f 10 b1 78 3a f9 ff 7f 3f
       0.0029999954 0.9999955 0.00094868336 0.9999996
000100 cf bd 41 bf 30 55 27 bf de 1d 74 3f b1 2e 9a 3e
       -0.7568025 -0.6536436 0.95358074 0.30113748
000110 d7 61 c7 3e a7 ca 6b 3f 88 2e 01 3e 69 f4 7d 3f
       0.38941833 0.921061 0.12615407 0.99201065
000120 db cb 23 3d 94 cb 7f 3f c9 3c 4f 3c c2 fa 7f 3f
       0.039989334 0.9992001 0.01264877 0.99992
000130 57 12 83 3b 7a ff 7f 3f 5e cb a5 3a f3 ff 7f 3f
       0.003999989 0.999992 0.0012649109 0.9999992
000140 10 7c 75 bf 2c 3c 91 3e 7f fc 7f 3f e9 72 29 bc
       -0.9589243 0.2836622 0.99994653 -0.010342338
000150 43 77 f5 3e 40 a9 60 3f 1d 3c 21 3e 81 ce 7c 3f
       0.47942552 0.87758255 0.15745588 0.987526
000160 f4 b6 4c 3d 19 ae 7f 3f 7e 85 81 3c cf f7 7f 3f
       0.049979165 0.99875027 0.015810724 0.999875
000170 dd d6 a3 3b 2e ff 7f 3f 33 3e cf 3a eb ff 7f 3f
       0.004999979 0.9999875 0.0015811383 0.99999875
000180 8c 0f 8f be b8 cd 75 3f 4e 78 72 3f 6d 3f a4 be
       -0.2794155 0.96017027 0.9471482 -0.3207964
000190 68 8c 10 3f 32 49 53 3f 6e 20 41 3e e3 67 7b 3f
       0.5646424 0.8253356 0.18860027 0.98205394
0001a0 d1 9c 75 3d 12 8a 7f 3f 43 6c 9b 3c 34 f4 7f 3f
       0.059964005 0.99820054 0.018972522 0.99982
0001b0 58 9b c4 3b d2 fe 7f 3f 08 b1 f8 3a e2 ff 7f 3f
       0.0059999637 0.999982 0.0018973658 0.9999982
0001c0 46 30 28 3f bd ff 40 3f 6e e8 4c 3f bc 74 19 bf
       0.6569866 0.75390226 0.8004216 -0.5994375
0001d0 72 eb 24 3f b3 cc 43 3f 50 d3 60 3e ea c0 79 3f
       0.6442176 0.7648422 0.2195561 0.9755999
0001e0 32 3e 8f 3d 81 5f 7f 3f a2 52 b5 3c f2 ef 7f 3f
       0.06994285 0.997551 0.022134129 0.999755
0001f0 c5 5f e5 3b 65 fe 7f 3f ed 11 11 3b d7 ff 7f 3f
       0.006999942 0.9999755 0.0022135929 0.99999756
000200 95 46 7d 3f f6 fd 14 be 7e 06 13 3f e5 91 51 bf
       0.98935825 -0.14550003 0.5743178 -0.8186324
000210 a5 a4 37 3f 5f 5b 32 3f 51 26 80 3e 02 da 77 3f
       0.717356 0.6967067 0.25029233 0.9681703
000220 50 aa a3 3d 65 2e 7f 3f 8a 38 cf 3c 08 eb 7f 3f
       0.07991469 0.9968017 0.025295515 0.99968004
000230 12 12 03 3c e7 fd 7f 3f 55 cb 25 3b ca ff 7f 3f
       0.007999914 0.999968 0.0025298197 0.9999968
000240 32 01 d3 3e d5 3f 69 bf ee 1f 95 3e a2 e6 74 bf
       0.4121185 -0.91113025 0.29125923 -0.9566442
000250 1c 88 48 3f d5 21 1f 3f 2d c2 8f 3e a9 b3 75 3f
       0.78332686 0.62161 0.28077832 0.95977265
000260 3e 12 b8 3d c2 f6 7e 3f ea 1d e9 3c 76 e5 7f 3f
       0.089878544 0.9959527 0.028456647 0.99959505
000270 3a 74 13 3c 59 fd 7f 3f bc 84 3a 3b bc ff 7f 3f
       0.008999879 0.9999595 0.0028460464 0.99999595
000280 f8 44 0b bf 64 cd 56 bf 97 70 a9 bc fb f1 7f bf
       -0.5440211 -0.8390715 -0.02068357 -0.9997861
000290 a4 6a 57 3f 41 51 0a 3f 3d 39 9f 3e 6b 4e 73 3f
       0.84147096 0.54030234 0.31098357 0.9504153
0002a0 76 75 cc 3d 98 b8 7e 3f 59 81 01 3d 3c df 7f 3f
       0.099833414 0.9950042 0.031617496 0.99950004
0002b0 57 d6 23 3c b9 fc 7f 3f 22 3e 4f 3b ac ff 7f 3f
       0.009999833 0.99995 0.0031622727 0.999995
0002c0 5c ff 7f bf 72 05 91 3b 1f 41 a9 be 8d 9b 71 bf
       -0.9999902 0.004425698 -0.33057496 -0.94377977
0002d0 2a 26 64 3f c3 3d e8 3e 8b 87 ae 3e e4 aa 70 3f
       0.89120734 0.4535962 0.34087786 0.9401076
0002e0 72 d3 e0 3d e8 73 7e 3f 68 73 0e 3d 5b d8 7f 3f
       0.1097783 0.9939561 0.03477803 0.9993951
0002f0 69 38 34 3c 09 fc 7f 3f 87 f7 63 3b 9b ff 7f 3f
       0.010999777 0.9999395 0.003478499 0.999994
000300 d8 5c 09 bf d0 06 58 3f 24 91 1b bf 56 4f 4b bf
       -0.53657293 0.84385395 -0.6076834 -0.7941793
000310 1d 9a 6e 3f f7 86 b9 3e 2c a9 bd 3e c3 c9 6d 3f
       0.9320391 0.36235783 0.3704313 0.9288599
000320 ac 2b f5 3d b5 28 7e 3f 19 65 1b 3d d2 d0 7f 3f
       0.119712204 0.99280864 0.03793821 0.9992801
000330 70 9a 44 3c 48 fb 7f 3f eb b0 78 3b 87 ff 7f 3f
       0.011999711 0.999928 0.0037947248 0.9999928
000340 22 20 d7 3e 6f 4e 68 3f 4c 14 53 bf 9d d9 10 bf
       0.42016703 0.9074468 -0.82452846 -0.5658205
000350 c0 ab 76 3f 9d f5 88 3e 3f 9a cc 3e c3 ab 6a 3f
       0.9635582 0.26749888 0.3996143 0.9166834
000360 d0 be 04 3e 00 d7 7d 3f 65 56 28 3d a1 c8 7f 3f
       0.12963414 0.9915619 0.041098017 0.9991551
000370 6a fc 54 3c 76 fa 7f 3f 26 b5 86 3b 72 ff 7f 3f
       0.012999633 0.9999155 0.00411095 0.99999154
000380 72 98 7d 3f d7 04 0c 3e b3 a8 75 bf 0a 0d 90 be
       0.9906074 0.13673721 -0.9596054 -0.28134948
000390 6f 46 7c 3f e7 0b 2e 3e f4 56 db 3e b1 51 67 3f
       0.98544973 0.16996728 0.42839777 0.90359026
0003a0 64 e4 0e 3e cc 7e 7d 3f 43 47 35 3d c9 bf 7f 3f
       0.13954312 0.990216 0.044257414 0.99902016
0003b0 55 5e 65 3c 94 f9 7f 3f d6 11 91 3b 5c ff 7f 3f
       0.013999541 0.999902 0.004427175 0.9999902
0003c0 44 79 26 3f e8 7a 42 bf 75 e0 7f bf 96 22 fe 3c
       0.65028787 -0.7596879 -0.9995187 0.031022351
0003d0 d5 5b 7f 3f ba de 90 3d 83 db e9 3e 68 bc 63 3f
       0.997495 0.07073732 0.45675287 0.8895936
0003e0 4f 06 19 3e 1a 20 7d 3f aa 37 42 3d 49 b6 7f 3f
       0.14943813 0.9887711 0.047416367 0.9988752
0003f0 32 c0 75 3c a1 f8 7f 3f 85 6e 9b 3b 43 ff 7f 3f
       0.014999436 0.9998875 0.0047433996 0.99998873

enc_embedding.temporal_embedding.embed.weight f4 [16, 4]
000000 d7 42 ca 3d 12 9e 88 be 20 54 e3 3e f0 87 a4 be
       0.0987603 -0.26683098 0.4440012 -0.32134962
000010 8d 33 d2 3d 33 79 b9 3e b2 03 9d be 84 fa 2c 3e
       0.10263739 0.3622528 -0.30666882 0.16892439
000020 2c 65 c3 be 5b 4c ec 3e ce 70 c1 3e 2a 5d 8f be
       -0.38163126 0.46152005 0.37781376 -0.28000766
000030 7f 0f 84 bd 44 d6 91 3e 68 85 bb 3e d5 73 b6 be
       -0.06448268 0.28483784 0.36625218 -0.35635248
000040 f1 06 5f 3e c9 9c 11 bd 89 37 83 be 89 13 bd be
       0.21779992 -0.035549913 -0.25628307 -0.36928967
000050 12 d8 1e 3e d1 f1 68 3e 84 19 b0 be 25 6b 04 3f
       0.15512112 0.22748496 -0.34394467 0.5172599
000060 44 31 22 3e 74 87 d5 bb f0 a2 ad be 6a a1 65 bd
       0.15839106 -0.0065163914 -0.33913374 -0.05606214
000070 e5 18 ab 3d 43 53 12 3b da 29 b8 be 83 02 7b 3e
       0.08354358 0.002232746 -0.3596943 0.24512677
000080 2b 84 d7 3e 0f de 91 be d2 3d 14 bd e3 96 42 3d
       0.42093024 -0.2848973 -0.03619177 0.047507178
000090 35 e4 83 3d fb 91 11 3e e5 3a dd bc 2c 18 d0 3e
       0.064400114 0.14215843 -0.027005622 0.40643442
0000a0 1a bd 4d 3e fa 7c 82 3e ba 9c 85 3e dc 07 2c 3d
       0.20091668 0.25485975 0.26096135 0.041999683
0000b0 93 ad 8d bb 80 83 e1 bd e0 0f a9 be f0 b3 95 be
       -0.00432367 -0.1101141 -0.33019924 -0.29238844
0000c0 a7 9d f3 be c2 1c f5 be 80 11 eb 3d 4f 0e 47 be
       -0.47581217 -0.47873503 0.11477947 -0.19439052
0000d0 0a 5e b7 be af 8e f2 3e b2 9b 52 3d 3a 19 3e 3e
       -0.35813934 0.47374484 0.051418014 0.1856431
0000e0 72 74 b6 3e 2f fb 61 bd 69 6b 71 bd 7b da a0 be
       0.35635716 -0.055171188 -0.058940325 -0.31416687
0000f0 b2 01 33 3e 95 10 16 3e 69 4d 94 3c c0 bd db 3d
       0.17481115 0.14654763 0.018103318 0.10729551

dec_embedding.value_embedding.tokenConv.weight f4 [16, 7, 3]
000000 c1 af a4 3e bf c4 a7 3e b6 1f 9e 3e 14 1f e5 bd
       0.3216534 0.32767293 0.3088357 -0.11187568
000010 57 cb 3e be 90 f4 d0 bd 1b e3 88 be 65 93 86 3d
       -0.18632255 -0.102028966 -0.26735768 0.06571082
000020 b0 52 cc bd 63 6c 1b be e2 fb 8f 3d c4 36 49 bb
       -0.09976709 -0.15178065 0.07030465 -0.003070281
000030 33 ae cc be da 44 be be 61 7b 6a 3f cb 51 13 3e
       -0.39976653 -0.37161905 0.9159451 0.1438667
000040 0c 68 5c 3e b3 1b 3d bd f8 c6 de 3e 3e 07 26 be
       0.21524066 -0.046168994 0.43511176 -0.162137
000050 34 18 9a 3e 8e 0a ab 3e a6 29 d5 3e cd c6 dc bd
       0.3009659 0.3340649 0.41633338 -0.10780106
000060 84 11 a1 3d e8 42 5d 3e 28 ed 3b bc 04 bf a6 3e
       0.07864669 0.21607554 -0.011470117 0.32567608
000070 8a 54 b9 3e 91 6f bd 3c d7 79 26 be ce 3b dd 3e
       0.3619731 0.023124488 -0.16257416 0.4320969
000080 34 f3 d9 3d f3 75 26 be 89 9a ef bc 68 09 ec 3d
       0.106420904 -0.16255932 -0.029248493 0.115252316
000090 fc f0 8b be 66 f9 93 3e c0 97 97 3e e4 88 c8 3d
       -0.27332294 0.28901213 0.29607964 0.09791735
0000a0 45 e0 a6 be 88 5a 16 3c e2 70 af 3e f2 9a 31 bd
       -0.3259298 0.009176858 0.3426581 -0.043360658
0000b0 ec af 16 3e 45 23 de bd 8a 23 85 3e e7 c8 bc 3e
       0.14715546 -0.10846571 0.26003677 0.36872026
0000c0 b4 dd b5 bd 06 4f 9c bd 97 82 a1 3e 2c 10 12 bf
       -0.08880177 -0.0763226 0.31544945 -0.57055926
0000d0 c7 66 8e 3c c9 3a dd be 3d ef fe bd 93 6a 3d 3f
       0.017382992 -0.43208912 -0.12447975 0.73990744
0000e0 da 4b 1c be 68 9c 45 3e e0 2a 22 3e 64 79 84 be
       -0.1526331 0.19297945 0.15836668 -0.25873864
0000f0 5e a9 3e be 37 c6 25 be 6a 04 1f bf 4e 04 ba be
       -0.18619296 -0.16188894 -0.6211611 -0.3633141
000100 f9 6a 97 3e e4 ea 80 3d 0d df b4 be d0 b4 7e be
       0.295738 0.06294802 -0.35326424 -0.24873662
000110 6b 2e d5 3e 15 d8 04 bf d6 5b d0 3d 64 e5 dd be
       0.41636977 -0.51892215 0.10173766 -0.43339074
000120 1d 25 01 bd 64 a5 f1 3d 67 dd 8d bd 20 78 6a be
       -0.031529535 0.11799124 -0.06926995 -0.22897387
000130 47 59 b4 be 1f 48 28 be a9 33 b8 3e a9 a0 bb 3e
       -0.35224363 -0.16433762 0.35976914 0.3664601
000140 29 3c 1d bc 9e 8a 0d 3e e2 12 d9 3d 81 a6 ea 3e
       -0.009596863 0.1382241 0.10599305 0.45830157
000150 11 2c 42 bf f7 56 ac be 7a 93 bc bd 5a b9 07 be
       -0.7584849 -0.336601 -0.092078164 -0.132543
000160 ba 79 06 3e eb 2e d0 3d a6 fa 92 3e 5f 99 8a 3e
       0.13132372 0.10165199 0.28706855 0.27070138
000170 e7 c7 cc be 97 82 30 be 8e e1 d2 3c a9 4e 50 bd
       -0.39996263 -0.17237316 0.025742318 -0.050856266
000180 c0 e9 90 3e 13 45 bc 3e 23 b9 92 3e 02 05 c6 bd
       0.28303337 0.3677145 0.28656873 -0.09668924
000190 5e 65 b7 be 3d 86 bb bd 6a ea ed 3d 1b 20 3b 3e
       -0.35819525 -0.09156463 0.116169766 0.18273966
0001a0 96 ad a8 be 54 a0 63 be a0 ec a4 3e 99 8d 84 be
       -0.32944936 -0.22229129 0.3221178 -0.2588928
0001b0 9d fb dd 3d 55 a2 69 bd 4a c3 cd 3d bd 04 88 3d
       0.10839007 -0.057039578 0.10047014 0.06641529
0001c0 95 83 06 be be 9e da bd d0 29 51 be 38 f1 79 be
       -0.13136132 -0.10674809 -0.20426106 -0.24408424
0001d0 07 e6 1a be a4 38 cb bd 56 c3 85 3e 1c 86 39 3e
       -0.15126811 -0.09922913 0.26125592 0.18117565
0001e0 1c fb 29 be 74 89 dc 3e 0e e7 bf be 1e 3f 78 3e
       -0.16599697 0.43073618 -0.37480968 0.24242827
0001f0 01 4a 4b be f2 6b 96 be 8a 7e 12 be 21 8e f9 be
       -0.19852449 -0.2937923 -0.14306083 -0.48741248
000200 e5 c0 1f bd b7 1f dc bd 58 a5 d9 bd a1 f7 f5 bb
       -0.039002318 -0.107482366 -0.1062724 -0.0075063263
000210 69 dc 4f bd f4 38 33 bf d5 dd e0 bd 3a b2 a4 be
       -0.05074731 -0.7000878 -0.10979811 -0.32167226
000220 71 6f 0c be 99 85 bb 3e 4b 39 94 3e 27 20 66 be
       -0.13714387 0.36625364 0.2894996 -0.22473203
000230 67 ec 07 be d9 a0 7c 3e d2 46 ff 3d 52 cf 07 3f
       -0.13273774 0.24670734 0.1246468 0.5305072
000240 01 61 63 be fd b3 74 bd 41 cd af be 3d 3a 6a 3e
       -0.22204973 -0.059741963 -0.34336284 0.22873779
000250 83 54 13 be 61 ae 86 3e 90 83 28 3e b2 e7 4e bc
       -0.14387707 0.26304916 0.16456437 -0.012628483
000260 82 20 95 be 2f 78 8b bd 02 a1 8a 3d 46 cc 54 3d
       -0.29126364 -0.068100326 0.06768991 0.051952623
000270 2a 2d 7d bc 4d 76 cc 3e d9 07 0e 3e 68 9f 92 be
       -0.0154526625 0.39934006 0.13870181 -0.28637242
000280 e4 73 81 3e b0 9a 15 3f 87 cd 9e 3c fb 52 60 be
       0.2528373 0.5843916 0.019385112 -0.21906655
000290 99 60 2a 3e ca 48 95 3e 82 5c 22 3f 5c c3 cf 3d
       0.16638412 0.29157096 0.63422406 0.10144684
0002a0 a0 17 2b 3f cf 4b 22 bd b9 d2 a2 bd 1d 5b 60 bc
       0.66832924 -0.039623078 -0.079503484 -0.013693598
0002b0 22 5d 2b be eb ee 10 bf 0b 52 e6 3e fa 47 05 3e
       -0.16734746 -0.5661456 0.4498447 0.13015738
0002c0 bb ac 27 be d9 83 17 3f e0 9c 55 3e 51 94 68 be
       -0.16374485 0.5918556 0.20860624 -0.22712828
0002d0 2d c1 10 bf d9 78 2d be c6 e2 bf 3d f4 33 e7 3e
       -0.5654476 -0.16940631 0.093694255 0.45156825
0002e0 2c a0 c9 3e 79 ec 3b 3e f6 ad 87 3e 62 dc 81 3e
       0.39380014 0.18351926 0.2649991 0.2536345
0002f0 0e 6e 00 bd 29 3c 6d bc da b8 30 3d 94 73 18 be
       -0.031354956 -0.014479675 0.04314504 -0.1488784
000300 95 24 c3 bd b4 73 9d 3e 2f f1 95 3d b6 ac 42 3f
       -0.09528462 0.30752337 0.07321393 0.76044786
000310 95 00 b5 3e 44 f1 2d be 36 f2 94 3e 9a e7 2d 3d
       0.35352007 -0.16986567 0.29091042 0.0424572
000320 f7 92 03 3f 17 a6 18 bf d2 af 26 3e 41 d6 90 3d
       0.51396126 -0.59628433 0.16278008 0.07072116
000330 8a 88 89 be 89 d5 4f 3d 98 6d 66 3e 68 73 20 bf
       -0.26861984 0.050740752 0.22502744 -0.62676096
000340 2e 11 02 bf 0a 92 86 3e b1 56 5b 3f 1e 39 c7 bd
       -0.50807464 0.26283294 0.85679156 -0.09727691
000350 aa f4 82 3e 95 8c 10 3b e0 b2 9b 3e cb 05 6c be
       0.2557729 0.002205645 0.30409908 -0.23049085
000360 a2 da 84 3e 74 d9 17 3d b7 82 ad 3d 91 03 19 bd
       0.25948054 0.037072614 0.084721975 -0.037356917
000370 d1 dc 05 bf 18 d1 c6 be 19 bb 28 3f 5a cf 1c bd
       -0.52290064 -0.388314 0.6591049 -0.038283683
000380 7d 2b 0b 3e 47 3c 89 3e 1a 9d 97 bd 21 da 8c be
       0.13590808 0.268038 -0.074030116 -0.2751017
000390 99 3a 4e bc ff 2b 8d 3e 2b ef bd be c8 08 d0 be
       -0.012587213 0.2757263 -0.37096533 -0.406317
0003a0 11 45 5b be 47 98 73 3e b7 4d 36 3e 51 52 33 be
       -0.21413065 0.23788558 0.17803083 -0.1751187
0003b0 f1 30 f4 3e 3c 93 f4 3e 9b 48 3a bc a7 07 6e be
       0.4769359 0.4776858 -0.01136985 -0.23245107
0003c0 ee b8 f2 be 44 67 e6 bd a6 89 15 be 03 76 81 be
       -0.47406715 -0.11250165 -0.1460329 -0.25285348
0003d0 4d 7a 69 be 29 fa 28 bd 4f 1d fe be 53 30 91 be
       -0.2280056 -0.041254196 -0.49631736 -0.2835718
0003e0 8b b3 d8 be e8 2c e8 bd 75 88 8e be bb 99 a9 3e
       -0.4232448 -0.1133669 -0.27838483 0.331251
0003f0 a9 53 f2 be a1 86 65 bc 13 8f d7 bc 52 54 45 3f
       -0.47329453 -0.014009149 -0.02631334 0.7708179

dec_embedding.position_embedding.pe f4 [1, 5000, 16]
000000 00 00 00 00 00 00 80 3f 00 00 00 00 00 00 80 3f
       0.0 1.0 0.0 1.0
000010 00 00 00 00 00 00 80 3f 00 00 00 00 00 00 80 3f
       0.0 1.0 0.0 1.0
000020 00 00 00 00 00 00 80 3f 00 00 00 00 00 00 80 3f
       0.0 1.0 0.0 1.0
000030 00 00 00 00 00 00 80 3f 00 00 00 00 00 00 80 3f
       0.0 1.0 0.0 1.0
000040 a4 6a 57 3f 41 51 0a 3f 3e 39 9f 3e 6b 4e 73 3f
       0.84147096 0.54030234 0.3109836 0.9504153
000050 76 75 cc 3d 98 b8 7e 3f 5b 81 01 3d 3c df 7f 3f
       0.099833414 0.9950042 0.031617504 0.99950004
000060 57 d6 23 3c b9 fc 7f 3f 1c 3e 4f 3b ac ff 7f 3f
       0.009999833 0.99995 0.0031622713 0.999995
000070 6d 12 83 3a f8 ff 7f 3f 61 cb a5 39 ff ff 7f 3f
       0.0009999998 0.9999995 0.00031622782 0.99999994
000080 b7 c7 68 3f 33 11 d5 be 1b 54 17 3f ec 7b 4e 3f
       0.9092974 -0.41614684 0.5911271 0.8065784
000090 f8 6f 4b 3e a5 e5 7a 3f c8 70 81 3d f9 7c 7f 3f
       0.19866931 0.9800666 0.063203394 0.9980007
0000a0 3e d4 a3 3c e5 f2 7f 3f d8 3d cf 3b b1 fe 7f 3f
       0.019998666 0.9998 0.006324511 0.99998003
0000b0 68 12 03 3b df ff 7f 3f 60 cb 25 3a fd ff 7f 3f
       0.0019999985 0.99999803 0.0006324556 0.9999998
0000c0 c3 81 10 3e 26 70 7d bf c2 09 50 3f 58 2f 15 3f
       0.14112 -0.9899925 0.8126489 0.58275366
0000d0 6c 4e 97 3e ef 90 74 3f c0 ff c1 3d 4f d9 7e 3f
       0.2955202 0.9553365 0.094726086 0.99550337
0000e0 1f b9 f5 3c 83 e2 7f 3f 0d 6e 1b 3c 0d fd 7f 3f
       0.0299955 0.99955004 0.009486687 0.999955
0000f0 92 9b 44 3b b5 ff 7f 3f 10 b1 78 3a f9 ff 7f 3f
       0.0029999954 0.9999955 0.00094868336 0.9999996
000100 cf bd 41 bf 30 55 27 bf de 1d 74 3f b1 2e 9a 3e
       -0.7568025 -0.6536436 0.95358074 0.30113748
000110 d7 61 c7 3e a7 ca 6b 3f 88 2e 01 3e 69 f4 7d 3f
       0.38941833 0.921061 0.12615407 0.99201065
000120 db cb 23 3d 94 cb 7f 3f c9 3c 4f 3c c2 fa 7f 3f
       0.039989334 0.9992001 0.01264877 0.99992
000130 57 12 83 3b 7a ff 7f 3f 5e cb a5 3a f3 ff 7f 3f
       0.003999989 0.999992 0.0012649109 0.9999992
000140 10 7c 75 bf 2c 3c 91 3e 7f fc 7f 3f e9 72 29 bc
       -0.9589243 0.2836622 0.99994653 -0.010342338
000150 43 77 f5 3e 40 a9 60 3f 1d 3c 21 3e 81 ce 7c 3f
       0.47942552 0.87758255 0.15745588 0.987526
000160 f4 b6 4c 3d 19 ae 7f 3f 7e 85 81 3c cf f7 7f 3f
       0.049979165 0.99875027 0.015810724 0.999875
000170 dd d6 a3 3b 2e ff 7f 3f 33 3e cf 3a eb ff 7f 3f
       0.004999979 0.9999875 0.0015811383 0.99999875
000180 8c 0f 8f be b8 cd 75 3f 4e 78 72 3f 6d 3f a4 be
       -0.2794155 0.96017027 0.9471482 -0.3207964
000190 68 8c 10 3f 32 49 53 3f 6e 20 41 3e e3 67 7b 3f
       0.5646424 0.8253356 0.18860027 0.98205394
0001a0 d1 9c 75 3d 12 8a 7f 3f 43 6c 9b 3c 34 f4 7f 3f
       0.059964005 0.99820054 0.018972522 0.99982
0001b0 58 9b c4 3b d2 fe 7f 3f 08 b1 f8 3a e2 ff 7f 3f
       0.0059999637 0.999982 0.0018973658 0.9999982
0001c0 46 30 28 3f bd ff 40 3f 6e e8 4c 3f bc 74 19 bf
       0.6569866 0.75390226 0.8004216 -0.5994375
0001d0 72 eb 24 3f b3 cc 43 3f 50 d3 60 3e ea c0 79 3f
       0.6442176 0.7648422 0.2195561 0.9755999
0001e0 32 3e 8f 3d 81 5f 7f 3f a2 52 b5 3c f2 ef 7f 3f
       0.06994285 0.997551 0.022134129 0.999755
0001f0 c5 5f e5 3b 65 fe 7f 3f ed 11 11 3b d7 ff 7f 3f
       0.006999942 0.9999755 0.0022135929 0.99999756
000200 95 46 7d 3f f6 fd 14 be 7e 06 13 3f e5 91 51 bf
       0.98935825 -0.14550003 0.5743178 -0.8186324
000210 a5 a4 37 3f 5f 5b 32 3f 51 26 80 3e 02 da 77 3f
       0.717356 0.6967067 0.25029233 0.9681703
000220 50 aa a3 3d 65 2e 7f 3f 8a 38 cf 3c 08 eb 7f 3f
       0.07991469 0.9968017 0.025295515 0.99968004
000230 12 12 03 3c e7 fd 7f 3f 55 cb 25 3b ca ff 7f 3f
       0.007999914 0.999968 0.0025298197 0.9999968
000240 32 01 d3 3e d5 3f 69 bf ee 1f 95 3e a2 e6 74 bf
       0.4121185 -0.91113025 0.29125923 -0.9566442
000250 1c 88 48 3f d5 21 1f 3f 2d c2 8f 3e a9 b3 75 3f
       0.78332686 0.62161 0.28077832 0.95977265
000260 3e 12 b8 3d c2 f6 7e 3f ea 1d e9 3c 76 e5 7f 3f
       0.089878544 0.9959527 0.028456647 0.99959505
000270 3a 74 13 3c 59 fd 7f 3f bc 84 3a 3b bc ff 7f 3f
       0.008999879 0.9999595 0.0028460464 0.99999595
000280 f8 44 0b bf 64 cd 56 bf 97 70 a9 bc fb f1 7f bf
       -0.5440211 -0.8390715 -0.02068357 -0.9997861
000290 a4 6a 57 3f 41 51 0a 3f 3d 39 9f 3e 6b 4e 73 3f
       0.84147096 0.54030234 0.31098357 0.9504153
0002a0 76 75 cc 3d 98 b8 7e 3f 59 81 01 3d 3c df 7f 3f
       0.099833414 0.9950042 0.031617496 0.99950004
0002b0 57 d6 23 3c b9 fc 7f 3f 22 3e 4f 3b ac ff 7f 3f
       0.009999833 0.99995 0.0031622727 0.999995
0002c0 5c ff 7f bf 72 05 91 3b 1f 41 a9 be 8d 9b 71 bf
       -0.9999902 0.004425698 -0.33057496 -0.94377977
0002d0 2a 26 64 3f c3 3d e8 3e 8b 87 ae 3e e4 aa 70 3f
       0.89120734 0.4535962 0.34087786 0.9401076
0002e0 72 d3 e0 3d e8 73 7e 3f 68 73 0e 3d 5b d8 7f 3f
       0.1097783 0.9939561 0.03477803 0.9993951
0002f0 69 38 34 3c 09 fc 7f 3f 87 f7 63 3b 9b ff 7f 3f
       0.010999777 0.9999395 0.003478499 0.999994
000300 d8 5c 09 bf d0 06 58 3f 24 91 1b bf 56 4f 4b bf
       -0.53657293 0.84385395 -0.6076834 -0.7941793
000310 1d 9a 6e 3f f7 86 b9 3e 2c a9 bd 3e c3 c9 6d 3f
       0.9320391 0.36235783 0.3704313 0.9288599
000320 ac 2b f5 3d b5 28 7e 3f 19 65 1b 3d d2 d0 7f 3f
       0.119712204 0.99280864 0.03793821 0.9992801
000330 70 9a 44 3c 48 fb 7f 3f eb b0 78 3b 87 ff 7f 3f
       0.011999711 0.999928 0.0037947248 0.9999928
000340 22 20 d7 3e 6f 4e 68 3f 4c 14 53 bf 9d d9 10 bf
       0.42016703 0.9074468 -0.82452846 -0.5658205
000350 c0 ab 76 3f 9d f5 88 3e 3f 9a cc 3e c3 ab 6a 3f
       0.9635582 0.26749888 0.3996143 0.9166834
000360 d0 be 04 3e 00 d7 7d 3f 65 56 28 3d a1 c8 7f 3f
       0.12963414 0.9915619 0.041098017 0.9991551
000370 6a fc 54 3c 76 fa 7f 3f 26 b5 86 3b 72 ff 7f 3f
       0.012999633 0.9999155 0.00411095 0.99999154
000380 72 98 7d 3f d7 04 0c 3e b3 a8 75 bf 0a 0d 90 be
       0.9906074 0.13673721 -0.9596054 -0.28134948
000390 6f 46 7c 3f e7 0b 2e 3e f4 56 db 3e b1 51 67 3f
       0.98544973 0.16996728 0.42839777 0.90359026
0003a0 64 e4 0e 3e cc 7e 7d 3f 43 47 35 3d c9 bf 7f 3f
       0.13954312 0.990216 0.044257414 0.99902016
0003b0 55 5e 65 3c 94 f9 7f 3f d6 11 91 3b 5c ff 7f 3f
       0.013999541 0.999902 0.004427175 0.9999902
0003c0 44 79 26 3f e8 7a 42 bf 75 e0 7f bf 96 22 fe 3c
       0.65028787 -0.7596879 -0.9995187 0.031022351
0003d0 d5 5b 7f 3f ba de 90 3d 83 db e9 3e 68 bc 63 3f
       0.997495 0.07073732 0.45675287 0.8895936
0003e0 4f 06 19 3e 1a 20 7d 3f aa 37 42 3d 49 b6 7f 3f
       0.14943813 0.9887711 0.047416367 0.9988752
0003f0 32 c0 75 3c a1 f8 7f 3f 85 6e 9b 3b 43 ff 7f 3f
       0.014999436 0.9998875 0.0047433996 0.99998873

dec_embedding.temporal_embedding.embed.weight f4 [16, 4]
000000 b2 e5 0e 3f 36 70 72 3e b5 f7 f3 be 31 9b e3 3e
       0.5581924 0.23675618 -0.47649923 0.4445434
000010 c4 31 a6 be 82 f0 95 3d 1c 96 e8 3e 5f f6 26 be
       -0.32459843 0.07321264 0.45427024 -0.1630492
000020 22 91 db 3d bd b5 f2 3d 40 4d a4 3e ac 73 8e be
       0.10721041 0.1185107 0.32090187 -0.27822626
000030 9f fe e6 3d 33 3a 8f 3e 59 24 3d be 02 80 92 3e
       0.11279034 0.2797409 -0.18470897 0.28613287
000040 83 fc 30 3d 40 d7 e0 3e 9b 15 44 be 6a 4b 95 3e
       0.043209564 0.43914223 -0.19148867 0.291591
000050 84 15 ce 3e 0f c2 d4 3e a1 90 8a 3e 49 7f f6 3e
       0.4025079 0.41554305 0.27063468 0.48143986
000060 37 6e b8 3c aa e9 eb 3e da 31 bd 3e b5 fd 29 be
       0.022513492 0.4607671 0.36952096 -0.16600688
000070 32 7e cb 3e b9 82 21 be 47 d4 c8 be 5f 04 dc be
       0.39744717 -0.15772523 -0.39224455 -0.42972085
000080 92 e7 c0 be c1 82 04 3e 5c e2 b7 3e 59 a3 50 3d
       -0.37676674 0.12940504 0.35914886 0.05093703
000090 36 d9 c2 3e cf 1a e7 be 88 a8 c9 bc 6a 1b 9d 3e
       0.38056344 -0.4513764 -0.024616495 0.30684978
0000a0 71 fe 92 be 61 0f 58 3e e3 1a 77 be 1a 2f ce 3e
       -0.28709748 0.21099617 -0.2413135 0.4027031
0000b0 b1 7f 9e be b0 84 6e 3e 83 33 50 be 7b 63 44 3e
       -0.30956796 0.23292804 -0.2033215 0.19178574
0000c0 a0 50 b9 3e 4e f0 0a be bd fb db be b3 1f ec 3b
       0.36194324 -0.13568231 -0.429655 0.0072059273
0000d0 64 61 d6 be c1 4d 8b 3e 41 9f 25 3e a0 9b 12 3d
       -0.41871178 0.2720776 0.16174032 0.035792947
0000e0 bc f8 31 be da a9 a8 bd c3 6b b9 3e 5d 0e ac bd
       -0.17380041 -0.082355216 0.36215028 -0.08401177
0000f0 aa d6 8d 3e ef b0 b3 be d7 21 d9 be 39 3e 9b be
       0.27702838 -0.35095927 -0.4240863 -0.3032091

encoder.attn_layers.0.attention.query_projection.weight f4 [16, 16]
000000 57 1f 47 3e e7 06 98 bd 75 31 d3 bd 60 43 4d 3d
       0.19445549 -0.074231915 -0.103121676 0.050113082
000010 d1 fa 65 3e 8a 61 0c be f1 c6 e1 bd 69 58 8b 3d
       0.2245896 -0.13709083 -0.11024273 0.06803972
000020 bf b2 08 3e 59 a2 ff 3c 6d 9f 70 be b8 91 5b be
       0.13349436 0.031205343 -0.23498316 -0.21442306
000030 a4 7e bf bc f7 0d b4 3d f8 a1 f4 3c 1f 57 5a be
       -0.023375817 0.08791726 0.029862389 -0.21322297
000040 31 86 bd 3d 1f 99 d9 bc 5a 16 9d 3d ec d3 27 be
       0.092541106 -0.026562272 0.07670279 -0.16389436
000050 a2 9b d1 bd 88 d4 1b bd 5e ad 24 3c b8 dc 94 3d
       -0.10234763 -0.038044482 0.0100511 0.07268661
000060 ad 6f f8 bd 8d 3b 6c 3d f0 b5 04 3e 29 ec 7d 3b
       -0.121306755 0.05767398 0.12960029 0.0038745499
000070 78 31 12 bd cf 4c 42 3e 12 4b 44 3e 13 36 47 3e
       -0.03569171 0.18974613 0.19169262 0.19454221
000080 9b d5 d2 bd 4a 40 13 3e da df 9b 3d bf 5d dc 3d
       -0.10294648 0.14379993 0.07611056 0.10760068
000090 f1 95 a2 3d cb f6 56 bd b6 b3 92 3c 98 3d 25 3e
       0.07938755 -0.052481454 0.017907958 0.16136777
0000a0 98 30 43 be 09 78 75 be 7c a1 42 be 94 0a e9 bc
       -0.19061506 -0.23971571 -0.19006914 -0.028447427
0000b0 75 9f d4 bd a7 a2 ac 3d 77 0a 00 3e 46 35 f2 3d
       -0.103819765 0.08429461 0.12503992 0.11826567
0000c0 1f ae 55 3d 81 06 df 3b 0a e7 17 be e4 fe 45 3d
       0.052168008 0.0068061952 -0.14834228 0.048338786
0000d0 85 68 f9 3d 8e 49 f4 3d 54 66 cb bd 8c b2 87 3d
       0.12178139 0.11928092 -0.09931627 0.06625852
0000e0 f9 8d 71 be 58 63 39 3e 9d 15 dc 3d 44 45 dc bc
       -0.23589315 0.18104303 0.1074631 -0.026888497
0000f0 01 0f 2d be 46 80 30 3e cd 32 55 be 99 1f 39 3e
       -0.16900255 0.17236432 -0.2082016 0.1807846
000100 5d af a5 bd ef b4 df 3d 43 df 31 be fc 0c bc 3b
       -0.080900885 0.10923182 -0.17370324 0.0057388525
000110 43 52 5a 3d af bd 66 3e c4 ee cf bd be 25 46 be
       0.053301107 0.22533296 -0.10152963 -0.19350335
000120 1a e1 9e bd 3b c3 9a bd 13 90 04 be 69 a4 29 bd
       -0.077577785 -0.075567685 -0.12945585 -0.04141656
000130 36 14 d6 bd 70 ee 06 3e d5 56 2e bd f3 2e c9 3d
       -0.10453074 0.13176894 -0.04256328 0.09823408
000140 ff f4 ff 3d 6f 8d 9d 3d a4 cf 02 be 81 b3 cb bd
       0.12497901 0.07692992 -0.12774521 -0.09946347
000150 fd 40 19 3c 7a ff d8 bc 5c 54 73 3e ae 5e 5e 3e
       0.009353873 -0.026489008 0.2376265 0.21715805
000160 5f a3 6e be 80 1a 90 3c 92 ee 0c be d9 cf 0c 3e
       -0.23304509 0.017590761 -0.13762882 0.13751163
000170 22 38 41 be 34 d2 80 bd 01 15 2e 3e 9c 4d 20 be
       -0.18869069 -0.06290093 0.170002 -0.15654606
000180 8f 64 2b 3e 64 40 1f be e3 4e 7b 3e 3a 78 6e 3d
       0.16737579 -0.15551907 0.24541812 0.058220126
000190 ff 70 19 bd d4 ab 54 3c 7c b5 b8 3d 69 5a 0e be
       -0.037461277 0.01298042 0.090189904 -0.13901676
0001a0 89 39 6c 3e ee af 1a 3e 32 62 55 be 45 8c 62 3d
       0.23068823 0.15106174 -0.2083824 0.055309553
0001b0 f9 8e 73 3e 82 f3 c5 bd 54 9f 61 3e d9 1b fc bd
       0.23785008 -0.09665586 0.22033435 -0.12309999
0001c0 2e f8 57 be 06 94 50 be 4c 74 d3 3d 99 74 5e 3e
       -0.21090767 -0.20368966 0.10324916 0.21724166
0001d0 d8 7b 1e 3e 96 59 88 bc 94 db 36 3e a9 7c b4 3d
       0.1547693 -0.01664428 0.178572 0.088128395
0001e0 76 be 2d be e1 56 84 3d af 02 b6 bc b5 3f 1c 3e
       -0.16967186 0.06461883 -0.022218077 0.15258677
0001f0 36 76 72 3e 35 bb 0d bd 68 69 e6 3d f3 80 66 be
       0.23677906 -0.034602363 0.112505734 -0.22510128
000200 42 09 13 bd 1e a8 0f be 91 13 f0 bc c4 f1 0e be
       -0.0358975 -0.14028975 -0.029306205 -0.13959414
000210 69 dd 75 3d 31 a6 1f 3e 28 48 2f be 9a 59 5a 3e
       0.060025606 0.1559074 -0.17117369 0.21323243
000220 bb 72 bf 3d ef 51 01 be 8e c0 0b 3d e1 16 04 be
       0.09348055 -0.12628911 0.03411918 -0.12899353
000230 ee 81 5e 3e 97 16 35 be e7 06 88 3e f0 4f f1 bd
       0.21729252 -0.17684399 0.26567766 -0.11782825
000240 03 81 bf 3d 65 81 2e be cd 0c 37 3c e9 40 07 3e
       0.09350779 -0.17041548 0.011172486 0.13208355
000250 f5 2e cb 3a fc 17 ae 3d 72 07 9a bd 93 64 19 be
       0.0015501665 0.085006684 -0.07520951 -0.14979772
000260 36 54 62 be 31 85 5d be 7e e4 87 bd d3 14 29 3d
       -0.22102436 -0.2163284 -0.06635378 0.041279625
000270 30 37 3a bd 7d 3a 8b bd c8 b2 34 be c8 06 0a bd
       -0.045462787 -0.06798265 -0.17646325 -0.033697873
000280 63 31 2e 3e eb 0c 89 bd 15 eb 18 be 0c 1d d2 3c
       0.17011027 -0.06691917 -0.14933427 0.025648616
000290 33 b3 1c be 79 cc 25 bd 58 ba 57 3c ee 8f c7 3c
       -0.15302734 -0.040478203 0.013166986 0.024360623
0002a0 b1 bc 6b 3e c5 a5 08 3e e8 d2 6b be f1 58 64 3c
       0.23021199 0.13344486 -0.23029673 0.013937221
0002b0 5a 1c 0c 3d a9 1d 72 3d 44 b6 e5 3d 72 f8 2e 3e
       0.034206726 0.059110317 0.11216405 0.17086962
0002c0 2e 4f 06 be f9 4a 07 3e 6b 55 76 3d 7c 32 0c 3d
       -0.13116142 0.13212194 0.060140055 0.034227833
0002d0 3a 0a 02 3e 61 c0 24 3e 1a 6a 0d be ce d9 0f be
       0.12699214 0.16089012 -0.13810006 -0.1404793
0002e0 ce 24 e9 3d b8 2e 4c 3e e3 1f a0 bd 58 93 00 be
       0.11383973 0.19939697 -0.07818582 -0.12556207
0002f0 ba 2d 68 be 7d b3 90 bd 12 66 97 3c 55 a0 1d be
       -0.22673693 -0.07065485 0.018481288 -0.15393193
000300 ab a0 20 bd 70 c7 2d bd 43 c3 1a 3d 4b e3 06 3e
       -0.039215725 -0.042426527 0.037783872 0.13172643
000310 20 16 23 3e 7b 8f d5 3d dd 76 5e be 03 8d 09 3e
       0.15926409 0.10427757 -0.2172503 0.13432698
000320 a3 05 2e 3d 38 37 59 3e 7a 98 06 bd d1 4a 15 3d
       0.042485844 0.2121247 -0.032860257 0.036448304
000330 6b 1c 45 be b8 07 cf bd d5 ab 27 be 9d ea 13 be
       -0.19249122 -0.10108894 -0.16374142 -0.14444967
000340 2e 51 14 3d b7 48 5c bd 5b b0 3a 3e 6e 8a 1c 3d
       0.03621023 -0.053780284 0.18231337 0.038217954
000350 d0 8f 59 be e8 bd e3 bb da 3d 36 be b9 c4 2b be
       -0.21246266 -0.006950129 -0.17797032 -0.16774262
000360 79 2a 85 bd 87 aa 72 bc 63 9c 5b bc cd 73 32 be
       -0.06502242 -0.014811165 -0.013403985 -0.17426987
000370 77 1a 2a be c7 fe 83 3d d0 df 09 be 26 ab 03 be
       -0.16611658 0.06445079 -0.13464284 -0.12858257
000380 fb ae 2f be 31 71 71 be 8b 81 ca bc 47 12 fe 3d
       -0.17156594 -0.23578335 -0.024719974 0.1240583
000390 bf 80 fa bd 42 92 40 bd 1c e9 d5 bd cd bb 9b 3a
       -0.122315876 -0.047014482 -0.10444853 0.001188153
0003a0 d1 cb 59 be ed 38 62 be 0f 9d 3d be cb f0 cb bc
       -0.21269156 -0.22092028 -0.18516944 -0.024895092
0003b0 46 20 1a be cb 27 87 3d bb 5a 95 bd b6 cc 57 3e
       -0.15051374 0.06599387 -0.07292696 0.21074185
0003c0 c8 31 de 3d 41 ef 86 3d 95 3c ab bd 44 b3 65 be
       0.10849339 0.06588603 -0.083611645 -0.22431666
0003d0 a7 3d 5a be dd 8e 64 be cd 27 1d 3e 74 0e c3 bd
       -0.21312581 -0.22320123 0.15347214 -0.09524241
0003e0 58 36 98 3d 10 28 53 3e 8b 28 44 3e ab 7c 90 3d
       0.0743224 0.20620751 0.19156091 0.070550285
0003f0 58 9d 20 3e 64 18 55 be 19 53 a9 bd 9e a8 4f be
       0.15685022 -0.20810086 -0.08267803 -0.20279166

encoder.attn_layers.0.attention.query_projection.bias f4 [16]
000000 fc 5d 15 3e 90 8a 3e bd 4c e8 3d 3e 7b 1a 9a 3d
       0.14586633 -0.046518862 0.18545645 0.07524582
000010 80 cb d5 3d 18 fa 81 be fe 21 f3 3d 72 0e fd 3d
       0.10439205 -0.2538612 0.11871718 0.12356271
000020 3f 2a 91 be ed 27 6a be aa f4 08 bd 3f 85 6d bd
       -0.28352544 -0.22866793 -0.033436455 -0.0579884
000030 f3 04 41 3e 8d 90 32 be 56 73 79 be b9 4b c9 bd
       0.18849544 -0.17437954 -0.24360403 -0.09828896

encoder.attn_layers.0.attention.key_projection.weight f4 [16, 16]
000000 d4 d0 c5 bd ad 81 31 be 69 5a 3d bd 01 29 9d 3d
       -0.096589714 -0.17334624 -0.0462288 0.076738365
000010 4f 19 3c 3e c8 7b 05 be f4 ee 6b bd 4f 7d 0b be
       0.1836903 -0.130355 -0.05760093 -0.1362202
000020 36 a3 53 be e9 b9 7b 3e 45 b3 d6 bd bf 25 73 be
       -0.20667729 0.24582638 -0.10483412 -0.23744868
000030 ee 8c 02 3e a6 2d 88 bd 47 a5 f5 bd f6 c0 da bd
       0.12749073 -0.06649332 -0.11994415 -0.10681336
000040 34 f0 4a be 55 44 24 be 34 76 82 be 32 d3 0d 3e
       -0.19818193 -0.16041692 -0.25480807 0.13850096
000050 68 88 17 3e 02 c0 31 be f4 6b a3 3d 7b 6a 67 3e
       0.14798129 -0.17358401 0.07979575 0.22599213
000060 4f 0c eb bd b8 c4 76 be 76 76 5f be 67 16 8c bd
       -0.11476957 -0.2409848 -0.21822533 -0.068402104
000070 91 36 59 3e ab 71 56 bd a2 1c 81 3e 25 e2 41 3e
       0.21212222 -0.052354496 0.25217158 0.18933924
000080 56 4f c6 3d 0b e5 50 3d 59 af c7 bc 68 a1 b1 3d
       0.09683101 0.050999682 -0.024375604 0.08673364
000090 b2 46 4b be 47 09 5c be 33 2c 35 3d 88 1b cf bd
       -0.19851187 -0.21487914 0.044231605 -0.10112673
0000a0 50 92 25 be a6 e7 8b bd bf 0e 1e 3e 61 7c 2f 3e
       -0.16169095 -0.06831293 0.15435313 0.1713729
0000b0 d7 6f c4 3d 61 67 97 3c fb 83 08 be e4 70 6d 3e
       0.09591644 0.018481912 -0.13331597 0.23187596
0000c0 81 ac 1b 3e de b3 70 bd 2c 87 b7 bb 5b e5 d7 3b
       0.15202524 -0.058765285 -0.0056008305 0.0065886206
0000d0 25 96 1a bd 81 12 68 3e 46 96 11 3e c7 c8 74 3e
       -0.037740845 0.22663309 0.14217481 0.23904715
0000e0 e1 81 54 bd 94 34 1d 3c 31 cf ca 3d 6b 10 21 be
       -0.051881675 0.009595055 0.099028 -0.15728919
0000f0 83 a1 62 3e 29 b0 ff bd 86 22 88 bd 3e 3f 5a bd
       0.22131924 -0.12484772 -0.0664721 -0.05328297
000100 f6 5b 21 bd e0 cb 65 bd 99 12 90 bd 93 56 21 3e
       -0.03939434 -0.056102633 -0.07034797 0.15755682
000110 1a 35 a4 3d 5a a5 2d 3e c3 e2 b2 3d b3 58 54 be
       0.08017941 0.16957608 0.087346576 -0.20736961
000120 14 33 4f bd c2 7c 18 3d c0 94 1e be 48 06 29 be
       -0.05058582 0.037228353 -0.15486431 -0.16506302
000130 7e 83 67 3e 59 9b 3e 3e f6 b7 d8 bd de 2c 29 3e
       0.22608754 0.18613948 -0.10581963 0.16521022
000140 84 bd 34 be 28 12 6d 3d 89 4f 02 3e 59 6a 00 3e
       -0.1765042 0.057878643 0.12725653 0.12540568
000150 03 09 bc bc f8 8c 35 3e 63 a5 eb bd 5e dc 6a be
       -0.022953516 0.17729557 -0.115061544 -0.22935626
000160 59 23 56 3e d6 4e 4c 3e c7 84 5f 3e 46 a2 07 3e
       0.20911922 0.19951949 0.21827994 0.13245496
000170 d7 d1 bf 3d d8 e9 f4 3d 8c d9 a3 bd 05 c5 46 be
       0.09366196 0.11958665 -0.08000478 -0.19411094
000180 2d ee 5f bd 0e 54 56 be d6 21 c0 bd 13 19 8e 3d
       -0.0546705 -0.20930502 -0.09381454 0.06938376
000190 cc 1f 8f bd 96 81 16 be 55 bb 9c bd f4 4b 9b bd
       -0.06988487 -0.1469787 -0.07652918 -0.07582846
0001a0 d3 20 3b 3e 9a 6b 13 be 49 ce 4e 3c d3 d5 86 3c
       0.1827424 -0.14396515 0.012622424 0.016459381
0001b0 d6 64 7b bd 7a 68 5d 3d 3c a0 81 3e 20 14 27 be
       -0.06137546 0.054054715 0.25317562 -0.16316271
0001c0 d9 80 3a be e4 20 69 be d8 b8 31 b9 1a 5d 51 be
       -0.18213214 -0.22766453 -0.00016948895 -0.20445672
0001d0 64 fd 4b 3e c8 a8 b1 3d 30 d2 e2 bd f4 e1 0d 3e
       0.1992088 0.086747706 -0.11075246 0.13855726
0001e0 10 e5 74 be b0 dc 12 3e 6e 8a 4f 3e 17 96 34 be
       -0.23915505 0.14341998 0.2026765 -0.1763538
0001f0 43 8c 40 3e 8f 89 27 be 6b 06 52 3c 9b c1 69 3e
       0.18803506 -0.16361068 0.012818913 0.22827761
000200 da 0b 3c be 7e c0 23 3e 7c 33 36 bd 5c 2b 29 be
       -0.18363896 0.15991399 -0.044482693 -0.16520447
000210 05 32 18 3e 13 05 43 3e 78 5a e0 3d ba f2 45 3e
       0.14862831 0.19044904 0.109547555 0.19330874
000220 e0 50 cc bd 7a f6 ff 3d 66 ec 5c be ae 00 35 be
       -0.09976363 0.124981835 -0.21574554 -0.1767604
000230 ac b4 21 bc ff 48 a4 3d a4 23 2c 3e d7 44 e5 3d
       -0.009869736 0.080217354 0.16810471 0.11194771
000240 f9 76 2b be 93 c8 53 3d 80 2c 26 3c 61 97 12 be
       -0.16744603 0.051704954 0.010142446 -0.14315559
000250 6e 11 37 be 57 cd 16 3d 6e f5 ee 3d ca dd aa 3d
       -0.17877743 0.03681692 0.11667906 0.08343084
000260 b1 55 36 3e 10 6e d8 3d 3c 2b 43 be d0 c3 0f be
       0.17806126 0.10567868 -0.19059461 -0.1403954
000270 69 04 59 3e ce ea 8d 3c 52 c4 60 3e c3 3a 56 be
       0.21193089 0.017323878 0.2194989 -0.20920853
000280 e5 b3 44 3e 7a ef cc bd d0 75 41 bc 0d ea 4d 3e
       0.1920925 -0.10006614 -0.011807874 0.20108815
000290 d6 d8 50 3d 39 57 97 bd 6f ef 59 3d 75 92 e8 bd
       0.05098804 -0.07389683 0.053206857 -0.113560595
0002a0 18 19 c2 bd 9a 00 16 be e7 b2 f9 3d d3 65 33 be
       -0.094774425 -0.14648667 0.12192326 -0.17519312
0002b0 71 c4 b1 bc 9f 15 71 3e 5e 67 84 3d 50 10 25 be
       -0.021700116 0.23543404 0.06465028 -0.16119504
0002c0 3e 07 f3 bd 63 e4 82 be 74 95 3f 3e 5a 3e 57 be
       -0.11866616 -0.2556487 0.18709356 -0.21019879
0002d0 a8 1b 46 3d 4d 16 4e be 0e ec 58 bc a3 6b bc 3d
       0.04836622 -0.20125695 -0.013239874 0.092002176
0002e0 4d 72 c7 3d eb da 18 3e 71 70 15 3e db f5 5a be
       0.09738598 0.1492726 0.14593674 -0.21382849
0002f0 57 7f 4d be 00 5f 33 3d f0 6e c2 bd 3b 72 75 bd
       -0.20068108 0.04379177 -0.09493816 -0.05992339
000300 a6 28 21 be b5 32 d0 3d f0 2e 53 3e 49 13 79 be
       -0.15738162 0.101659216 0.20623374 -0.24323763
000310 58 9e d1 3d 46 61 a1 3d 67 4a 20 be 51 ec 20 be
       0.1023528 0.078798816 -0.15653382 -0.15715148
000320 33 db 29 be 7a 22 80 bd 60 9b fb bd 36 f7 63 be
       -0.16587524 -0.06256576 -0.12285495 -0.22262272
000330 d8 dd 75 bc 3e 93 ba bc 40 7b 06 3e 76 6e 27 3e
       -0.015006505 -0.022775289 0.13132954 0.16350731
000340 90 b4 2d 3e c1 f9 a2 3d 15 a6 6a be bc 15 32 be
       0.1696341 0.07957793 -0.22914918 -0.17391104
000350 9b 5b e5 bd 0b 1b 0e 3e c6 7c 5f be f3 dd 52 3e
       -0.11199113 0.13877504 -0.21824941 0.2059248
000360 4f 2d a0 bd a2 5a 16 be 9b 41 43 3e b2 f7 22 3e
       -0.07821142 -0.14683011 0.19067995 0.15914801
000370 4e 94 bc bd 50 e1 da bd 03 3a e1 bd f6 85 b9 bd
       -0.092079744 -0.10687506 -0.10997393 -0.09058754
000380 dc a9 94 3d 5b 87 fb 3c 0f f7 03 bd f0 bc dc 3c
       0.072589606 0.030704191 -0.032218035 0.026945561
000390 ae 2c f9 bd a6 6c 8d 3d 20 44 5a be 0a 73 6a bd
       -0.12166725 0.06905489 -0.2131505 -0.057238616
0003a0 95 0e 7e be 69 84 e4 bd 5d d7 50 bd af 4f 1a 3c
       -0.2481025 -0.11158068 -0.050986636 0.009418412
0003b0 5e af 2b 3e 1d 36 7d be 7f 2f 01 3e 1b 7f 35 3e
       0.16766116 -0.24727674 0.12615775 0.17724268
0003c0 da 75 6f be 1a 40 3f 3d de ab 81 3d 34 62 77 be
       -0.233848 0.04669199 0.06331609 -0.24158555
0003d0 9c 03 72 3e 83 7c 74 3e 09 87 ea bd 9b 67 46 be
       0.2363419 0.23875622 -0.11451537 -0.1937546
0003e0 15 e1 01 3e 35 39 1b be 3d b6 4d be cd cc ab 3d
       0.12683518 -0.15158542 -0.2008905 0.08388672
0003f0 54 c2 99 3d 8d 31 8a 3c 6e 5c 37 3e 20 7b 46 3e
       0.07507768 0.01686933 0.17906353 0.19382906

encoder.attn_layers.0.attention.key_projection.bias f4 [16]
000000 94 78 a4 3d 9d 32 ae 3d 94 7f 6c be ce dc 27 bd
       0.08030811 0.085057475 -0.23095542 -0.04098206
000010 f6 0b 26 be cd 92 9c 3d 44 38 55 be 43 08 b8 bc
       -0.162155 0.076451875 -0.20822245 -0.022464877
000020 84 0f 0b be 5a 13 2c be 60 be 79 be 8e 7e 0b 3e
       -0.13580137 -0.16804257 -0.24389029 0.13622496
000030 2e c9 18 3e e5 9e 3c be 91 ad 52 3d e6 90 3e be
       0.14920494 -0.18419988 0.051435057 -0.18609962
