checkpoints/test_DLinear_ETTh1_ftM_sl96_ll48_pl96_dm512_nh8_el2_dl1_df2048_fc1_ebtimeF_dtTrue_test_0/checkpoint.pth (torch, 76337 bytes, 4 tensors)

Linear_Seasonal.weight f4 [96, 96]
00000000: badf 2abd 6686 b33c b4bd bb3c a2be 3cbb
00000010: 4815 a8bc e44c b4bd f350 d8bd 34da 8c3d
00000020: 8bca 6bbd 8ebb a5bd b850 7c3d 9686 a3bd
00000030: 8434 893d 6c5e 8abd d8f4 263d c801 46bd
00000040: 3b56 09bd 3ff3 9fbd 3e08 813c 3738 ed3a
00000050: c378 a83c ba1d 5cbd 948a c03d 22cb a63c
00000060: ec64 563c de3f 6cbd 7f60 b63d b535 91bd
00000070: d5f6 7ebd ed15 84bd 03ac 37b9 fc20 15bb
00000080: 66f3 d43c c95f dcbc 461b e73c c946 763d
00000090: 9a5f 95bd 27eb 3dbd b97d 76bd a28f 70bd
000000a0: 9cf2 c73c 715a 643d f968 6e3b 7943 d7bd
000000b0: 6093 8b3c df18 0c3d 6c16 a33d f60e 92bd
000000c0: cdf8 c73c be4b a2bc 2796 cb3d 6511 663d
000000d0: d0ce 1f3c 64b9 a5bb a2b3 ee3c 7503 b9bd
000000e0: cac2 c6bc 8998 a0bd b38f c53c 276f a33c
000000f0: 4bb9 c9bd d4d2 b3bc 7216 a33c bb46 843c
00000100: f70b 5e3d d4a8 00be b054 74bd c0d9 5dbd
00000110: 24dd 87bd a9fc 9dbd 648a 69bd 0536 953d
00000120: e4cf 44bd d959 68bc 21a1 4fbd f17a a7bd
00000130: 4811 283d 4397 87bd 59ea a8bd dc56 333d
00000140: 5fb4 cdbd 313a 9bbd b970 79bd 1dae b8bd
00000150: 8337 95bd f890 4fbd 0d6d d7bc 6117 d0bd
00000160: d2ce 65bd f870 3f3d f459 45bd d396 69bd
00000170: 52ca f3bd bda6 46bd 039e be3d ce9c f23d
00000180: 3982 75bd dde4 8c3d 4c23 793d 2a8d c2bc
00000190: b7cf 2e3d 0150 f9bc e67b f0bd 9040 393d
000001a0: 059c 4d3c 904c 9fbd c0ac a6bc a99a 2f3d
000001b0: 31b7 373d ee68 6b3c 9b33 9aba d64e cdbc
000001c0: 655e a2b9 4780 9abd b67b b93c be35 94bd
000001d0: bb49 813d 2c63 69bd e3a8 4bbd ef45 d33d
000001e0: d0d8 4b3b 324c b9bc b218 27bd cef9 993d
000001f0: 0fcb 8abd 538b 6d3d d5df feba c8cb 853d
00000200: 8696 62bd 0e6b cfbd 0cf4 d8bc 64e5 6d3d
00000210: ff92 96bd 9546 fbbd b39d 373d ea1a 183d
00000220: 4ed2 313d dd0f cf3c c167 b0bc 4257 92bd
00000230: 9c58 87bd 23b7 1abd bbee 51bd bd00 76bd
00000240: 571a d63d 811d e83d 0e10 0ebd 8b19 e9b9
00000250: 0dee 7c3d 2a57 13bc 213d 8bbd b8f5 85bd
00000260: 44f1 cb3c 4801 62bd 074f a8bd 5623 08bd
00000270: c32f 683d 1155 3dbd 1708 8dbd 3474 f4bc
00000280: 8950 0cbd b212 9abd 4a92 cbbc 277d 2e3c
00000290: 6a56 483d a0ff 39ba 3059 883d 6e4e 323d
000002a0: 41ce 8ab9 4213 1abd 0e1d 2b3c f5b4 993d
000002b0: d93a 2b3d 874d 9abc d301 dbbc d157 f83b
000002c0: b0e2 10bd 4c23 473d 76db bbbd 7038 bdbc
000002d0: be05 443c f996 183d a068 f2bc f374 13bd
000002e0: c118 2e3d e71f f0bd 9732 b5bd af07 bbbd
000002f0: 0238 943d e7a1 e43c 9046 1abd aa6d 863d
00000300: 078b efbd b3f8 543d 0e64 e03d a2c2 253d
00000310: 5600 2ebd 83ab a2bd 774c 7f3d 2731 2dbd
00000320: 4f9f 523c 01a3 12bd 3f8c 4f3d f528 11bd
00000330: de6a 473d 3ecd 88bd ac68 9ebd 7d30 ab3c
00000340: 8b75 b43d 5a88 3ebd f63f a13d 9bb9 033d
00000350: 6d56 81bd dd2a 42bd a304 17bc d295 7f3c
00000360: b404 1f3d 2a4d c53d 68f1 003e 509d 56bd
00000370: 3deb 663d 52b5 c5bc 0412 6c3a 8b1a bc3d
00000380: 1dbe 73bc 3d55 00bd dfde 7f3d 5b5c 8b3c
00000390: 5add 2b3d 2595 863c d1d7 a63d 7ecb a33d
000003a0: b26a 443d 552b 0a3d e890 353d 25f8 b6bc
000003b0: c991 803d 546e 8d3d 4ca7 883d 7aca 61bd
000003c0: 2334 2abd 3d65 cb3d b69e f33d 276f 903d
000003d0: 6a71 843d cbc0 9f3d 2bfc 49bd 10eb 94bd
000003e0: 2a9a 9339 7442 723d 7302 30bd c3d2 2dbd
000003f0: eae1 a0bd 4d72 ad3c eaad 183b b070 6cbd
-0.04171727 0.021914672 0.022917606 -0.002880015 -0.02051796 -0.08803728 -0.10562315 0.068775564
-0.057566207 -0.08092414 0.061600417 -0.079846546 0.0669947 -0.06756291 0.040760845 -0.048341542
-0.0335295 -0.078100674 0.015751 0.0018098418 0.020565396 -0.053739287 0.09401432 0.020360533
0.013085585 -0.057678096 0.08905124 -0.07090322 -0.062247116 -0.064494945 -0.0001751632 -0.0022755256
0.025994968 -0.026901143 0.028211247 0.0601261 -0.07293625 -0.046366837 -0.060178492 -0.05873073
0.024407677 0.055750314 0.0036378487 -0.10510916 0.017038047 0.034203406 0.07963261 -0.0713176
0.02441063 -0.019811507 0.09940749 0.056168932 0.009753898 -0.0050575007 0.02913839 -0.090338625
-0.024262805 -0.07841594 0.024116373 0.019950463 -0.09849795 -0.021951117 0.019908164 0.016147008
0.05421063 -0.12564403 -0.059651077 -0.05416274 -0.06633976 -0.07714207 -0.057016745 0.07285694
-0.048049822 -0.014181578 -0.050690774 -0.08177746 0.041032106 -0.06620648 -0.08247823 0.043784007
-0.10044169 -0.075794585 -0.060898516 -0.090175845 -0.07285979 -0.050675362 -0.026297117 -0.10160709
-0.056105442 0.046738595 -0.04818149 -0.057028603 -0.11903824 -0.048498858 0.09307482 0.11846314
-0.059938643 0.0687959 0.060824677 -0.023748953 0.04267856 -0.030433657 -0.11742382 0.045227587
0.012549405 -0.07778275 -0.020346045 0.042872105 0.04485244 0.014368279 -0.0011764647 -0.025062006
-0.00030969377 -0.07543998 0.022641998 -0.07236813 0.06312891 -0.056979343 -0.04972161 0.10316073
0.0031104572 -0.02261934 -0.040795036 0.075183496 -0.067770116 0.057994198 -0.0019445369 0.06533009
-0.05531933 -0.10127841 -0.026483558 0.058080092 -0.07352256 -0.12269322 0.044828128 0.037135042
0.043413453 0.025276119 -0.021533849 -0.07145549 -0.06608698 -0.03777231 -0.05125306 -0.060059298
0.10454243 0.113337524 -0.03468328 -0.00044460254 0.06175046 -0.0089929495 -0.06798769 -0.06541008
0.024895318 -0.055177003 -0.08218198 -0.033236824 0.056686174 -0.046223704 -0.06886309 -0.029840566
-0.03425649 -0.07523097 -0.02485003 0.010649956 0.048910536 -0.0007095281 0.06657636 0.043531828
-0.00026475082 -0.037616022 0.010443939 0.07505218 0.04180417 -0.018835796 -0.026734268 0.007578828
-0.035372436 0.048617646 -0.09172718 -0.0230982 0.01196426 0.037253354 -0.029590905 -0.036000203
0.042504076 -0.11724835 -0.0884754 -0.09132325 0.07237245 0.027909232 -0.03766495 0.065638855
-0.11696439 0.05199499 0.10956584 0.04046882 -0.04248079 -0.079428695 0.062328782 -0.042283203
0.012855365 -0.035799984 0.05067086 -0.03543945 0.0486859 -0.06679772 -0.07734808 0.020897144
0.08811482 -0.046516754 0.07873528 0.03215943 -0.063153125 -0.04740416 -0.009217414 0.015599685
0.038822845 0.096338585 0.12592089 -0.05239612 0.056376684 -0.024134312 0.000900537 0.0918475
-0.0148768695 -0.03133129 0.062468406 0.017011812 0.041959144 0.01642854 0.081466325 0.079977974
0.047953315 0.03373273 0.044327646 -0.022335121 0.06277806 0.06905809 0.06672534 -0.055124737
-0.041553628 0.09931419 0.11895506 0.070524506 0.064669445 0.07800444 -0.04931275 -0.07271397
0.00028152886 0.059145406 -0.042971086 -0.042437326 -0.0785559 0.021172667 0.002329702 -0.057724655

Linear_Seasonal.bias f4 [96]
00000000: e5a6 8e3d 1864 77bd 08e9 e9bc d1dd 913d
00000010: 16da 373d 3818 453c a9f2 b4bd b5b0 523d
00000020: 316e 5abd c7c9 64bd 5b98 363b 2c3e 543b
00000030: e8bd 6bbd 828b d53b 8dc0 373d a79c 23bd
00000040: 0ea8 b23d 6cd0 703b 0258 ba3b aff7 33bd
00000050: bb2d c43c 9147 523d 5f18 673c 042e c7bd
00000060: 3453 583c 97c9 df3c 474a 3fbd 63f8 213d
00000070: 5075 06bc 6343 b0bd b2d9 a6bb 5e5d 6dbc
00000080: 7a7c c53b a815 29bc 174a 6ebd 1f71 c13c
00000090: 89bf e13c 4b20 4b3a d1c5 1cbd 165d 033d
000000a0: 8522 883d 498a 903c 1146 9d3c 37a8 9a3d
000000b0: 5b97 ac3c bc90 a93c f0ab 8abc 3060 3bbc
000000c0: dca0 1e3d 4c26 2b3d 1fe6 873c 4dfb 88bd
000000d0: 3713 bf3a 6e20 173d d655 c3bd 40a8 edbc
000000e0: 5989 043d 69ea babc 229d 913c 2b2e 1c3d
000000f0: cfc6 b93c a1de 9d39 c983 acbc 0358 ba3c
00000100: d7e9 26bd 6b6b 1bbc eac9 52bd 117a a4bd
00000110: facb 873c 05b2 6b3c 8d16 883d eb84 1dbd
00000120: 793a 9bbd f031 1fba a66a 643d 1f85 653c
00000130: 5add c1bd 4811 d9bd ec78 123d 3115 1abd
00000140: ca05 863d b230 033c e56c f13c 331a f3bb
00000150: 6107 98bd 7c81 83bb e98d 413d 2913 7a3c
00000160: ccd9 49bb 1933 45bc f892 0dbd ae17 b3bd
00000170: 3cb2 5cbc 2290 d8bc d250 a7bd 729a c5bd
0.06965426 -0.06039819 -0.0285535 0.07122386 0.044885717 0.0120297 -0.08835346 0.051438052
-0.053327743 -0.055856492 0.0027861807 0.003238569 -0.057554156 0.006516875 0.044861365 -0.039944317
0.0872346 0.0036745323 0.005686761 -0.04393738 0.023947587 0.051337782 0.014104932 -0.09725574
0.013203431 0.027317805 -0.046701696 0.03954352 -0.00820668 -0.08606603 -0.0050918693 -0.0144875925
0.0060268017 -0.010320105 -0.058176126 0.02361351 0.027557151 0.00077486475 -0.03827459 0.032071196
0.06647209 0.017644065 0.01919845 0.07551616 0.021068266 0.020698898 -0.01692769 -0.011436507
0.038727626 0.04178457 0.016589222 -0.06688557 0.001457787 0.03689616 -0.09537856 -0.029010892
0.032357547 -0.022816854 0.017775122 0.038129967 0.022677807 0.00030111245 -0.021058934 0.022747045
-0.04075035 -0.00948606 -0.05146209 -0.08031095 0.016576756 0.014385705 0.06644926 -0.03845684
-0.07579512 -0.000607281 0.05576577 0.014008789 -0.094660476 -0.10598999 0.03575985 -0.037617866
0.06544073 0.008007215 0.02947087 -0.0074188947 -0.074232824 -0.0040132385 0.047254477 0.015263357
-0.0030799983 -0.012036108 -0.03456399 -0.08744751 -0.013470229 -0.026435915 -0.08169712 -0.09648599

Linear_Trend.weight f4 [96, 96]
00000000: 0205 45bc a1f2 b43d bc56 893b c623 78bd
00000010: 6065 d83d 6661 333c 7027 943c 1a13 353d
00000020: 85b9 23bd b2fb 8dbb bd11 df3c 1517 403d
00000030: 235b 9abd 1716 56bd 03d1 babd 4743 88bd
00000040: 1831 2bbd 34d6 b63d ef9a bf3d 708b 3cbb
00000050: a30a fabc e174 cf3b 2b5f da3c 7c20 f73c
00000060: 8f51 efbc 1b45 783d c98f 8cbd b11a 37bd
00000070: 3599 583c f9e6 3ebd f803 2c3c 9fb0 c0bd
00000080: 008c 763d 8bc1 613d 3c33 f03c e245 133d
00000090: 8b20 d0bc e1ce a13d b867 333d 3576 983c
000000a0: 0dd5 23bc 6756 b8bd 245e 0b3d 147b 873d
000000b0: c356 843d 110d 0c3c f474 9fbd 1148 43bd
000000c0: 2907 cabd 6803 b73d 995e a5bc 278d 8d3c
000000d0: 1754 c1bd 42b8 9cbb fa1d 393d 81dd 2dbd
000000e0: 8c3b 733d 5661 3e3d 2f95 b73c 9e89 a03d
000000f0: ec34 b2bd a51b a83c 6390 b9b8 7fe0 39bd
00000100: 89f2 733d 6220 803d f7e3 c1bc 1e88 b93d
00000110: 4e65 63bd 88a4 993d 1bac e13d f7a4 4ebc
00000120: f979 84bd 6c97 b53d 4ce4 0ebd b8cc 9fbd
00000130: f5a1 ffba 19b9 7c3d 3e75 473b 6669 c4bc
00000140: 6855 9dbd d3ac 193a 39b5 e23d e485 bd3d
00000150: 11a6 243d 0b90 9f3d 042e 4fbd 2336 de3d
00000160: 4d54 963c 0da6 a43c 7e63 5ebc b554 ba3d
00000170: b969 d73d 2e4e c53c 9357 073d 2d95 93bc
00000180: b1ad 243c b07c 763b 8a17 d23b 72f7 e0bc
00000190: 93d9 9bbb f75e dd3d e65a 82bd 5cc5 d0bc
000001a0: 0c92 bc3c 1ba1 113d c62f 993d 492d c73c
000001b0: df8f 863d 99fe 12bd 92e5 17bc 19f2 b0bd
000001c0: e104 2c3d c383 e4bc 41cf 1bbc e466 9e3c
000001d0: 162b 6cbd 0d6c 8c3b fe81 c3bd 8aeb 27bc
000001e0: 622b c83d 6ad6 b0bd 2c8f dbb9 ca67 8638
000001f0: c6f1 20bd b651 453d 8b08 4d3b 0204 093d
00000200: e070 c1bd 9380 993c 0b2a 17bd bec2 87bd
00000210: 3450 053d d9bc aabd 25c8 b13c 884f 9ebc
00000220: aa70 763d a862 8f3d a523 2f3d 0553 6e3c
00000230: 0682 913d 3857 633d aaa9 173d 708a d5bd
00000240: 1753 ab3d cca1 11bd e66a 793d f0eb 9f3d
00000250: 56e3 943d a262 733d 26ad 3fbd 346b b73d
00000260: 77b9 d9bd 05c4 4b3d 26b7 8b3d 4556 c13c
00000270: 09a9 523d 7499 0fbd 1364 57bd 13ac e9bc
00000280: bd78 02bd a03e b3bd 78c1 963d ccf1 633d
00000290: f577 873d 79c8 b1bc 81c9 443d 7c6f 0dbd
000002a0: 0d65 cfbc edf7 3cbc d078 d03d 4bbf 76bc
000002b0: f3b9 fdbb 82ea 8c3d 9f2a 55bd 75f8 9b3d
000002c0: e097 a03d 49be 493c 53b4 e0bc b025 aebc
000002d0: ad43 2abd 50b0 523a 6b7e 93bb 1cab 623d
000002e0: 86bd 5d3d e1a2 03bc 88f8 233d d2b1 e93d
000002f0: 9e63 8a3d e249 b23d 0c3f 03bd 0ed6 803b
00000300: aa36 bf3d d099 af3d 9802 913d f777 893d
00000310: 4d94 b53d 08ed c03d 81b5 8e3d 995c 09bd
00000320: 8415 c43d 30fa 9fbd 40cc 5c3d 2a47 c03d
00000330: c8c6 fd3c 5746 d0bc 525e a5bd f1ad 013b
00000340: 697e db3c 8a55 553d a372 81bd a852 86bd
00000350: 60d1 a53d 4183 15bd 956d 873d ce12 83bd
00000360: 2e5a 3cbb 66b6 14bd 0303 e53d 8fee 67bd
00000370: 9d65 79bd 50f8 93bd a145 113c 5c0b 6ebc
00000380: d0c1 a2bc b15e 99bd 7caf 57bd 3885 99bc
00000390: c0bb 873c d6eb 043c 2ca5 15bb 941d 50bd
000003a0: 77a0 e83d 5370 e03d 0cf3 c03c 9668 7dbd
000003b0: 521a a7bd b6f3 6dbd 557b a53c b2d5 55bd
000003c0: 5729 7ebc 604d a2bc d186 82bd 433d 8dbd
000003d0: a328 e83d 84e6 a0bd 831e 0bbd 3e8d 8ebd
000003e0: ae2f 133d 2150 0c3d 4d9a 833d 3a0a 903d
000003f0: 0e8a 8abc ebdb 83bc 2a6f e03d b876 e23c
-0.01202512 0.0883534 0.0041912477 -0.06058099 0.10566211 0.010948515 0.018085212 0.04420767
-0.039971847 -0.004332983 0.027230138 0.046897013 -0.07536914 -0.05226716 -0.09121897 -0.06653457
-0.041794866 0.08927575 0.09355723 -0.0028769635 -0.03052265 0.0063310717 0.026656708 0.030166857
-0.029213695 0.06061278 -0.06863362 -0.04470319 0.013220121 -0.04660699 0.010498993 -0.09408688
0.06019211 0.055116218 0.029321305 0.035955317 -0.025406143 0.07900787 0.043800086 0.018611053
-0.009999526 -0.09000855 0.034025326 0.06615272 0.06461861 0.008548037 -0.07785979 -0.04767615
-0.09864647 0.089361966 -0.02018671 0.01727922 -0.09439867 -0.0047827074 0.045194604 -0.04244757
0.05938296 0.046479546 0.022410003 0.078387484 -0.087015 0.020520994 -8.8483815e-05 -0.04538011
0.05955747 0.062561765 -0.023668272 0.090591654 -0.055516534 0.07502085 0.11019155 -0.012612573
-0.06468577 0.08866772 -0.03488569 -0.07802719 -0.0019503223 0.06169996 0.0030434872 -0.02397604
-0.076823056 0.00058622396 0.11069722 0.09254053 0.040197436 0.07791146 -0.050580993 0.108501695
0.018350745 0.02009871 -0.0135735255 0.09098188 0.10518212 0.02408513 0.0330425 -0.018015468
0.010051177 0.003761094 0.0064114975 -0.027461741 -0.0047561615 0.10809129 -0.06364994 -0.025484733
0.02301886 0.035554033 0.07479815 0.024313586 0.0657041 -0.035887334 -0.009271042 -0.086399265
0.04199684 -0.02789486 -0.009509862 0.019336171 -0.057658277 0.0042853416 -0.095462784 -0.010249028
0.097738996 -0.08634646 -0.00041877606 6.40895e-05 -0.039293073 0.04817363 0.003128561 0.033451088
-0.09445357 0.018738067 -0.03690533 -0.06628941 0.03254719 -0.08336801 0.021701882 -0.019325033
0.06016604 0.07001239 0.042758603 0.014546161 0.07104878 0.0555031 0.03702704 -0.104267955
0.083654575 -0.035554692 0.060892962 0.078086734 0.072699234 0.059420235 -0.046795987 0.08955994
-0.10631078 0.049747486 0.06822042 0.023600707 0.051430736 -0.035058454 -0.052585673 -0.028524434
-0.031853426 -0.08752179 0.0736112 0.055650517 0.06614677 -0.021702038 0.04804373 -0.034530148
-0.02531674 -0.0115337195 0.10179293 -0.015060256 -0.007743114 0.06880666 -0.0520426 0.07615749
0.07841468 0.012313434 -0.027429735 -0.021258205 -0.041568447 0.0008037137 -0.004501154 0.055338964
0.05413582 -0.008034439 0.04003194 0.1141087 0.06757282 0.08705498 -0.032042548 0.0039317673
0.09336598 0.08574259 0.07080573 0.067123346 0.08866177 0.0942021 0.06968213 -0.033535574
0.09574416 -0.07811391 0.053905725 0.093885735 0.030978575 -0.025424166 -0.08074631 0.0019787515
0.026793675 0.05208353 -0.06320693 -0.06558734 0.08096576 -0.036502127 0.06612698 -0.06400071
-0.0028740275 -0.03630676 0.11182215 -0.05662399 -0.06088792 -0.07225096 0.0088666985 -0.0145290755
-0.019867808 -0.07488764 -0.05265759 -0.018740281 0.016569018 0.008112868 -0.0022834046 -0.050809458
0.11358731 0.10958924 0.023553394 -0.06186732 -0.08159317 -0.05809375 0.02020041 -0.05220575
-0.015512786 -0.019812286 -0.063733704 -0.0689645 0.11335876 -0.07856467 -0.033964645 -0.069605336
0.035934143 0.034256104 0.06425915 0.070332006 -0.016911533 -0.016096076 0.10958703 0.0276445

Linear_Trend.bias f4 [96]
00000000: d5d1 97bd 6a1b 723d f20e b43c b799 9bbd
00000010: 4309 6abd 7a7d 97bc b7ef ab3d 752c 67bd
00000020: a258 5b3d b040 4b3d c8e5 483b 3ab4 aaba
00000030: dd7c 523d 9a41 9fbb 1798 59bd 0cc4 c33c
00000040: 836d c1bd cbde 43bc 14e8 39bd efff 193d
00000050: 7772 febc 7b25 4fbd fc84 c8bc 6fd8 b23d
00000060: 43d2 0abd e1af aebb 1205 143d 286a 41bd
00000070: c00e 393c 7f56 973d 3de9 a2bb e4e2 113c
00000080: 8213 8dbc 9893 1dbd d0d6 3f3d 7c5a 063c
00000090: 98e3 14bd 7f87 f5bb 2b3f f73c f8be 5cbd
000000a0: 64a6 93bd 53b6 d53c 197f e83b 8389 b8bd
000000b0: 022e efbc 824f 0cbd 0115 2abd c04f ffbc
000000c0: b430 68bd a297 12bd df3d 2f3c 1da7 743d
000000d0: 5279 cf3a 12fa 50bd 034e a63d d34c 83bc
000000e0: 9ffd 14bd 6c21 a0bc 402e bfbc 7db4 c0bc
000000f0: 89ae bfbc 634d 94bc b09b af3a 3da5 59bd
00000100: fdec 1f3d caa5 fcba 57c8 1f3d 16f3 823d
00000110: 729e ce3c f64f 0ebd 4c6f a8bd d417 b43c
00000120: cc01 723d 2e33 90bc 28c4 85bd 05c6 f7bc
00000130: 30dc 9e3d a957 b53d 69e9 57bd 46a4 f63c
00000140: 354c a6bd 5b9d 05bd eecf 41bd 5a1e a9bc
00000150: 9d16 593d 3802 d43b f02d 8fbd a06e 2fbc
00000160: 829f 7dbc 822d e3bb 1479 15bc c9b8 903d
00000170: e9c4 093b 1c70 993b a657 813d c233 a13d
-0.07413069 0.059108175 0.021979783 -0.07597678 -0.05713774 -0.01849245 0.08395331 -0.056438882
0.053551324 0.049622238 0.0030654538 -0.0013023682 0.05138861 -0.0048601152 -0.05312356 0.023897193
-0.09444716 -0.011954973 -0.045387343 0.037597593 -0.03106044 -0.050572854 -0.024477474 0.08732688
-0.033891927 -0.005331025 0.036137648 -0.04722038 0.011295021 0.07389545 -0.004971652 0.008904193
-0.017221216 -0.038470834 0.04683572 0.008200284 -0.036349863 -0.007492959 0.030181488 -0.05389306
-0.07209471 0.026087916 0.0070952293 -0.09010603 -0.029196743 -0.034255512 -0.041523937 -0.031165957
-0.056687072 -0.03578914 0.010695904 0.059729684 0.0015829003 -0.051019736 0.08120348 -0.016027844
-0.036374684 -0.019547187 -0.023337483 -0.023523564 -0.023398655 -0.018103307 0.0013397839 -0.0531361
0.03904437 -0.0019275483 0.03900942 0.06394021 0.025222037 -0.034744225 -0.08224353 0.021984018
0.059083745 -0.01760253 -0.065315545 -0.03024579 0.07756841 0.088546105 -0.05271283 0.030107629
-0.08120004 -0.03262077 -0.047317438 -0.020644356 0.05300008 0.006469991 -0.06991184 -0.010707527
-0.015479924 -0.006932915 -0.009123106 0.07066495 0.0021021909 0.004682554 0.06315546 0.078712
