checkpoints/test_DLinear_ETTh1_ftM_sl96_ll48_pl96_dm512_nh8_el2_dl1_df2048_fc1_ebtimeF_dtTrue_test_1/checkpoint.pth (torch, 76337 bytes, 4 tensors)

Linear_Seasonal.weight f4 [96, 96]
0.054291006 -0.011581107 0.0010671243 0.035037335 0.033581298 -0.00552312 0.013094349 0.0239867
-0.028437255 -0.017126035 -0.03661038 -0.041002043 -0.009676904 -0.03215351 -0.044252954 0.015809627
0.042027812 -0.058026865 -0.08712646 0.03977624 -0.02727217 -0.018014306 0.017799383 -0.0065661473
0.09918547 -0.043149073 0.009721367 0.03797867 -0.1072284 0.027453147 -0.102561675 -0.025258077
0.05028844 -0.01802091 0.028012265 0.003943478 -0.07942125 0.058183845 -0.06233304 -0.053000282
-0.06837435 -0.067875475 0.08549686 0.052863874 -0.06557328 0.018126888 -0.008640548 -0.0009687866
-0.021512667 0.034064498 0.063524745 -0.002618133 0.01245613 0.011772099 -0.004340214 0.03517799
-0.07812864 -0.048056286 0.002450734 0.075633466 -0.06375697 -0.052982 0.075231485 -0.031305514
-0.02783951 0.037590515 -0.07176083 -0.06883899 0.021047551 -0.06756582 -0.031339582 -0.023604717
0.038914293 -0.009951306 -0.056696743 0.048753332 -0.11268482 -0.08729882 0.017222304 -0.09253593
-0.08603092 -0.06993766 -0.093396634 0.0009239719 -0.11060056 -0.0734753 0.021061381 0.03861726
-0.14517236 0.019258045 -0.095831975 -0.115432374 -0.04726907 -0.041515667 0.073080905 -0.016228644
0.06544791 -0.034221396 0.08742585 0.06033776 -0.059363827 -0.004785457 -0.0006755937 0.044833068
-0.06379782 0.004768791 -0.011372921 0.008138925 -0.029997077 -0.015700066 -0.0045454134 0.043772645
0.03622037 -0.030132413 -0.024481796 0.021523664 -0.060007058 0.042013135 -0.059854675 0.07262508
-0.033523317 0.083513126 0.09884113 -0.06113495 -0.020573359 -0.038971514 0.039360773 -0.030866925
0.02293604 -0.026487542 0.009996443 -0.018018015 -0.022144595 -0.012044176 -0.0016242601 -0.05842213
0.043921784 0.07531123 -0.04294118 0.004761705 0.0013803407 0.03293596 -0.04329362 -0.040691543
0.1232091 0.028142901 0.07859675 0.088288814 0.0865532 -0.02044609 -0.055376403 -0.03255388
0.06431758 -0.09078916 0.027015017 -0.024163539 0.021809954 -0.044030104 -0.07300883 0.06162723
0.0036749705 -0.042417105 -0.11699116 -0.0045565716 -0.11630762 -0.04195683 -0.0021668721 0.04756972
-0.049528953 -0.039177336 -0.05489005 0.028998619 -0.08477894 -0.01649659 -0.063798085 -0.06003646
-0.07675725 -0.100920744 0.02400133 -0.015862567 -0.019024149 -0.124221705 -0.013428428 -0.06872778
-0.03919757 -0.14198978 -0.0035699843 0.051546432 -0.08288173 -0.016769264 0.05284299 0.0138079105
0.02878665 0.013535708 0.13670416 -0.045232866 -0.0036651308 0.07898731 -0.10322334 0.0072811614
-0.08031023 0.05966728 -0.067709275 -0.046935316 0.022372289 -0.09310181 0.0076139495 0.037017755
-0.095877804 -0.057887703 -0.025255803 -0.09043945 0.061091427 -0.096721195 -0.02586143 -0.042082567
-0.10026183 0.0107873455 -0.023376368 0.05024912 0.062117763 -0.080150254 0.037381873 -0.10928704
-0.03703404 0.01708149 -0.108291626 0.071017936 -0.03449282 0.038593996 -0.05427424 -0.037769195
0.08372397 0.04202114 -0.03475435 -0.058690757 -0.0033997942 -0.09057609 0.042245414 0.025888836
0.035607055 0.11174722 0.06768801 0.04175758 0.0734041 -0.063968286 0.020247864 0.027858168
0.020553282 0.038591392 -0.024137277 -0.06331929 -0.00065028114 0.05456219 -0.012369815 -0.018841784
00000000: 3f60 5e3d afbe 3dbc c0de 8b3a 4f83 0f3d
00000010: 8b8c 093d 4afb b4bb ae89 563c c27f c43c
00000020: 3ff5 e8bc e64b 8cbc c4f4 15bd c2f1 27bd
00000030: e18b 1ebc 66b3 03bd 9642 35bd 3183 813c
00000040: 5b25 2c3d 94ad 6dbd 5c6f b2bd 69ec 223d
00000050: e369 dfbc bd92 93bc 03d0 913c d628 d7bb
00000060: c021 cb3d 15bd 30bd 5e46 1f3c 868f 1b3d
00000070: 909a dbbd 6ce5 e03c db0b d2bd 07ea cebc
00000080: 40fb 4d3d 96a0 93bc fa79 e53c 4b38 813b
00000090: 9ca7 a2bd 2f52 6e3d ee50 7fbd d316 59bd
000000a0: da07 8cbd 4c02 8bbd fa18 af3d ca87 583d
000000b0: 494b 86bd d77e 943c 1691 0dbc 2bf6 7dba
000000c0: 553b b0bc 3787 0b3d 4319 823d fc94 2bbb
000000d0: cc14 4c3c c3df 403c 5b38 8ebb cc16 103d
000000e0: e901 a0bd abd6 44bd 7e9c 203b b8e5 9a3d
000000f0: 0493 82bd a703 59bd f712 9a3d 363a 00bd
00000100: af0f e4bc 83f8 193d 58f7 92bd 75fb 8cbd
00000110: ea6b ac3c f35f 8abd ef5d 00bd ae5e c1bc
00000120: 9864 1f3d cd0a 23bc d83a 68bd 93b1 473d
00000130: 4dc7 e6bd b9c9 b2bd ca15 8d3c 7a83 bdbd
00000140: fb30 b0bd 7a3b 8fbd bc46 bfbd b436 723a
00000150: 8c82 e2bd 387a 96bd eb88 ac3c 222d 1e3d
00000160: 10a8 14be 0cc3 9d3c 8e43 c4bd cf67 ecbd
00000170: 369d 41bd 550c 2abd 71ab 953d eff1 84bc
00000180: 8e09 863d bc2b 0cbd 530c b33d ba24 773d
00000190: 7c27 73bd 53cf 9cbb 531a 31ba e1a2 373d
000001a0: 6ea8 82bd 8543 9c3b 7d55 3abc 2059 053c
000001b0: 6ebc f5bc 6d9d 80bc b1f1 94bb f24a 333d
000001c0: d05b 143d 40d8 f6bc 0c8e c8bc 6552 b03c
000001d0: f6c9 75bd f715 2c3d 2d2a 75bd 75bc 943d
000001e0: bf4f 09bd ee08 ab3d 386d ca3d a468 7abd
000001f0: 7689 a8bc 98a0 1fbd c338 213d a2dc fcbc
00000200: 5de4 bb3c 67fc d8bc 1fc8 233c 849a 93bc
00000210: 9568 b5bc f054 45bc 20e5 d4ba 0b4c 6fbd
00000220: 54e7 333d c63c 9a3d 17e3 2fbd 1408 9c3b
00000230: 8cec b43a dbe7 063d a754 31bd 2dac 26bd
00000240: 0d55 fc3d f18b e63c 55f7 a03d c4d0 b43d
00000250: ce42 b13d 8f7e a7bc 5ed2 62bd 3857 05bd
00000260: efb8 833d abef b9bd 994e dd3c 9df2 c5bc
00000270: caaa b23c e958 34bd a785 95bd d66c 7c3d
00000280: c6d7 703b 8fbd 2dbd 1099 efbd 4b4f 95bb
00000290: b132 eebd edda 2bbd 1502 0ebb 77d8 423d
000002a0: dfde 4abd 6a78 20bd 64d4 60bd 838e ed3c
000002b0: 95a0 adbd db23 87bc 92a8 82bd cbe8 75bd
000002c0: e832 9dbd 89af cebd 709e c43c 37f2 81bc
000002d0: 88d8 9bbc f367 febd e902 5cbc 26c1 8cbd
000002e0: a28d 20bd c565 11be 66f6 69bb 5a22 533d
000002f0: e5bd a9bd b25f 89bc e471 583d 933a 623c
00000300: fbd1 eb3c e0c4 5d3c 2dfc 0b3e 1946 39bd
00000310: b132 70bb 19c4 a13d c266 d3bd cf96 ee3b
00000320: b179 a4bd ae65 743d 29ab 8abd 3f3f 40bd
00000330: 1746 b73c 29ac bebd 707e f93b ee9f 173d
00000340: 955b c4bd a81b 6dbd 42e5 cebc 5238 b9bd
00000350: 013b 7a3d c315 c6bd 5adb d3bc c55e 2cbd
00000360: 1356 cdbd 68bd 303c cc7f bfbc 05d2 4d3d
00000370: 326f 7e3d d125 a4bd bc1d 193d e2d1 dfbd
00000380: 01b1 17bd 7bee 8b3c 00c8 ddbd da71 913d
00000390: 5848 0dbd bd14 1e3d aa4e 5ebd dfb3 1abd
000003a0: 7977 ab3d 5c1e 2c3d 945a 0ebd b865 70bd
000003b0: 15cf 5ebb f57f b9bd 8709 2d3d d314 d43c
000003c0: b4d8 113d badb e43d 03a0 8a3d ff09 2b3d
000003d0: e454 963d ce01 83bd d9de a53c d036 e43c
000003e0: 5b5f a83c 0212 1e3d 8abb c5bc 8bad 81bd
000003f0: a177 2aba 9a7c 5f3d c4aa 4abc 165a 9abc

Linear_Seasonal.bias f4 [96]
-0.06776815 -0.05412385 -0.04966256 0.07602129 0.04241727 -0.040985487 0.010912272 -0.075356446
-0.034940887 0.0013589003 0.040847905 0.05067483 -0.029362954 -0.016154325 -0.037939545 0.011695117
0.004849591 -0.009855886 -0.012579817 -0.02084385 -0.02855562 0.006481971 -0.05568343 0.06713695
-0.050226074 -0.053115997 0.0037351171 -0.07553062 0.039166987 0.03079382 -0.033166066 -0.00770651
-0.010762197 -0.05218435 0.03484208 -0.06163336 -0.043505542 -0.08840042 0.009434722 0.0027978322
0.05241628 -0.033835266 -0.04152708 0.049128212 0.06698518 -0.038522083 -0.004702285 -0.020142725
-0.057112016 -0.029240923 -0.010115512 0.0038490226 -0.014038032 -0.057665665 -0.02537827 -0.034555674
-0.015266137 -0.076554194 0.03291627 -0.024123313 -0.053919382 -0.069895305 0.0338066 0.0085194055
-0.041432265 0.041690186 0.0008687849 -0.014663082 0.030457133 0.031182516 -0.061424054 0.003231998
-0.062424578 -0.062372733 -0.022712577 0.036934715 0.012593903 -0.053851187 -0.045129735 0.06448453
-0.0022521087 0.03363484 -0.0044413893 0.028036715 -0.0030468383 -0.03433015 0.024533562 -0.002364489
0.024189401 0.029407024 0.03978522 0.061251923 -0.0765451 -0.00736181 -0.08853619 -0.038208775
00000000: 07ca 8abd f8b0 5dbd f86a 4bbd 0db1 9b3d
00000010: bbbd 2d3d 66e0 27bd 63c9 323c 7b54 9abd
00000020: 2d1e 0fbd 211d b23a 2250 273d 6990 4f3d
00000030: 948a f0bc 1356 84bc 7f66 1bbd e09c 3f3c
00000040: 51e9 9e3b 957a 21bc 941b 4ebc b9c0 aabc
00000050: 7aed e9bc b766 d43b 4f14 64bd 197f 893d
00000060: dbb9 4dbd 2990 59bd dec8 743b ccaf 9abd
00000070: 906d 203d 5243 fc3c 24d9 07bd e486 fcbb
00000080: ed53 30bc 42bf 55bd 92b6 0e3d 4373 7cbd
00000090: de32 32bd 480b b5bd 1894 1a3c d65b 373b
000000a0: 74b2 563d d996 0abd 4d18 2abd aa3a 493d
000000b0: 872f 893d 55c9 1dbd a015 9abb 5b02 a5bc
000000c0: 4aee 69bd a98a efbc 88bb 25bc e23f 7c3b
000000d0: c6ff 65bc d532 6cbd 17e6 cfbc 408a 0dbd
000000e0: d21e 7abc 72c8 9cbd 36d3 063d 419e c5bc
000000f0: 92da 5cbd 4525 8fbd ca78 0a3d fa94 0b3c
00000100: e1b4 29bd 54c3 2a3d 2bbf 633a 6c3d 70bc
00000110: 3d81 f93c 7a72 ff3c ca97 7bbd eecf 533b
00000120: eab0 7fbd 8d7a 7fbd ba0f babc db48 173d
00000130: a856 4e3c 1093 5cbd f5d9 38bd 7710 843d
00000140: 1d98 13bb b0c4 093d 1389 91bb 41ad e53c
00000150: 77ad 47bb c59d 0cbd 9cfa c83c 8bf5 1abb
00000160: da28 c63c 00e7 f03c d4f5 223d 4ce3 7a3d
00000170: adc3 9cbd 573b f1bb 7652 b5bd ce80 1cbd

Linear_Trend.weight f4 [96, 96]
0.019040927 0.047786836 0.04685358 0.092712544 -0.046763234 -0.032878246 0.0664598 -0.052119195
0.04779807 0.05992445 -0.0015694044 -0.03487325 -0.05299148 0.07063258 0.021271884 0.079497166
-0.074202694 -0.044213504 -0.07554323 0.05921016 0.009008399 -0.032214116 0.07861324 0.025857503
0.104947284 -0.014079425 -0.08432196 -0.032961205 0.051163424 -0.08137294 -0.0331023 -0.07000728
-0.030761113 -0.0849888 -0.042802457 0.037850272 -0.016315289 0.11129507 -0.020264026 -0.008506902
-0.04364109 -0.012453805 -0.04557662 -0.024474358 0.030152427 -0.0040005073 -0.059287306 0.046490915
0.08684618 0.09796525 0.05845655 -0.08239793 -0.049405113 -0.08796856 -0.077330865 0.11078806
0.0014749883 -0.05421654 0.0839902 -0.087717295 -0.021484422 -0.07307746 0.10806596 0.06562744
-0.020741487 -0.09064137 -0.077446744 0.0963607 0.034750324 -0.06678598 0.07141416 -0.070992194
0.08462004 0.0810035 -0.051572084 -0.031752266 0.025802225 0.012997043 0.007682799 0.06668891
0.07193876 0.07061945 0.09522241 0.09517717 0.042981338 0.08082787 -0.023433533 -0.01920858
0.100046 -0.017655877 -0.039534103 0.07380522 0.06780597 0.09482311 0.12080473 0.07300436
0.032247264 0.05145302 0.05524964 -0.014003984 0.11304309 -0.0070878896 0.04018959 0.0148372855
-0.07275756 0.041261148 0.020925807 0.035085913 -0.057575256 0.039118387 -0.035739638 -0.018242706
-0.024093421 -0.033058494 -0.04776889 -0.03484158 0.020704716 0.10798972 0.050073557 0.006832543
0.03254737 0.014928305 0.039246827 0.019908415 0.022484286 -0.03014161 -0.046894588 0.030246606
-0.045896273 -0.014282325 0.025387028 -0.0089158565 -0.0019704741 -0.038546015 0.045420513 -0.05085094
0.12805827 -0.037699237 -0.06431073 0.07443622 -0.044996116 -0.01571966 -0.055634968 -0.017800497
-0.06696054 -0.0037310477 0.089215204 0.06185858 -0.01982855 0.033250365 0.04333573 -0.06812396
-0.037271336 -0.037205596 0.10158421 -0.06482114 0.0150024695 0.07747642 -0.034147754 -0.026710648
-0.05244771 -0.051121563 0.0017113942 -0.019686695 0.12591435 0.11260389 0.12683296 -0.06321312
-0.022126954 0.064401716 0.11681367 0.07084344 -0.0723224 0.001508892 -0.065168746 -0.027893748
0.115236655 0.11383064 0.06600168 -0.0687697 0.074088305 0.019079002 0.10036389 -0.0043468093
-0.05904316 -0.03772487 -0.01009443 0.12816155 -0.04260302 0.03117161 -0.018162683 0.0029349672
-0.016276255 -0.08596708 -0.031271756 0.058292523 0.05987291 0.01874164 -0.048690964 0.012552941
-0.043884646 0.0766177 -0.024600329 -0.009307886 -0.02863972 0.061288413 0.03486748 -0.059560973
0.078653626 -0.04407859 0.062868804 0.010556155 -0.044575356 -0.012743553 0.03860898 -0.08423587
0.07733391 0.08249039 0.052069355 0.06458053 -0.058660686 0.042685706 -0.061564937 -0.005009881
0.076986976 0.035567366 0.021788284 -0.03012878 -0.011456776 0.08357675 0.08574563 -0.05439672
-0.061470505 0.022742273 -0.026891867 -0.09150732 -0.025483897 0.02469014 0.038958345 -0.048878413
-0.03306786 0.054280333 0.047104582 -0.075991504 0.006036316 0.0394919 0.089141354 0.04188731
-0.06703705 0.10970759 -0.08677966 -0.060416378 0.08790171 -0.060488928 0.026542969 -0.037675515
00000000: b8fb 9b3c 21bc 433d 8ae9 3f3d 13e0 bd3d
00000010: ce8a 3fbd 57ab 06bd 131c 883d f07a 55bd
00000020: e9c7 433d 5773 753d 79b4 cdba 41d7 0ebd
00000030: 980d 59bd d0a7 903d 6042 ae3c 69cf a23d
00000040: 95f7 97bd 3819 35bd 69b6 9abd 5a86 723d
00000050: f797 133c f3f2 03bd faff a03d 1dd3 d33c
00000060: 9aee d63d 63ad 66bc feb0 acbd 5402 07bd
00000070: bd90 513d dba6 a6bd 4796 07bd fa5f 8fbd
00000080: bbfe fbbc 9c0e aebd a151 2fbd e308 1b3d
00000090: a4a7 85bc abee e33d be00 a6bc 8860 0bbc
000000a0: 00c1 32bd 0b0b 4cbc 8dae 3abd 737e c8bc
000000b0: 3902 f73c b016 83bb 3fd7 72bd 426d 3e3d
000000c0: 69dc b13d 01a2 c83d 2370 6f3d 3fc0 a8bd
000000d0: 045d 4abd dc28 b4bd a55f 9ebd dae4 e23d
000000e0: 6554 c13a 2a12 5ebd 0e03 ac3d 20a5 b3bd
000000f0: 1900 b0bc a3a9 95bd b051 dd3d ae67 863d
00000100: 0dea a9bc 2fa2 b9bd 669c 9ebd c258 c53d
00000110: 5b56 0e3d 16c7 88bd 9641 923d 5b64 91bd
00000120: 464d ad3d 2ae5 a53d 403d 53bd aa0e 02bd
00000130: 305f d33c 8df1 543c fdbf fb3b 3294 883d
00000140: a154 933d eea0 903d f803 c33d 40ec c23d
00000150: 330d 303d 1589 a53d aef7 bfbc 505b 9dbc
00000160: ebe4 cc3d 0fa3 90bc 83ee 21bd 3127 973d
00000170: dbdd 8a3d 9e32 c23d 7868 f73d 4f83 953d
00000180: b515 043d 67c0 523d 724d 623d f770 65bc
00000190: 2383 e73d 8741 e8bb d79d 243d 1618 733c
000001a0: ea01 95bd 7301 293d 996c ab3c 3fb6 0f3d
000001b0: 08d4 6bbd 9a3a 203d ba63 12bd ba71 95bc
000001c0: 915f c5bc 5868 07bd 50a9 43bd 0bb6 0ebd
000001d0: f09c a93c b729 dd3d ee19 4d3d 86e3 df3b
000001e0: 6450 053d d995 743c 48c1 203d f916 a33c
000001f0: f730 b83c 8aeb f6bc 8a14 40bd bbc7 f73c
00000200: bbfd 3bbd 6a00 6abc 75f8 cf3c d013 12bc
00000210: 1223 01bb 6de2 1dbd dc0a 3a3d 1349 50bd
00000220: b521 033e 846a 1abd 58b5 83bd 0472 983d
00000230: d94d 38bd 84c6 80bc 7ee1 63bd 59d2 91bc
00000240: 9c22 89bd 9884 74bb 76b6 b63d 6c5f 7d3d
00000250: 7c6f a2bc 8931 083d ce80 313d 9384 8bbd
00000260: d4a9 18bd e564 18bd 620b d03d f2c0 84bd
00000270: ebcc 753c f5ab 9e3d 84de 0bbd 4ad0 dabc
00000280: 69d3 56bd d864 51bd dc50 e03a fe45 a1bc
00000290: b1ef 003e de9c e63d 80e0 013e e175 81bd
000002a0: 9643 b5bc 0ce5 833d 013c ef3d 5e16 913d
000002b0: c41d 94bd 04c6 c53a 3177 85bd 6e81 e4bc
000002c0: 3201 ec3d 0a20 e93d e42b 873d 21d7 8cbd
000002d0: 9cbb 973d 914b 9c3c 958b cd3d ae6f 8ebb
000002e0: 3ed7 71bd 6585 1abd 1c63 25bc c83c 033e
000002f0: 8180 2ebd 9b5b ff3c e8c9 94bc 9458 403b
00000300: c855 85bc 820f b0bd d016 00bd 24c4 6e3d
00000310: 4c3d 753d 1188 993c 2d70 47bd daaa 4d3c
00000320: 63c0 33bd bee9 9c3d a186 c9bc 1a80 18bc
00000330: d99d eabc 8f09 7b3d 34d1 0e3d 35f6 73bd
00000340: 2715 a13d c08b 34bd 5cc1 803d b9f3 2c3c
00000350: a694 36bd 56ca 50bc 7324 1e3d db83 acbd
00000360: 3e61 9e3d b9f0 a83d ad46 553d cc42 843d
00000370: 3046 70bd 35d7 2e3d 842b 7cbd ee29 a4bb
00000380: 59ab 9d3d 16af 113d 587d b23c a2d0 f6bc
00000390: 34b5 3bbc 492a ab3d 689b af3d 18cf 5ebd
000003a0: 7fc8 7bbd 014e ba3c 554c dcbc 3168 bbbd
000003b0: 9bc3 d0bc fa42 ca3c c992 1f3d bb34 48bd
000003c0: 2a72 07bd 0e55 5e3d bcf0 403d 6fa1 9bbd
000003d0: 4acc c53b 42c2 213d be8f b63d 0792 2b3d
000003e0: b94a 89bd 5fae e03d 89b9 b1bd 2a77 77bd
000003f0: d005 b43d 3dc3 77bd a470 d93c a451 1abd

Linear_Trend.bias f4 [96]
0.067693844 0.027223222 0.023190362 -0.08195224 -0.03446208 0.035128575 -0.025302222 0.06967269
0.028300734 0.013004439 -0.008929213 -0.061894387 0.010768268 -0.015694873 0.030818785 -0.012631114
0.011398829 0.00234395 -0.0011021745 0.014633684 0.021098787 0.037290856 0.043490216 -0.074492164
0.050985422 0.045023806 -0.00970288 0.06530435 -0.04652839 0.019689415 -0.010943906 0.004783927
0.019081548 0.03487635 -0.044969134 0.054738224 0.026357964 0.077732205 -0.019534755 0.029988425
-0.046232253 -0.022029802 0.030228898 -0.06604021 -0.076675616 0.026903555 -0.03648826 0.023226054
0.042215347 0.017226784 0.041247256 0.016085366 0.009218194 0.030050183 0.0082852375 0.011068305
-0.0002889027 0.05974644 -0.008147694 0.028750535 0.025880622 0.051968902 -0.048078753 -0.033750776
0.02583455 -0.058488477 0.027157232 -0.013981467 -0.048198212 0.02930278 0.04047196 0.0151095735
0.04662504 0.046558097 -0.0097815 -0.040805615 -0.04496501 0.049824655 0.001974992 -0.085108
-0.012193422 0.035408437 -0.04262522 -0.039771605 -0.0138902385 0.022064634 -0.0020793986 -0.03528316
-0.04690198 -0.042805802 -0.032234855 -0.077603325 0.06190927 -0.039031815 0.073718145 -0.0033036561
00000000: 12a3 8a3d 3c03 df3c b7f9 bd3c 93d6 a7bd
00000010: 1c28 0dbd fbe2 0f3d 9b46 cfbc 8eb0 8e3d
00000020: f1d6 e73c 9210 553c d54b 12bc f884 7dbd
00000030: 646d 303c 8992 80bc ad77 fc3c bbf2 4ebc
00000040: 27c2 3a3c f59c 193b d776 90ba 1fc2 6f3c
00000050: 5dd7 ac3c 4cbe 183d cc22 323d 598f 98bd
00000060: 17d6 503d e26a 383d d4f8 1ebc 49be 853d
00000070: 8e94 3ebd b24b a13c 124e 33bc 7dc2 9c3b
00000080: e850 9c3c 81da 0e3d 8e31 38bd 3035 603d
00000090: a8ec d73c 1032 9f3d 5a07 a0bc 49aa f53c
000000a0: 085e 3dbd d877 b4bc 98a2 f73c 1740 87bd
000000b0: 1b08 9dbd d864 dc3c b774 15bd 9144 be3c
000000c0: 00ea 2c3d 2f1f 8d3c e2f2 283d 75c5 833c
000000d0: e807 173c cd2b f63c cebe 073c d657 353c
000000e0: dd77 97b9 afb8 743d e87d 05bc 3e86 eb3c
000000f0: 9903 d43c 58dd 543d 3aee 44bd 413e 0abd
00000100: faa2 d33c 9d91 6fbd d878 de3c 8612 65bc
00000110: 7d6b 45bd 620c f03c edc5 253d 258e 773c
00000120: e6f9 3e3d b4b3 3e3d 9642 20bc ca23 27bd
00000130: 3b2d 38bd f014 4c3d de6e 013b 1a4d aebd
00000140: ebc6 47bc 7008 113d c897 2ebd 8de7 22bd
00000150: e293 63bc e4c0 b43c 8546 08bb 1385 10bd
00000160: 4a1c 40bd 2355 2fbd b208 04bd 7eee 9ebd
00000170: 9394 7d3d d3df 1fbd 8af9 963d 2782 58bb
