checkpoints/336_96_PatchTST_ETTh1_ftM_sl336_ll48_pl96_dm16_nh4_el3_dl1_df128_fc1_ebtimeF_dtTrue_Exp_0/checkpoint.pth (torch, 357127 bytes, 65 tensors)

model.backbone.W_pos f4 [42, 16]
0	0x3b67121d	0.00352586
1	0x3c658f4c	0.014011215
2	0x3985ee81	0.00025545436
3	0xbc8d7605	-0.01726819
4	0x3cb906fe	0.022586342
5	0xba30fa3a	-0.0006751154
6	0x3c52589e	0.012838511
7	0xbbb0e47c	-0.005398331
8	0xbbc7849a	-0.0060888054
9	0xbc738948	-0.014864273
10	0xbcbebf1d	-0.02328449
11	0x3b6c693c	0.0036073467
12	0x3a8f2bf4	0.0010923133
13	0x3c389712	0.011266487
14	0xbc137a5c	-0.009001341
15	0x3cb04b68	0.021520332
16	0x3a57e8a0	0.0008236263
17	0x3cbee6ea	0.023303468
18	0x3c19f2bc	0.009396251
19	0xbac02873	-0.0014660492
20	0x3b7134dc	0.0036805188
21	0x3b53f938	0.003234459
22	0x3cb8b40e	0.022546794
23	0xbc848d88	-0.016180769
24	0xbc1a1ebf	-0.0094067445
25	0xba3dd64e	-0.0007241712
26	0xbceda27f	-0.029008148
27	0xbcce5371	-0.025186272
28	0x3c0b3d94	0.008498568
29	0xbc0953bd	-0.008381781
30	0x3bb8c835	0.005639101
31	0xbb402ca1	-0.0029323476
32	0xbc8410cc	-0.01612129
33	0x39de40fd	0.0004239156
34	0xbbf96d13	-0.0076118796
35	0xbbaa5688	-0.0051983036
36	0x3bc5f0c9	0.0060406667
37	0xbd104a37	-0.035227027
38	0x3c7e014a	0.015503237
39	0x3c6e1533	0.0145314215
40	0x3af35f01	0.0018567742
41	0xbc2dff8c	-0.010620009
42	0x3c685ba9	0.01418201
43	0xbc939b5d	-0.018018419
44	0xbcf2e35a	-0.029649425
45	0xbc1c53dc	-0.009541478
46	0x3c19baf9	0.009382957
47	0xb89180bc	-6.9381174e-05
48	0x3bc78f24	0.0060900617
49	0x3c515fa9	0.012779155
50	0x3ca6d676	0.020365935
51	0xbb7c1adb	-0.0038468156
52	0x3cc760c0	0.024338126
53	0x3b2bd6ca	0.0026220554
54	0x3ab0378f	0.0013444292
55	0x3d077075	0.03306623
56	0xbacdd663	-0.0015704151
57	0xbcbed068	-0.023292735
58	0xbb89e3eb	-0.004208078
59	0x3c5d1a12	0.013494985
60	0xbbdb8b96	-0.0066999895
61	0xbc2641b8	-0.0101475045
62	0xbbd7045f	-0.0065618004
63	0x3b8a149d	0.004213883
64	0x3c27bd9a	0.010238076
65	0xbc436650	-0.011926249
66	0xbc3024ca	-0.010750959
67	0xbb9e8df6	-0.0048387004
68	0x3cca0906	0.024662506
69	0xbc56e284	-0.013115529
70	0xbaff7411	-0.0019489547
71	0x3a933c22	0.0011233131
72	0xbc07f382	-0.008297803
73	0xbc9acdc5	-0.018896947
74	0x3c20d448	0.009816237
75	0x3b828b18	0.0039838664
76	0xbc92a526	-0.017901015
77	0xbc911163	-0.017708486
78	0x3c6838c2	0.014173688
79	0xbbcd56c8	-0.0062664486
80	0xba15bb56	-0.0005711814
81	0x3c078762	0.008272024
82	0x3caa6bcc	0.020803355
83	0xbb9a4f3b	-0.004709152
84	0x3c40d92d	0.011770529
85	0xbc3feb52	-0.01171382
86	0x3c43d04e	0.011951519
87	0x3c09bc39	0.008406692
88	0x3ca0c006	0.019622814
89	0x3cad3c23	0.02114684
90	0xbc4d00b9	-0.012512379
91	0xbc8b4d2d	-0.017004574
92	0x3c1b0761	0.0094622085
93	0xbbb3499f	-0.005471423
94	0x3b7d8521	0.0038684087
95	0x3c946dc4	0.018118747
96	0xbc0698d3	-0.008215147
97	0x3c33c50a	0.010972271
98	0x3cd578ae	0.026058521
99	0xbc19aaa3	-0.009379062
100	0xbbfc6d8c	-0.0077034887
101	0xbc8b7810	-0.017025024
102	0xbb23828a	-0.0024949634
103	0xb98fad12	-0.00027404033
104	0xbc7651b4	-0.015034128
105	0xbc3d19c3	-0.011541787
106	0xbbb8cdb5	-0.0056397566
107	0xbb3c216e	-0.002870645
108	0x3b0b7931	0.0021281953
109	0xbc6e59a2	-0.014547737
110	0x3a816e45	0.0009874782
111	0xbb2d51d9	-0.002644649
112	0xbad09a7d	-0.0015915182
113	0x3bed5998	0.0072433464
114	0x3b707bf3	0.0036694973
115	0x3c259f49	0.010108777
116	0x3cd1ee53	0.025626337
117	0xbcd71e14	-0.02625946
118	0x3c0b0d60	0.008487076
119	0xbb3d0ce6	-0.00288468
120	0xbcbc3532	-0.022974584
121	0x3bf52290	0.007480927
122	0x398c28eb	0.00026733367
123	0x3c97eef5	0.01854656
124	0xbc843967	-0.016140653
125	0x3c39700c	0.011318218
126	0xbbce152b	-0.0062891445
127	0x3c78f859	0.015195929
128	0xbc162418	-0.009163879
129	0x3c14979a	0.009069348
130	0xbb7a8e45	-0.0038231772
131	0x3ca0c0c0	0.01962316
132	0x3c87aee7	0.016562892
133	0xbbe52821	-0.006993309
134	0xbc36f041	-0.011165679
135	0x3c833346	0.01601566
136	0xbc947fd3	-0.018127358
137	0x3c933ad6	0.017972391
138	0xbb6b3457	-0.0035889351
139	0xba9b8b1e	-0.0011867022
140	0x3c64e076	0.013969531
141	0xba44ece9	-0.0007512109
142	0xbc3e1321	-0.01160124
143	0x3c99c4ca	0.018770594
144	0x3acac115	0.001546892
145	0x3c905593	0.01761893
146	0x3cb987a7	0.022647692
147	0x3b857a73	0.004073435
148	0xbba5a1f9	-0.005054709
149	0xbb96f585	-0.004606905
150	0xbc570953	-0.013124782
151	0xbc1c811d	-0.009552267
152	0xbbb6a0bf	-0.0055733616
153	0xb88db7fe	-6.757675e-05
154	0xbba3efc7	-0.005002949
155	0x3ba1d3b6	0.004938568
156	0xbb63c093	-0.0034752234
157	0x3cb8c5a5	0.022555182
158	0xbcf5b885	-0.029995212
159	0x3b13ec6c	0.0022571338
160	0xbc5de19c	-0.013542559
161	0xbbea626e	-0.007152847
162	0x3c72eca8	0.014826931
163	0x3b0a97b8	0.002114756
164	0xbccd5768	-0.025066093
165	0x3a9b7230	0.0011859592
166	0xbb84e2fa	-0.004055378
167	0x3b32ede4	0.0027302438
168	0x3cb20004	0.021728523
169	0x3cac703e	0.021049615
170	0x3beb8ec0	0.007188648
171	0x3bb6c852	0.0055780793
172	0x3c88b2f9	0.016686903
173	0x3c918744	0.017764695
174	0x3c89713f	0.016777633
175	0x3bd3e616	0.0064666374
176	0xbb51b51b	-0.0031998816
177	0x3c33770f	0.010953679
178	0x3c758e0d	0.014987481
179	0x3c596ded	0.013270837
180	0xbbb04cb1	-0.005380236
181	0x3a3240d0	0.0006799819
182	0xbc276905	-0.01021791
183	0xbcebca16	-0.028782886
184	0x3d2248f3	0.03962035
185	0x3ce4c4bb	0.02792584
186	0xbc437ab6	-0.011931112
187	0xbcb38694	-0.021914758
188	0x39c12ad3	0.00036843735
189	0x3b709ac6	0.0036713346
190	0xbc2c959b	-0.010533716
191	0xbcae4483	-0.021272903
192	0xbc946a55	-0.01811711
193	0xbc78e644	-0.015191618
194	0x3a059990	0.000509643
195	0x3ba4bb51	0.0050272127
196	0xbc9e8be8	-0.019353822
197	0x3c13fc75	0.009032358
198	0x3a3e3156	0.00072552764
199	0xbcb40baf	-0.021978227
200	0x3cd8708d	0.026420856
201	0xbbafc967	-0.005364585
202	0x3b05fd4f	0.0020445173
203	0xbbf4ff1f	-0.007476702
204	0x3c9009a1	0.017582716
205	0x3c0cc543	0.008591953
206	0xbca9043a	-0.020631898
207	0xbc433e9e	-0.011916785
208	0x3cd2a8c5	0.025715241
209	0x3bbf4b05	0.0058378004
210	0xbba71b37	-0.00509968
211	0xba1073ca	-0.0005510418
212	0x3cb62eb2	0.022239063
213	0xbb5dff9a	-0.0033874274
214	0x3c8d3796	0.01723842
215	0x3c797577	0.01522576
216	0x3cb8079c	0.022464566
217	0x3c2b7246	0.010464257
218	0x3c80cfa2	0.015724007
219	0x3ca4b7ad	0.020107115
220	0xbce602fc	-0.028077595
221	0xbce57073	-0.028007722
222	0xbc9cbce8	-0.019133046
223	0xbc5b24b5	-0.013375451
224	0x3c426bb5	0.0118665
225	0x3cbd154d	0.023081446
226	0x3cc1ad53	0.023642218
227	0x3c26c597	0.010178945
228	0xbc8a7415	-0.016901055
229	0xbc720a57	-0.014772973
230	0x3c392671	0.011300669
231	0xbc91fc54	-0.017820515
232	0xbc6ddfe0	-0.014518708
233	0x3bb086b5	0.005387152
234	0x3cbbba9f	0.022916136
235	0xbc7d6c8b	-0.015467773
236	0x3b94ade6	0.004537332
237	0x3a96a83f	0.0011494233
238	0x3b2a1c2b	0.002595673
239	0xbbcdfe27	-0.006286401
240	0xbc089514	-0.008336324
241	0xbab9313a	-0.001412905
242	0x3bb6eaf0	0.005582206
243	0x3ca6c671	0.020358296
244	0x3c495ca2	0.012290152
245	0xbc63e7bb	-0.013910229
246	0x3a942c03	0.001130462
247	0x3c708e9a	0.014682436
248	0x3c214b86	0.009844666
249	0x3c90c6d9	0.017672943
250	0x3c6a7145	0.014309232
251	0x3c5d5163	0.013508174
252	0xbaf8663c	-0.0018951367
253	0x3b0cac00	0.0021464825
254	0xba3e71ea	-0.00072648993
255	0xbc0f9bc6	-0.008765167

model.backbone.W_P.weight f4 [16, 16]
0	0xbe4ef8c3	-0.20212083
1	0xbbb695f2	-0.005572074
2	0x3dfdd6a6	0.123944566
3	0x3de7ebc8	0.113242686
4	0x3cd30280	0.025758028
5	0xbe2a2680	-0.16616249
6	0xbe666815	-0.22500642
7	0x3e471e8e	0.1944525
8	0xbe106099	-0.14099349
9	0xbe6f345c	-0.23359817
10	0x3defda06	0.117115065
11	0xbe888761	-0.26665786
12	0x3e1e4c0a	0.15458694
13	0xbe3eff69	-0.18652119
14	0x3dc0cd5d	0.0941417
15	0xbdd84da6	-0.10561685
16	0x3d08ec0a	0.03342823
17	0xbd92e4ac	-0.07172522
18	0x3e343bc5	0.17600925
19	0x3e1d42ba	0.15357485
20	0x3e2e27a4	0.17007309
21	0xbd95b099	-0.07309074
22	0x3e88478e	0.26617092
23	0x3cb507b1	0.022098394
24	0xbd6f068a	-0.058355846
25	0xbe5729c9	-0.21012034
26	0x3e2e59b4	0.17026407
27	0xbe5b9a74	-0.21445638
28	0xbe1d3b0f	-0.1535456
29	0xbd9a9a23	-0.075489305
30	0x3db1f925	0.08690099
31	0x3dab6fbe	0.083709225
32	0x3e0f67cb	0.14004438
33	0xbbbae390	-0.005703397
34	0x3dd9db92	0.10637583
35	0x3e24a4c5	0.1607848
36	0xbe6356d3	-0.2220109
37	0xbe4adb52	-0.19810227
38	0xbe6f9668	-0.23397219
39	0xbe29d037	-0.16583334
40	0x3e0fa0cf	0.14026187
41	0x3e777780	0.2416668
42	0x3ddfae57	0.109219246
43	0xbe2a7753	-0.16647081
44	0x3e15a73e	0.14614579
45	0x3e2796bc	0.16366094
46	0x3e79b50c	0.2438547
47	0xbe46c8fb	-0.19412605
48	0xbd659391	-0.056048933
49	0xbdef585e	-0.116867766
50	0x3e6e84d6	0.2329286
51	0x3e2b7c03	0.16746525
52	0x3cb5ad71	0.02217743
53	0x3c224672	0.009904491
54	0x3dce8f58	0.100859344
55	0xbe48bf62	-0.19604257
56	0xbcbf5daf	-0.023360102
57	0xbe299507	-0.16560756
58	0x3dc459d0	0.09587443
59	0x3daf0ffc	0.08547971
60	0xbe37fb78	-0.17967021
61	0x3ca5c768	0.020236686
62	0x3e0b69e3	0.13614611
63	0x3e1e7cd3	0.15477304
64	0x3e5fdf23	0.21862464
65	0xbe6f2c44	-0.2335673
66	0xbda636e0	-0.08115935
67	0xbddfdefd	-0.109312035
68	0xbe6c0424	-0.23048455
69	0xbe60a999	-0.21939696
70	0xbe0dd937	-0.13852392
71	0x3df0eb93	0.11763682
72	0xbe549448	-0.2075969
73	0xbe059a0b	-0.13047044
74	0xbe4b235c	-0.19837707
75	0xbe601436	-0.2188271
76	0x3e6a7ad5	0.22898419
77	0xbcda80b9	-0.026672708
78	0xbdc4e47a	-0.09613891
79	0x3e5eee35	0.21770556
80	0xbe1899ef	-0.14902471
81	0xbdee6676	-0.116406366
82	0xbdc8183d	-0.09770248
83	0xbe4d0055	-0.20019658
84	0xbe1a92e8	-0.15095103
85	0xbda591ce	-0.08084451
86	0xb9a4fc5a	-0.00031468534
87	0xbe31d6c7	-0.17367087
88	0xbcfe69b7	-0.031056268
89	0x3e53d736	0.20687565
90	0xbd0119b1	-0.03151864
91	0xbd880c1b	-0.06642934
92	0xbe8ceb61	-0.2752333
93	0xbe57801f	-0.21044968
94	0x3dc91c49	0.09819848
95	0x3dfabcae	0.12243019
96	0xbe62d591	-0.22151782
97	0x3d7b880d	0.061409045
98	0x3d435b39	0.04769442
99	0xbdbf5c3d	-0.09343765
100	0x3e5a8540	0.21339893
101	0x3d57b46f	0.05266231
102	0xbe39afef	-0.1813352
103	0x3e5d8cb7	0.2163571
104	0x3e08bb20	0.13352633
105	0xbdc4559d	-0.09586642
106	0x3d5ce00f	0.053924616
107	0x3e6101b0	0.219733
108	0x3e473795	0.19454797
109	0x3ddda238	0.108219564
110	0x3d91f758	0.07127255
111	0xbbe1dca3	-0.006892757
112	0x3d111cf6	0.03542801
113	0xbe2ff9fd	-0.17185207
114	0x3ce10b59	0.027471231
115	0xbe4ef664	-0.20211178
116	0x3e251114	0.16119796
117	0xbe1a82de	-0.15088984
118	0xbe142ab9	-0.14469422
119	0x3e3752a1	0.17902614
120	0xbdb879e6	-0.09007625
121	0xbe2bf269	-0.16791691
122	0xbe54eef6	-0.20794281
123	0x3de90b21	0.11379076
124	0xbe342bcc	-0.17594832
125	0x3e6fd6da	0.23421803
126	0x3debd99a	0.115161136
127	0x3e89987d	0.26874152
128	0xbd74ee8b	-0.059797805
129	0xbe485ae7	-0.19565926
130	0xbcd1f03c	-0.025627248
131	0x3e30b87a	0.17257872
132	0xbe0b834b	-0.13624303
133	0xbe80eeb3	-0.25182113
134	0x3e280fac	0.16412228
135	0x3e191790	0.14950395
136	0x3e3120e6	0.17297706
137	0x3e0ba9c9	0.13638987
138	0x3ba1aad3	0.004933694
139	0xbe595411	-0.21223475
140	0xbe598fd9	-0.2124628
141	0xbe1a7a1a	-0.1508564
142	0xbe43adb0	-0.19109225
143	0xbe7776ce	-0.24166414
144	0x3e381953	0.1797841
145	0x3e2e52e2	0.17023805
146	0xbe2ea374	-0.1705454
147	0xbd0471e2	-0.03233517
148	0x3e5599d6	0.20859465
149	0x3dcd0910	0.10011494
150	0xbd7e5cfe	-0.062100403
151	0xbda5a91a	-0.08088894
152	0x3dc5fa2a	0.09666856
153	0xbdf685c0	-0.120372295
154	0xbe6148db	-0.22000448
155	0xbddb0ef1	-0.10696209
156	0x3df2faa5	0.11864213
157	0xbe00adc9	-0.12566294
158	0xbe51424a	-0.20435444
159	0xbe0be91d	-0.13663144
160	0xbdcd23ea	-0.10016616
161	0xbe3e95a5	-0.18611772
162	0xbc06988c	-0.008215081
163	0x3e00a8ed	0.1256444
164	0x3e69583f	0.2278757
165	0x3d8b01fd	0.067874886
166	0x3e28f450	0.16499448
167	0x3d9a7927	0.07542639
168	0xbd844ec9	-0.064603396
169	0xbe3da814	-0.18521148
170	0xbd8bc20d	-0.068241216
171	0x3df123b8	0.11774391
172	0x3d88c401	0.0667801
173	0xbd44c8dd	-0.04804312
174	0x3c395011	0.011310593
175	0x3de90b34	0.1137909
176	0xbca63d8a	-0.020293016
177	0x3e4ccb7d	0.199995
178	0xbe036c05	-0.12834175
179	0x3d742897	0.059609022
180	0x3e14170c	0.14461917
181	0x3e5232e5	0.20527227
182	0x3d181c12	0.037136145
183	0x3c8c2a8e	0.017110135
184	0x3e543dd4	0.2072671
185	0xbe35c416	-0.17750582
186	0xbdf5ceaf	-0.120023124
187	0xbe0641c4	-0.13111025
188	0x3e86c18e	0.26319546
189	0x3d387b94	0.04503973
190	0xbe33588f	-0.17514251
191	0x3d3172d3	0.043322396
192	0xbe58ce1f	-0.21172379
193	0x3e0ffdec	0.14061707
194	0x3e3a6b36	0.1820496
195	0x3db32196	0.087466404
196	0xbd0653a6	-0.032794617
197	0xbdfba8c5	-0.122880496
198	0x3e60098c	0.21878642
199	0xbc1ff03c	-0.009761866
200	0x3e0b947d	0.13630863
201	0x3c9de279	0.01927303
202	0x3e7964b9	0.24354829
203	0xbc3d7f2b	-0.011565964
204	0x3e190cbb	0.14946263
205	0xbe4d0661	-0.20021965
206	0xbe5eb934	-0.21750337
207	0x3cbd0f1e	0.023078497
208	0x3e591681	0.21199991
209	0xbe174236	-0.14771351
210	0x3e2c9f10	0.16857553
211	0x3d13edf3	0.036115598
212	0xbe562eed	-0.20916338
213	0xbe14a36b	-0.14515464
214	0xbd19ec70	-0.037579
215	0x3d261c73	0.040554475
216	0x3de5badc	0.11217281
217	0x3e6dce12	0.23223141
218	0x3e75e889	0.24014486
219	0xbe3a1836	-0.18173298
220	0x3e1f782e	0.15573189
221	0xbd540b2c	-0.051768467
222	0x3c08c8ba	0.008348638
223	0x3e8b2c8b	0.2718242
224	0xbcea5298	-0.028603837
225	0xbdb0b799	-0.086287685
226	0x3e15731b	0.1459469
227	0x3c604ce9	0.013690212
228	0x3dacf5dc	0.084453315
229	0x3ccda805	0.025104532
230	0x3e555031	0.20831372
231	0x3e4d5533	0.20052032
232	0x3dbda9bb	0.09260889
233	0x3d3ea83f	0.04654717
234	0x3dcc0af1	0.099630244
235	0xbd94b6f5	-0.07261459
236	0x3e226a35	0.15860827
237	0x3e615381	0.2200451
238	0x3e6b127a	0.22956267
239	0xbdc26479	-0.0949182
240	0xbdf3f50b	-0.119119726
241	0x3e391bb4	0.18076974
242	0x3e2e87ce	0.17043993
243	0x3df3af23	0.11898639
244	0x3e26cd40	0.16289234
245	0x3e5633e9	0.2091824
246	0xbe0379f2	-0.12839487
247	0xbe4334b5	-0.19063075
248	0xbc98cacc	-0.018651389
249	0x3e15499d	0.14578862
250	0xbe081109	-0.13287748
251	0xbe36b8ec	-0.1784398
252	0xbe886636	-0.2664048
253	0x3cbb07d2	0.022830877
254	0x3c651062	0.013980957
255	0xbe279ec1	-0.16369154

model.backbone.W_P.bias f4 [16]
0	0x3d88781f	0.06663536
1	0xbc0a9580	-0.008458495
2	0xbe23b6c0	-0.15987682
3	0x3a793def	0.0009507825
4	0xbe56e6e7	-0.2098652
5	0x3e4ab05a	0.19793835
6	0xbe41f3a3	-0.18940596
7	0x3d62b276	0.055345975
8	0xbe0a97fb	-0.13534538
9	0xbe15a444	-0.14613444
10	0x3db41da9	0.0879472
11	0x3d96efa5	0.07369927
12	0x3e3cdd18	0.18443716
13	0x3e293a4c	0.16526145
14	0xbdd1a5c6	-0.10236697
15	0xbd13a95d	-0.03605019

model.backbone.encoder.layers.0.self_attn.W_Q.weight f4 [16, 16]
0	0xbe4c47fc	-0.19949335
1	0xbb86b7d5	-0.00411127
2	0xbe2786ed	-0.16360064
3	0xbe550bd1	-0.20805289
4	0xbd90988f	-0.07060348
5	0xbdd50276	-0.1040086
6	0x3e38adee	0.18035099
7	0xbe2dc4ac	-0.16969556
8	0x3d3fd10f	0.046830233
9	0xbe22899b	-0.15872805
10	0xbe15764f	-0.14595912
11	0xbe536820	-0.2064519
12	0x3de4ba86	0.11168389
13	0x3d4bbe7c	0.049742207
14	0xbd26491d	-0.04059707
15	0xbe7228c7	-0.23648368
16	0x3e729c9a	0.23692551
17	0xbd1676d8	-0.036734432
18	0xbe596b07	-0.21232234
19	0x3e340719	0.17580833
20	0xbe485a93	-0.19565801
21	0x3ddea1eb	0.10870727
22	0x3df75c61	0.12078167
23	0x3e236e9b	0.15960161
24	0x3e6f74ce	0.23384401
25	0xbe21ef7e	-0.15814015
26	0xbe8dae7f	-0.27672192
27	0x3e3c7aaf	0.18406175
28	0x3d0a93c7	0.033832338
29	0x3d98a774	0.07453814
30	0x3d9efeab	0.07763418
31	0xbde8ea6f	-0.1137284
32	0x3e1b57ec	0.15170258
33	0x3d7ae4e3	0.06125344
34	0x3db8bd88	0.09020525
35	0xbdfc7b8c	-0.12328252
36	0xbe2ec246	-0.17066297
37	0xbd4e6caa	-0.0503966
38	0xbe3a7707	-0.18209468
39	0xbc4d86d2	-0.012544351
40	0xbb47da94	-0.0030495273
41	0xbe260cc2	-0.16215804
42	0xbd3d085e	-0.046150558
43	0x3e1298dd	0.14316125
44	0xbe4506c8	-0.19240868
45	0x3d95bed8	0.07311791
46	0x3e4dc078	0.20092952
47	0x3e0fb313	0.14033155
48	0xbe22ad65	-0.15886457
49	0x3d493a17	0.049127664
50	0x3ca7d6be	0.02048814
51	0xbd51daa6	-0.05123391
52	0x3df1956d	0.11796079
53	0x3d07d5d2	0.0331629
54	0xbe0bd6a9	-0.13656105
55	0x3e64ddd1	0.22350241
56	0xbdf67ca5	-0.12035493
57	0x3ddc8f36	0.10769503
58	0x3da9b27d	0.08285997
59	0x3e131330	0.14362788
60	0xbd69d072	-0.057083555
61	0xbe0bd8a7	-0.13656865
62	0x3dff5d56	0.12468974
63	0x3e707431	0.23481824
64	0xbe51b6e5	-0.20479925
65	0xbd434036	-0.04766866
66	0x3e47a8e0	0.19498014
67	0x3d8de1f3	0.06927862
68	0x3dd84c80	0.10561466
69	0xbda7d170	-0.08194244
70	0x3e106302	0.14100268
71	0x3cf95821	0.030437531
72	0xbe4b1a6b	-0.19834296
73	0x3e6b2cda	0.22966328
74	0xbe5062f5	-0.20350249
75	0x3e4c508e	0.19952604
76	0xbe23b1cb	-0.15985791
77	0x3e84b512	0.25919396
78	0x3e033ed9	0.12816943
79	0x3e5b99ac	0.2144534
80	0x3e269f60	0.16271734
81	0x3d35e5dc	0.044408664
82	0x3e4ecb26	0.20194682
83	0xbe060e39	-0.13091363
84	0xbe4a4c43	-0.19755654
85	0xbe7fa595	-0.24965508
86	0xbdd3f197	-0.10348814
87	0x3df42dec	0.119228214
88	0x3dc8c785	0.0980368
89	0xbe722f9a	-0.23650971
90	0xbe317ef5	-0.17333587
91	0x3e48c200	0.19605255
92	0x3e67d3e2	0.2263942
93	0x3e2573a6	0.16157398
94	0x3d9dc34e	0.07703267
95	0xbdd8683c	-0.10566756
96	0x3acd4a4a	0.0015662399
97	0x3e3e6e41	0.18596746
98	0xbe5429dc	-0.20719093
99	0xbd939ffc	-0.07208249
100	0x3cb23d38	0.021757707
101	0xbe810a06	-0.2520296
102	0x3ae16765	0.0017196952
103	0x3ceba50c	0.028765224
104	0x3d689a7a	0.056787945
105	0xbde721ff	-0.11285781
106	0x3e2afdb5	0.16698344
107	0xbe4499cd	-0.19199295
108	0xbe73ac3e	-0.23796174
109	0x3da42088	0.08014017
110	0x3e2c4501	0.16823198
111	0xbc9aa576	-0.018877726
112	0x3e38acbf	0.18034647
113	0x3de316c1	0.11088324
114	0x3e2196d2	0.1578019
115	0xbd65b70b	-0.056082767
116	0x3e29c61d	0.1657948
117	0xbe3c8671	-0.1841066
118	0xbe052dec	-0.13005799
119	0xbde6a22e	-0.11261402
120	0x3e13f80e	0.14450094
121	0x3e464555	0.19362386
122	0xbe140240	-0.14453983
123	0x3de1b504	0.11020854
124	0xbe11d226	-0.14240322
125	0x3d1bfd41	0.03808332
126	0x3e29490a	0.16531768
127	0x3d9cd6ba	0.07658143
128	0xbd52ba4d	-0.0514472
129	0x3bf32044	0.007419618
130	0xbbd7512f	-0.006570957
131	0xbe49afaa	-0.19695917
132	0x3bfb06c3	0.007660718
133	0xbd3c4bc6	-0.0459707
134	0x3e8f685a	0.280093
135	0xbe364ec1	-0.1780348
136	0x3e450b22	0.19242528
137	0x3e58c51b	0.2116894
138	0xbe3d97eb	-0.18514983
139	0xbcb205cd	-0.021731282
140	0x3dd2d9f3	0.10295477
141	0x3e03f66c	0.12886971
142	0xbd7e5641	-0.062093977
143	0xbe3be4e8	-0.1834904
144	0xbdf320ad	-0.11871467
145	0xbdb934b0	-0.090432525
146	0x3dc61dee	0.096736774
147	0xbd824015	-0.06359879
148	0x3e00316c	0.12518853
149	0xbc0bd55e	-0.008534757
150	0x3d0a9ce5	0.033841033
151	0x3d9e6923	0.07734897
152	0xbe487b97	-0.19578396
153	0xbdf5205e	-0.11969064
154	0xbe8263d0	-0.25466776
155	0xbdce0ee9	-0.10061438
156	0xbe160dd5	-0.14653714
157	0xbe6d7810	-0.23190331
158	0x3e562728	0.20913374
159	0xbdb8f859	-0.090317436
160	0x3bacc53a	0.0052725347
161	0xbe1c50ed	-0.15265246
162	0x3c1231f0	0.008923039
163	0xbe5bdddd	-0.21471353
164	0xbd8463d8	-0.06464356
165	0xbd6b007e	-0.057373516
166	0x3d4fc226	0.050722264
167	0x3cd31228	0.025765494
168	0x3e28107a	0.16412535
169	0x3d01561e	0.03157627
170	0xbdf00283	-0.11719229
171	0x3e6afe93	0.22948675
172	0xbdabb712	-0.08384527
173	0x3e496f47	0.19671355
174	0xbe481e10	-0.19542718
175	0xbe212c72	-0.15739611
176	0xbe537248	-0.20649064
177	0xbe237ed2	-0.15966347
178	0x3bd8cdee	0.0066163456
179	0x3e4b83a9	0.19874443
180	0xbe57967b	-0.21053497
181	0x3d5a06f3	0.053229284
182	0x3e3be4fd	0.18349071
183	0x3e7c702a	0.24652162
184	0x3db68362	0.08911778
185	0xbda30dd6	-0.07961623
186	0xbe5de918	-0.2167095
187	0x3d099f82	0.033599384
188	0x3dcb15c4	0.09916261
189	0x3c1f63fd	0.009728429
190	0x3df53dac	0.119746536
191	0x3e512b25	0.20426615
192	0xbd7ce779	-0.061744187
193	0xbe176e97	-0.1478828
194	0xbca13b56	-0.019681614
195	0xbd227d97	-0.039670553
196	0x3e1897e7	0.14901696
197	0x3da71e56	0.08160083
198	0x3b49391d	0.0030704208
199	0x3e09a5bd	0.1344213
200	0xbe863131	-0.26209405
201	0xbe20229e	-0.15638205
202	0xbabaa2bd	-0.0014239174
203	0x3d6dd9f7	0.058069196
204	0x3e41f9e7	0.18942986
205	0x3c45fa1d	0.012083557
206	0xbe0c219e	-0.13684699
207	0xbd62f4ed	-0.05540936
208	0xbe3b96c0	-0.18319225
209	0xbdf9b53f	-0.12192773
210	0xbdf847dd	-0.12123082
211	0x3e15315f	0.14569615
212	0x3e55e314	0.20887405
213	0x3d21bffa	0.039489724
214	0xbe22070f	-0.15823005
215	0xbe796110	-0.24353433
216	0xbddea4b8	-0.10871261
217	0xbe4f2507	-0.20228969
218	0xbe05fe9d	-0.13085409
219	0xbe31c798	-0.17361295
220	0x3d86ba27	0.065784745
221	0x3d177214	0.036974028
222	0xbc2556eb	-0.010091524
223	0xbb1dd8c7	-0.0024085508
224	0x3d7be0bc	0.06149362
225	0x3d78af7c	0.06071423
226	0x3c413663	0.011792752
227	0xbd5bf659	-0.053701732
228	0xbc2ceefb	-0.010555024
229	0xbe6140c8	-0.21997368
230	0xbe4a3476	-0.19746575
231	0xbe12ea47	-0.14347182
232	0x3e3e7ad2	0.1860154
233	0x3e4081b1	0.18799473
234	0xbe3aef9b	-0.18255465
235	0x3dd76fac	0.105193466
236	0x3bc4fd45	0.0060116374
237	0x3d7841e8	0.060609728
238	0xbe592f8b	-0.21209542
239	0xbe462cfb	-0.19353096
240	0xbe272d93	-0.16325979
241	0x3dda4e55	0.10659472
242	0x3d82d8e3	0.06389024
243	0xbc53b648	-0.012921877
244	0xbdbbc18a	-0.09167774
245	0xbce28018	-0.02764897
246	0xbdc67e83	-0.09692099
247	0x3da57f7d	0.08080957
248	0x3d2a3897	0.041557875
249	0xbdb2df39	-0.087339826
250	0x3dc6264a	0.09675272
251	0xbced0f6d	-0.02893802
252	0x3d71199c	0.058862314
253	0x3dc44a64	0.095845014
254	0x3e6ff115	0.23431809
255	0x3dda2133	0.106508635

model.backbone.encoder.layers.0.self_attn.W_Q.bias f4 [16]
0	0xbe850f22	-0.25988108
1	0x3b967f82	0.004592837
2	0xbd6968ae	-0.056984596
3	0xbe48f52f	-0.1962478
4	0xbe5f6f40	-0.21819782
5	0x3e46a006	0.19396982
6	0xbe5357b9	-0.20638932
7	0x3e2a65a8	0.16640341
8	0x3e01817d	0.12647052
9	0xbd98ada0	-0.07454991
10	0xbe150538	-0.14552772
11	0x3dc4b0e9	0.096040554
12	0x3da6b114	0.08139244
13	0xbb5c6f70	-0.0033635758
14	0xbd01783a	-0.031608798
15	0xbe07c2ae	-0.13257858

model.backbone.encoder.layers.0.self_attn.W_K.weight f4 [16, 16]
0	0x3c3db841	0.011579574
1	0xbe6f64bb	-0.2337827
2	0xbd31bd6b	-0.043393534
3	0xbe174205	-0.14771278
4	0xbe37ea34	-0.17960435
5	0x3d9cf998	0.07664794
6	0xbe349ae1	-0.17637207
7	0xbda69eae	-0.081357345
8	0x3dbd7054	0.092499405
9	0x3e032574	0.12807256
10	0xbc92cb78	-0.017919287
11	0xbe7870b9	-0.2426175
12	0x3c79e56a	0.0152524505
13	0xbe2bbdc9	-0.16771616
14	0xbe41daad	-0.18931074
15	0x3df4677d	0.11933801
16	0x3e61739f	0.22016762
17	0x3e236be8	0.15959132
18	0xbe52c7fa	-0.20584098
19	0xbe0ac24c	-0.13550681
20	0xbe2433be	-0.16035363
21	0x3e23678e	0.15957472
22	0x3e622a1e	0.22086379
23	0xbe424aaf	-0.18973802
24	0xbe16006b	-0.14648597
25	0x3e836d52	0.25669342
26	0x3ddbdc55	0.107353844
27	0xbc467f0b	-0.01211525
28	0x3e4363b1	0.19080998
29	0x3e2de4fa	0.16981879
30	0xbe4ebf54	-0.20190173
31	0xbe29e416	-0.16590914
32	0x3d2293de	0.0396918
33	0x3e2825a6	0.16420612
34	0x3cfcf925	0.03088052
35	0xbcb0d9f5	-0.021588305
36	0x3e202c40	0.1564188
37	0xbe36830e	-0.17823431
38	0xbe3e982e	-0.1861274
39	0x3e0698b3	0.13144188
40	0xbde144b4	-0.10999432
41	0xbe870956	-0.2637431
42	0xbe276590	-0.16347337
43	0xbdc1f407	-0.09470373
44	0xbc8e68af	-0.017383901
45	0x3c9965c9	0.018725293
46	0xbe3639f8	-0.17795551
47	0x3e439264	0.19098812
48	0x3e102b55	0.1407903
49	0x3e5a8320	0.21339083
50	0xbe3ff05f	-0.18744038
51	0x3e6f00e7	0.23340188
52	0x3d3f6f0a	0.046736754
53	0xbe142e25	-0.14470728
54	0x3c0ab495	0.008465906
55	0x3e1e7733	0.15475158
56	0xbdae323c	-0.08505675
57	0x3e3d8a3f	0.18509768
58	0xbe172ed7	-0.14763962
59	0xbe68b06f	-0.22723554
60	0x3e62d13f	0.22150134
61	0xbd932c4c	-0.07186183
62	0xbe580d73	-0.2109888
63	0x3e16bcba	0.14720431
64	0x3e2b9ec2	0.1675978
65	0xbdcb3688	-0.099225104
66	0x3e7449c0	0.23856258
67	0xbe5c0c2a	-0.21489015
68	0x3e39968c	0.18123835
69	0x3d66e9de	0.056375377
70	0x3e5eeaba	0.21769229
71	0xbde11895	-0.10991017
72	0xbd1dce11	-0.0385266
73	0xbe893672	-0.2679935
74	0xbe7f3b02	-0.24924853
75	0xbbc1b105	-0.005910995
76	0x3e09acc0	0.13444805
77	0x3e00a967	0.12564622
78	0xbe21b57c	-0.15791887
79	0xbc8c92e8	-0.017159894
80	0xbdb7b386	-0.08969788
81	0xbbf6742d	-0.0075211735
82	0xbdf5602e	-0.119812354
83	0xbd8a0a7e	-0.067402825
84	0x3dfc0f1b	0.12307569
85	0x3e16f14e	0.14740488
86	0xbafb1c7e	-0.0019158272
87	0x3dd1619a	0.10223694
88	0x3e143cb8	0.14476287
89	0xbe4b0083	-0.19824414
90	0xbe068962	-0.13138345
91	0x3cd35f2c	0.025802217
92	0xbe1ababd	-0.15110298
93	0xbe2b6238	-0.16736686
94	0xbb36cac4	-0.0027891854
95	0x3d2a6549	0.0416005
96	0x3e657869	0.22409214
97	0xbe66ff69	-0.22558369
98	0xbdb02314	-0.086004406
99	0x3d561e7e	0.052275173
100	0x3e342219	0.17591132
101	0xbe49b68d	-0.19698544
102	0x3d9e3b77	0.07726186
103	0x3e76a826	0.24087581
104	0x3d9aa5a2	0.07551123
105	0x3d757a52	0.059931107
106	0x3d5404a1	0.051762227
107	0xbde7be1c	-0.11315557
108	0x3d9769d6	0.073932335
109	0x3d9a1f3b	0.07525488
110	0xbcdb63a3	-0.026780909
111	0xbdbf51c6	-0.09341769
112	0x3df9f764	0.12205389
113	0x3e006648	0.12539017
114	0xbe62d295	-0.22150643
115	0x3c598577	0.013276449
116	0xbe3c02df	-0.1836047
117	0xbd961b14	-0.073293835
118	0x3dcd6358	0.10028714
119	0xbc2fdc95	-0.010733743
120	0x3e43ccf0	0.19121146
121	0x3e1ba439	0.15199365
122	0xbc53f09e	-0.012935786
123	0x3e61cd0f	0.2205088
124	0xbdbebb10	-0.09313023
125	0x3d0848ba	0.033272482
126	0xbdab87c5	-0.08375505
127	0x3d95ea81	0.07320119
128	0xbe658f69	-0.22417988
129	0xbe201eb6	-0.15636715
130	0xbe38145c	-0.17976516
131	0x3e1c252f	0.1524856
132	0x3d2d71c3	0.04234482
133	0xbe532d72	-0.20622805
134	0x3e091cc5	0.13389881
135	0x3e69c46b	0.22828834
136	0x3e52966a	0.20565191
137	0x3d427b54	0.047480896
138	0xbb06cea8	-0.0020569954
139	0xbe483a85	-0.19553573
140	0x3d3eeb15	0.04661091
141	0x3e5d402f	0.21606515
142	0xbdf0a649	-0.117504664
143	0xbe620e8e	-0.22075865
144	0xbe0efc14	-0.13963348
145	0x3d976d4c	0.073938936
146	0xbdeb27be	-0.114821896
147	0x3e2e3452	0.17012146
148	0x3dc30f54	0.09524408
149	0x3ddb389d	0.107041575
150	0xbda1bf0b	-0.07897767
151	0xbddb9f0b	-0.107236944
152	0xbe556d7f	-0.2084255
153	0x3cc83da1	0.02444345
154	0x3e2c35a3	0.16817336
155	0x3e2ac825	0.16677912
156	0x3e10781c	0.14108318
157	0xbe4ce5ea	-0.2000958
158	0x3e362b1d	0.17789884
159	0x3dcd10a0	0.100129366
160	0x3e65a2ef	0.22425435
161	0xbe2938e4	-0.16525608
162	0x3e4c6da3	0.19963698
163	0xbcae7b3a	-0.021298993
164	0x3dc481d3	0.095950745
165	0xbe1908b1	-0.14944722
166	0x3c1264e8	0.008935191
167	0x3e0df788	0.13863957
168	0x3c519b75	0.0127934115
169	0xbdfb4650	-0.122692704
170	0xbdd2a1a8	-0.1028474
171	0x3d3e9ba2	0.04653514
172	0xbd25ad4b	-0.04044847
173	0x3bd86441	0.006603748
174	0xbe07e140	-0.1326952
175	0x3e7d0795	0.24709924
176	0x3a72cd8f	0.0009262198
177	0xbe2b40c0	-0.16723919
178	0xbdd78168	-0.10522729
179	0xbe03a7f0	-0.12857032
180	0x3e48ab49	0.1959659
181	0xbe4a4404	-0.19752508
182	0x3e696cf0	0.22795463
183	0x3e123361	0.14277412
184	0x3d3a98c9	0.045555864
185	0x3c9da8ec	0.019245587
186	0xbe454103	-0.19263081
187	0x3de1c62a	0.11024125
188	0xbe3c5082	-0.18390086
189	0x3e6674d2	0.22505501
190	0xbe4c41cd	-0.19946976
191	0x3e2fad57	0.17155968
192	0x3e82b5f2	0.25529438
193	0x3de62a54	0.11238542
194	0xbe586fc7	-0.2113639
195	0x3e7ee935	0.24893649
196	0xbe0e7a70	-0.13913894
197	0x3ccf81c1	0.025330426
198	0x3e4c0bbd	0.19926353
199	0xbd653dce	-0.055967145
200	0x3d910ba2	0.07082297
201	0x3d0547bb	0.03253911
202	0x3e268100	0.16260147
203	0xbe18fdbd	-0.14940543
204	0x3d9d7c0d	0.076896764
205	0x3e2f0e8f	0.17095397
206	0xbda33ecd	-0.07970963
207	0x3e2037a8	0.15646231
208	0xbd46a840	-0.0485003
209	0x3e3fb21f	0.18720292
210	0xbd9f72d8	-0.077855766
211	0x3e16f72a	0.14742723
212	0x3e5102a2	0.2041116
213	0x3e2c462e	0.16823646
214	0x3e30254e	0.1720173
215	0x3e505621	0.20345356
216	0xb9f6826a	-0.00047017942
217	0x3e614ba7	0.22001515
218	0x3e61c4c4	0.22047716
219	0xbd5c5d72	-0.053800054
220	0x3e404565	0.18776472
221	0xbd364ccd	-0.044506837
222	0xbe1b569d	-0.15169759
223	0xbe6bb17f	-0.23016928
224	0xbe789e59	-0.24279155
225	0x3d743a66	0.059626006
226	0x3e4acc61	0.19804527
227	0x3cd5149f	0.02601081
228	0x3e175ef6	0.14782318
229	0xbe58f094	-0.21185523
230	0x3ce12162	0.027481738
231	0x3e071866	0.13192901
232	0xbdce4e36	-0.10073511
233	0x3dfc08fa	0.123064
234	0xbddc5509	-0.10758407
235	0x3e5a6e6a	0.21331182
236	0xbe146625	-0.1449209
237	0x3df665e8	0.12031156
238	0xbd360adc	-0.04444395
239	0x3dcbcf40	0.09951639
240	0x3e6866ac	0.22695416
241	0xbd43c8d6	-0.047798954
242	0xbe8807ac	-0.26568353
243	0xbc6c69a6	-0.014429485
244	0xbe77ce81	-0.24199869
245	0x3e1b42c1	0.15162183
246	0x3d4c8e47	0.049940374
247	0xbc0c5ac5	-0.008566563
248	0xbd41ae6f	-0.047285493
249	0xbd0b6a63	-0.034037005
250	0x3e5ed2ad	0.21760054
251	0xbd3b5d05	-0.045743007
252	0x3e3fdcdf	0.187366
253	0xbe628132	-0.22119597
254	0xbe76a790	-0.24087358
255	0xbe15df84	-0.14636046

model.backbone.encoder.layers.0.self_attn.W_K.bias f4 [16]
0	0x3e395f6c	0.18102807
1	0xbd8c3051	-0.06845153
2	0xbdcaa52f	-0.098947875
3	0x3d5ca386	0.053866886
4	0x3e61948e	0.22029325
5	0xbe0ec5fd	-0.13942714
6	0xbddd60e6	-0.108094975
7	0x3d9265ca	0.07148321
8	0x3e051fd0	0.13000417
9	0x3d201c5d	0.03908955
10	0xbe650239	-0.22364129
11	0xbe51ff4a	-0.20507541
12	0xbc4965f2	-0.012292372
13	0x3db9ebe9	0.090781994
14	0x3d2071fe	0.03917121
15	0xbe574aa6	-0.2102457

model.backbone.encoder.layers.0.self_attn.W_V.weight f4 [16, 16]
0	0x3da644a2	0.081185594
1	0xbd440106	-0.04785254
2	0x3e014f23	0.12627845
3	0xbe466f52	-0.19378403
4	0xbdacc638	-0.08436245
5	0xbd892d2d	-0.0669807
6	0x3cf8bae5	0.030362556
7	0x3d52fd8a	0.051511325
8	0xbdbed36c	-0.09317669
9	0x3dc52d43	0.096277736
10	0x3dd42339	0.10358281
11	0xbc6c354c	-0.014417004
12	0xbd02c027	-0.031921532
13	0x3e4fae84	0.20281416
14	0x3e2ee632	0.1708
15	0x3e64bee6	0.22338447
16	0xbdea0c23	-0.11428096
17	0x3e01f634	0.12691575
18	0x3dc22e67	0.09481507
19	0x3db32b54	0.087484986
20	0x3d940ee5	0.072294034
21	0xbca18fbb	-0.019721856
22	0xbb73dfe4	-0.0037212307
23	0x3e2e7df7	0.1704024
24	0xbe4567cf	-0.19277881
25	0xbe890b38	-0.26766372
26	0xbe4c868e	-0.19973204
27	0xbcf07d28	-0.029356554
28	0xbd9bcb97	-0.07607191
29	0x3e0a00b3	0.13476829
30	0x3deb1275	0.1147813
31	0x3dabe754	0.08393732
32	0x3d4ed875	0.0504994
33	0x3d395560	0.045247436
34	0xbe3c760a	-0.18404403
35	0x3d39c29d	0.045351613
36	0x3de52dc7	0.11190372
37	0x3e0c5dfc	0.13707727
38	0xbde1b283	-0.110203765
39	0x3db16806	0.08662419
40	0xbe648a2b	-0.22318332
41	0x3e4d276b	0.20034568
42	0x3e0ec36a	0.13941732
43	0xbc5d1e7e	-0.013496039
44	0xbe3f82c6	-0.1870223
45	0x3e1db8c6	0.15402517
46	0xbe4bc266	-0.19898376
47	0x3e35a276	0.17737755
48	0xbdaf08c9	-0.085465975
49	0x3dc01775	0.09379474
50	0xbe00c479	-0.12574948
51	0x3afe0f98	0.0019383309
52	0x3d42f366	0.047595404
53	0x3e3ef03a	0.18646327
54	0xbda50597	-0.08057707
55	0xbe47e749	-0.19521822
56	0xbda0d4b0	-0.07853067
57	0xbdd69e94	-0.10479465
58	0xbe1b3857	-0.1515821
59	0xbd64455f	-0.05573022
60	0xbdd69f37	-0.104795866
61	0x3e1883c6	0.14894018
62	0xbd13b9ca	-0.036065854
63	0x3dc85d40	0.09783411
64	0x3e1a3b81	0.15061761
65	0x3dd32043	0.10308888
66	0xbe28972e	-0.1646392
67	0xbd9689a9	-0.07350475
68	0xbbf09b2e	-0.0073427176
69	0xbcd75783	-0.026286846
70	0x3e6a1514	0.22859603
71	0x3e61dba2	0.2205644
72	0xbe653151	-0.22382094
73	0x3cfaf867	0.030636026
74	0xbdc48bfd	-0.09597013
75	0x3e33705c	0.1752333
76	0xbe3fb039	-0.18719567
77	0xbdc412e0	-0.095739126
78	0x3e36d8eb	0.17856185
79	0xbe083fc9	-0.13305582
80	0x3e551433	0.20808487
81	0xbe3490a6	-0.17633304
82	0x3e89515a	0.2681988
83	0x3d3b838a	0.045779742
84	0xbb7e7c21	-0.003883131
85	0x3cdda2cb	0.027055165
86	0x3dbec947	0.09315734
87	0xbe20fea1	-0.15722133
88	0x3e71e6ae	0.23623154
89	0x3e2143fc	0.1574859
90	0xbe697402	-0.2279816
91	0x3d2de9f0	0.04245943
92	0x3e7eef3d	0.2489595
93	0xbdadd97a	-0.08488746
94	0x3e46e4f3	0.19423275
95	0xbdf00c65	-0.11721114
96	0xbe7f92c4	-0.2495833
97	0xbe568f9e	-0.20953223
98	0x3e11060f	0.14162467
99	0x3e7992a7	0.2437235
100	0x3e1f5e93	0.15563421
101	0xbd3593b8	-0.04433033
102	0x3e61a739	0.22036447
103	0x3d929e2d	0.07159076
104	0xbe4b29e1	-0.19840194
105	0x3d3b461b	0.045721155
106	0xbcd43821	-0.02590567
107	0x3e026020	0.12731981
108	0x3e6cdf5c	0.2313208
109	0xbcf7a044	-0.030227788
110	0x3e14d5ed	0.14534731
111	0xbe733ed8	-0.23754442
112	0xbda45772	-0.08024491
113	0xbdff6ffa	-0.1247253
114	0x3d02ed42	0.031964548
115	0xbe2cbe90	-0.16869569
116	0x3d9190b4	0.07107678
117	0x3e22011c	0.15820736
118	0xbe3eba57	-0.1862577
119	0x3e561640	0.20906925
120	0x3dc9bd0f	0.09850513
121	0xbe0213c8	-0.12702858
122	0xbcb3436b	-0.021882733
123	0xbe3c9679	-0.18416776
124	0x3e6faec2	0.23406509
125	0xbe1d171a	-0.15340844
126	0x3e79dc4b	0.24400441
127	0xbdf33ba3	-0.11876609
128	0x3d195127	0.03743091
129	0xbdbed966	-0.09318809
130	0x3d54e116	0.05197247
131	0x3daf950a	0.08573349
132	0x3d34a733	0.044104766
133	0x3daba142	0.08380367
134	0xbdc0e7d3	-0.09419217
135	0xbdda670c	-0.10664186
136	0xbe26d676	-0.16292748
137	0xbe3d05f3	-0.184593
138	0xbde39509	-0.111124106
139	0x3b403841	0.0029330405
140	0xbd7f47aa	-0.062324204
141	0xbd619696	-0.05507525
142	0xbe27297e	-0.16324422
143	0xbd4088c5	-0.047005434
144	0x3e3d9329	0.18513168
145	0xbd839d88	-0.06426531
146	0xbe472cbe	-0.19450662
147	0x3da65d71	0.08123291
148	0xbe275495	-0.16340859
149	0xbd644fa5	-0.055740017
150	0x3d4a7b73	0.049434137
151	0x3ca1b78d	0.019740844
152	0x3e3fecfb	0.18742745
153	0x3de74422	0.11292292
154	0xbe41222a	-0.18860689
155	0x3d41af6e	0.047286443
156	0x3c74dbc1	0.014944972
157	0x3d637c59	0.05553851
158	0x3e282d29	0.16423477
159	0x3e1bcd79	0.152151
160	0xbe2996ec	-0.16561478
161	0x3e363e41	0.17797185
162	0x3dde6ffc	0.10861203
163	0xbad03983	-0.001588628
164	0x3e1c019e	0.15234992
165	0x3e15fc0b	0.14646928
166	0xbe1cfa9c	-0.15329975
167	0xbe03037a	-0.12794295
168	0x3e2c135e	0.16804263
169	0x3e66ebe5	0.22550924
170	0xbe041e95	-0.12902291
171	0xbe2dbba7	-0.16966115
172	0xbe7a8867	-0.24466096
173	0xbdb1a622	-0.086742654
174	0xb9bc57a4	-0.00035923452
175	0xbe05e718	-0.13076437
176	0xbd6a7244	-0.05723788
177	0xbd6d8bff	-0.05799484
178	0x3d3ad35d	0.045611728
179	0x3deb417f	0.11487102
180	0x3e4097c4	0.18807894
181	0x3e08f9a7	0.13376485
182	0xbe711ead	-0.23546858
183	0x3e0d91f2	0.13825205
184	0x3d7af949	0.061272893
185	0x3e3deb54	0.18546802
186	0xbd2dd666	-0.042440794
187	0x3d10ceef	0.035353597
188	0xbe507644	-0.20357615
189	0xbd887f26	-0.06664877
190	0xbe230aec	-0.15922135
191	0xbe3119bb	-0.17294972
192	0x3dc33948	0.0953241
193	0xbdbba108	-0.09161574
194	0x3e269f6b	0.1627175
195	0x3d69cbbf	0.057079073
196	0xbe7b12f3	-0.24518947
197	0x3c35651a	0.011071468
198	0xbe3f6ec5	-0.18694599
199	0xbe6861d2	-0.22693565
200	0xbdaec29f	-0.08533215
201	0xbd0c3889	-0.034233604
202	0x3ca1b63f	0.019740222
203	0xbe262f15	-0.16228898
204	0xbe0a4e5d	-0.13506456
205	0x3d656880	0.056007862
206	0xbe3dfaad	-0.18552656
207	0xbda8ba2a	-0.08238633
208	0xbe61d22c	-0.2205283
209	0xbe69da20	-0.22837114
210	0xbd396eeb	-0.045271795
211	0x3e24681d	0.16055341
212	0xbddd45b1	-0.10804308
213	0xbd9a22c7	-0.075261645
214	0xbd895170	-0.06704986
215	0xbb2e4727	-0.0026592703
216	0xbe775989	-0.24155249
217	0xbe7952b6	-0.24347958
218	0xbe0d2ea8	-0.13787329
219	0x3b9342fa	0.004494068
220	0xbe3c631b	-0.1839718
221	0x3d177e11	0.03698546
222	0xbc4919c7	-0.012274212
223	0x3e3868ac	0.18008679
224	0x3d6345e7	0.055486586
225	0x3dbade1c	0.09124395
226	0xbdba037f	-0.09082698
227	0xbe585b4f	-0.21128581
228	0xbe2d520e	-0.16925833
229	0xbe5b46d8	-0.21413743
230	0x3e1eb37e	0.15498158
231	0xbda50af0	-0.08058727
232	0x3d3f905f	0.046768542
233	0x3e434a94	0.19071418
234	0x3e524953	0.20535783
235	0x3da2d5fd	0.07950971
236	0x3dfb2d8e	0.12264548
237	0xbe450a3d	-0.19242187
238	0xbd20aacc	-0.039225385
239	0xbe6d1bf8	-0.231552
240	0x3e4fcb6c	0.20292443
241	0xbd840583	-0.06446364
242	0x3e2a680f	0.16641258
243	0x3dcba9e5	0.09944514
244	0x3da6ea9d	0.08150218
245	0xbe582b5a	-0.21110287
246	0x3dad334f	0.08457052
247	0x3dc2e39a	0.09516068
248	0xbe8df371	-0.27724794
249	0xbe51bd84	-0.2048245
250	0xbd2b8c46	-0.041881822
251	0x3a2c0f61	0.0006563571
252	0x3e5c0437	0.21485983
253	0xbe44507c	-0.19171327
254	0xbe9523bb	-0.29128823
255	0xbd7ce812	-0.061744757

model.backbone.encoder.layers.0.self_attn.W_V.bias f4 [16]
0	0xbdff26c8	-0.12458569
1	0xbe1f5fe7	-0.15563928
2	0xbd861dd1	-0.06548656
3	0x3db895e0	0.090129614
4	0x3e4a5c99	0.19761886
5	0xbe20b935	-0.15695651
6	0xbd8c55b5	-0.06852285
7	0xbe22339d	-0.15840001
8	0xbe5b01fd	-0.21387477
9	0x3e73b7f8	0.23800647
10	0xbdeeb4f2	-0.11655606
11	0xbe79cccf	-0.24394535
12	0x3e110d9b	0.14165346
13	0xbd8d04a6	-0.06885652
14	0xbdf8c79b	-0.12147447
15	0xbdb4df83	-0.08831694

model.backbone.encoder.layers.0.self_attn.to_out.0.weight f4 [16, 16]
0	0xbe410c04	-0.1885224
1	0xbe2841be	-0.16431329
2	0xbe776fb1	-0.241637
3	0x3e0a0526	0.13478526
4	0x3e2ee1ac	0.17078274
5	0xbe44f296	-0.19233164
6	0x3d8eedd9	0.069789596
7	0x3e4a9058	0.19781625
8	0xbe1a14d9	-0.15047015
9	0xbe504f21	-0.20342685
10	0xbe8531f7	-0.26014683
11	0xbdc7c3fb	-0.09754177
12	0x3e7ec61e	0.24880263
13	0xbd5a058d	-0.05322795
14	0x3e7479fa	0.23874655
15	0x3e3bf8d3	0.18356638
16	0x3d3b1098	0.045670122
17	0x3bfe39a2	0.007758335
18	0xbb9b77d8	-0.004744511
19	0x3dd8a8b4	0.105790526
20	0xbe32bdb1	-0.17455174
21	0xbe819207	-0.25306723
22	0x3ba414b5	0.0050073513
23	0xbe0cd4a2	-0.13752988
24	0xbe56687e	-0.20938298
25	0xbc4d9793	-0.012548345
26	0x3dc9d597	0.09855192
27	0x3e036581	0.1283169
28	0x3e1f4aa6	0.1555582
29	0x3ccf229d	0.02528506
30	0xbe1820aa	-0.1485621
31	0x3e64c2a0	0.22339869
32	0x3e2e9204	0.17047888
33	0xbd9550cf	-0.07290804
34	0xbba71395	-0.00509877
35	0xbd373aaa	-0.04473368
36	0xbdaed5d0	-0.08536875
37	0x3e8bd58b	0.27311358
38	0x3e2c6854	0.16836673
39	0x3e86e5f2	0.2634731
40	0xbc819922	-0.01582009
41	0xbb707a37	-0.003669394
42	0x3ddd94c0	0.108193874
43	0xbe143bfa	-0.14476004
44	0x3e5b70b3	0.2142971
45	0xbdfed87a	-0.124436334
46	0xbd1ff062	-0.039047606
47	0xbb8990ac	-0.0041981544
48	0xbda4840f	-0.08033001
49	0xbdd01bee	-0.10161577
50	0xbd38f1ca	-0.045152463
51	0x3e1e3d95	0.15453179
52	0x3da7b0bf	0.081880085
53	0x3e187988	0.1489011
54	0x3d5d821b	0.054079156
55	0xbe73ff28	-0.23827803
56	0xbd875432	-0.06607856
57	0x3d945aa3	0.0724385
58	0xbe502408	-0.20326245
59	0xbe537c67	-0.20652924
60	0x3e88e265	0.26735225
61	0x3e1e1e36	0.15441212
62	0xbd8bf79c	-0.06834337
63	0x3e328234	0.17432481
64	0xbe0f205e	-0.13977191
65	0x3d97611e	0.073915705
66	0x3df64e91	0.12026704
67	0x3e0dcddd	0.13848062
68	0x3c84a905	0.016193876
69	0x3e1c7e02	0.15282443
70	0xbddaada5	-0.10677651
71	0xbe63c4e9	-0.22243084
72	0x3e575f10	0.21032357
73	0x3e393e9f	0.18090294
74	0x3e5ef5f4	0.21773511
75	0x3df8580c	0.121261686
76	0x3d8f3114	0.06991783
77	0x3dc822be	0.097722515
78	0xbdb73723	-0.08946063
79	0xbe766e9f	-0.24065636
80	0x3b9ea6e8	0.004841674
81	0xbe2cfea4	-0.16894013
82	0xbdd08dd7	-0.10183304
83	0x3d47480f	0.048652705
84	0xbdaae687	-0.08344751
85	0xbde06f36	-0.10958712
86	0xbd2a16e0	-0.04152572
87	0xbd18eb61	-0.03733385
88	0x3e66a0d1	0.22522284
89	0xbe46bae8	-0.19407237
90	0x3d6989b5	0.057016093
91	0x3d54c6dd	0.051947463
92	0xbdeaf3c3	-0.11472275
93	0x3d964420	0.073372126
94	0x3e840ff6	0.25793427
95	0xbe2966ed	-0.1654317
96	0xbe3eeafa	-0.18644324
97	0xbe748c4a	-0.23881641
98	0x3d138797	0.03601798
99	0xbe4c8547	-0.19972716
100	0x3e2036b7	0.15645872
101	0x3dddc093	0.10827746
102	0xbe203462	-0.15644982
103	0x3e112dc7	0.14177619
104	0xbe39618d	-0.18103619
105	0x3dd51aef	0.10405528
106	0x3e63bf22	0.2224088
107	0xbe31b64d	-0.17354698
108	0x3e32ab8c	0.17448252
109	0xbe285dc9	-0.16442026
110	0xba32d6d1	-0.0006822171
111	0x3e817a3c	0.2528857
112	0xbe6d58cc	-0.23178405
113	0x3e25b4b1	0.1618221
114	0xbd02c71e	-0.031928174
115	0xbe25d0f1	-0.16192986
116	0x3e1cc846	0.15310773
117	0x3e19c4f8	0.15016544
118	0x3da77e56	0.081783935
119	0x3e42519a	0.18976441
120	0xbdf56c4b	-0.11983546
121	0x3e3a4fd2	0.18194512
122	0xbe7a77dc	-0.24459785
123	0xbe591228	-0.21198332
124	0x3d253ddc	0.040342197
125	0x3d98e736	0.07465975
126	0x3e04a7f0	0.12954688
127	0x3dd627bc	0.104567975
128	0xbdf438b1	-0.119248755
129	0x3db30f90	0.08743203
130	0x3c0ea749	0.008706876
131	0xbe06cb0e	-0.13163397
132	0xbe313f9e	-0.17309424
133	0x3d410f07	0.04713347
134	0x3e0b5ad5	0.13608868
135	0x3dad3537	0.084574156
136	0x3e21a82f	0.15786813
137	0x3d9ac285	0.07556633
138	0xbe27742f	-0.16352914
139	0xbe226896	-0.15860209
140	0x3e5253c6	0.2053977
141	0x3d028edf	0.031874534
142	0x3e3f2383	0.1866589
143	0xbe53a4fe	-0.20668408
144	0x3e7e7f45	0.24853237
145	0xbdcb86b8	-0.09937805
146	0xbc6d8891	-0.014497892
147	0x3e460a13	0.1933978
148	0x3d75d26d	0.06001513
149	0xbd305ce9	-0.043057356
150	0x3dc87dd5	0.097896256
151	0xbdc680e6	-0.09692554
152	0xbda6c14d	-0.08142338
153	0xbe43704a	-0.19085804
154	0x3e13d078	0.14434993
155	0xbe0672c4	-0.13129717
156	0xbdbdc4ec	-0.092660755
157	0x3e829627	0.25505182
158	0x3dd53004	0.10409549
159	0xbe36fd57	-0.17870079
160	0xbe308fe6	-0.17242393
161	0xbe8261ac	-0.25465143
162	0x3e5399da	0.20664158
163	0xbe837b8e	-0.25680202
164	0x3d4c5e94	0.049894884
165	0xbe6e1767	-0.23251115
166	0xbd010d25	-0.031506676
167	0x3dd508ab	0.10402044
168	0x3dcd9d2c	0.10039744
169	0x3e2d3a04	0.16916662
170	0x3e0bcbad	0.13651915
171	0xbe749da3	-0.23888259
172	0xbe362bdb	-0.17790167
173	0x3d6af772	0.05736489
174	0xbde4eecf	-0.111783616
175	0xbceb6892	-0.028736386
176	0xbe4f0631	-0.20217206
177	0x3d9a5eba	0.07537599
178	0x3e5df916	0.2167705
179	0xbe75e7f4	-0.24014264
180	0x3dda01a4	0.10644844
181	0x3d5998ff	0.053124424
182	0xbe37f498	-0.17964399
183	0xbe2a4e47	-0.16631423
184	0xbe2841fd	-0.16431423
185	0xbd45971c	-0.048239812
186	0xbe182598	-0.14858091
187	0xbe760ff5	-0.24029525
188	0x3c3721c4	0.011177484
189	0xbb3f31e2	-0.002917402
190	0x3e0ae224	0.13562828
191	0x3e38308d	0.1798727
192	0x3e137d4f	0.1440327
193	0x3d743890	0.059624255
194	0xbe5b4cd4	-0.21416026
195	0xbe28e23d	-0.16492553
196	0xbe145366	-0.14484939
197	0x3e246d97	0.1605743
198	0xbe7b3542	-0.24532035
199	0x3e5c87b9	0.21536149
200	0xbd6040c7	-0.054749276
201	0xbe098c7c	-0.13432497
202	0x3e3ec2d7	0.18629013
203	0x3e1fc94f	0.15604137
204	0xbd52b307	-0.051440265
205	0xbdb0895c	-0.08619949
206	0xbe10808d	-0.14111538
207	0xbd66da83	-0.056360733
208	0x3c984d22	0.018591467
209	0xbb3536ea	-0.002765114
210	0xbcb2e4ca	-0.02183761
211	0x3d34fd2d	0.04418676
212	0xbe08ab93	-0.133467
213	0x3d1b74b7	0.037953105
214	0xbe8816a7	-0.26579782
215	0xbda7a923	-0.08186557
216	0xbe8c1950	-0.27363062
217	0xbd943db3	-0.07238331
218	0xbdb9d4e1	-0.090738066
219	0xbcf7ee53	-0.030265009
220	0x3e5841a8	0.21118796
221	0xbe8d409b	-0.27588353
222	0x3daa5c23	0.08318355
223	0x3e33d971	0.17563416
224	0xbe8db026	-0.27673453
225	0x3c30705c	0.010768976
226	0x3d98392c	0.0743278
227	0xbe531882	-0.20614818
228	0x3e80cff0	0.25158644
229	0x3e5a2530	0.21303248
230	0xbe16d750	-0.14730573
231	0xbe45df26	-0.19323406
232	0x3ddeb7a9	0.10874874
233	0xbe146577	-0.14491831
234	0xbe57aa8e	-0.21061155
235	0x3da4467a	0.08021255
236	0x3dc0d486	0.09415536
237	0xbb738d6b	-0.003716315
238	0x3e23d05e	0.15997455
239	0x3e2eb75c	0.17062134
240	0x3dc87bf8	0.0978927
241	0x3db544ed	0.08851037
242	0xbe70b2d3	-0.23505716
243	0xbd982c2f	-0.07430302
244	0xbe116a7e	-0.1420078
245	0x3da54341	0.08069468
246	0xbe41adfc	-0.18914026
247	0xbd153e54	-0.036436394
248	0xbe03aaad	-0.12858076
249	0xbe3b2a1a	-0.18277779
250	0xbe7a3388	-0.2443372
251	0x3e16b8fb	0.14719002
252	0x3e01e42f	0.12684701
253	0xbe16ef93	-0.14739828
254	0x3d82392c	0.06358561
255	0xbe210c0d	-0.15727253

model.backbone.encoder.layers.0.self_attn.to_out.0.bias f4 [16]
0	0xbe5090cf	-0.2036774
1	0xbe0bb94e	-0.13644907
2	0x3e147cf2	0.14500788
3	0xbe61c3d1	-0.22047354
4	0xbc228a7b	-0.009920712
5	0x3e2ea748	0.17056
6	0xbd7adcbf	-0.061245676
7	0xbdd2042e	-0.102547035
8	0xbca08964	-0.019596763
9	0x3d91621c	0.07098791
10	0xbdccb092	-0.099946156
11	0xbdf2977c	-0.118452996
12	0x3e3a9200	0.18219757
13	0xbe02a714	-0.12759048
14	0xbbe0d2f4	-0.006861085
15	0xbc25b185	-0.010113125

model.backbone.encoder.layers.0.norm_attn.1.weight f4 [16]
0	0x3f7f9333	0.99833983
1	0x3f7bf8b3	0.9842636
2	0x3f7a02e1	0.9766064
3	0x3f81b934	1.0134645
4	0x3f81d4e1	1.014309
5	0x3f7c3da1	0.9853154
6	0x3f80a147	1.0049218
7	0x3f7bc9f0	0.9835501
8	0x3f822b83	1.0169529
9	0x3f79f3a2	0.9763738
10	0x3f80ba26	1.0056808
11	0x3f7a1acf	0.97697157
12	0x3f7c1879	0.9847484
13	0x3f826d77	1.0189656
14	0x3f80370d	1.00168
15	0x3f817fa9	1.0117084

model.backbone.encoder.layers.0.norm_attn.1.bias f4 [16]
0	0xbca36fb6	-0.019950729
1	0x3ca6a660	0.020343006
2	0x3b22a7d2	0.0024819267
3	0xbb7911d9	-0.0038005023
4	0xbcec68f0	-0.028858632
5	0x3c5876a0	0.013211876
6	0x3bbffd23	0.0058590337
7	0xbbcb6822	-0.006207482
8	0xbc9552d5	-0.018227974
9	0xbc8a671a	-0.016894866
10	0x3c29d3b7	0.010365418
11	0x3c6bce04	0.01439238
12	0xbc817cb1	-0.015806528
13	0x3cb3a877	0.021930916
14	0x3ca73f31	0.020415874
15	0x3c90ea75	0.017689923

model.backbone.encoder.layers.0.norm_attn.1.running_mean f4 [16]
0	0x3d1e30ec	0.038620874
1	0xbd850d3a	-0.064966634
2	0xbde49bb0	-0.111625075
3	0x3ab9ff4e	0.0014190467
4	0xbe633ce1	-0.22191192
5	0x3e83bcf9	0.25730112
6	0xbe273ca7	-0.16331731
7	0x3d1c24b5	0.038120944
8	0xbe103bae	-0.14085266
9	0xbdce2c61	-0.10067058
10	0x3d9b9cda	0.075982764
11	0x3d8d1526	0.06888799
12	0x3e38bab7	0.18039976
13	0x3e1aa526	0.15102062
14	0xbde67200	-0.112522125
15	0xbd06c79c	-0.032905206

model.backbone.encoder.layers.0.norm_attn.1.running_var f4 [16]
0	0x3edaa32d	0.42702618
1	0x3efa4727	0.4888241
2	0x3f06bd46	0.5263256
3	0x3e589eca	0.21154323
4	0x3fbaa3ce	1.4581239
5	0x3f86164e	1.0475557
6	0x3f487769	0.78307205
7	0x3f150fff	0.58227533
8	0x3f6a4264	0.91507554
9	0x3f3006cc	0.6876037
10	0x3e9603d8	0.29299808
11	0x3ebce982	0.36896902
12	0x3ef9c724	0.48784745
13	0x3f0dca60	0.55386925
14	0x3f9b64aa	1.2140095
15	0x3f536b90	0.82586
