checkpoints/336_96_Linear_ETTh1_ftM_sl336_ll48_pl96_dm16_nh4_el3_dl1_df128_fc1_ebtimeF_dtTrue_Exp_0/checkpoint.pth (torch, 130471 bytes, 2 tensors)

Linear.weight f4 [96, 336]
000000 ee 4e af bc 35 1a 49 3c 27 a7 dc 3c f0 8a a7 3c
       -0.021399941 0.012274315 0.026935173 0.020451993
000010 66 69 53 3b d2 ac 27 bd 49 4b 49 bd 39 7e 4d 3d
       0.0032258867 -0.0409363 -0.049144063 0.050169203
000020 fa fd a7 bc ec 62 14 bd 39 47 32 3d 1b 40 2e bd
       -0.020506848 -0.03622715 0.043524954 -0.042541604
000030 ef 3d 17 3d 2b b4 19 bd 41 c9 df 3c 2a e1 9b bc
       0.0369243 -0.037525337 0.027317645 -0.019028265
000040 3e e3 d4 bb fe e9 cf bc b5 ae d9 3c aa 1c b2 3c
       -0.006496816 -0.02538013 0.026572565 0.021742184
000050 72 85 05 3d 41 ff 91 bc ed c0 72 3d 26 db 66 3c
       0.032597966 -0.01782191 0.05926602 0.014090335
000060 6d 33 0e 3c ed 33 04 bd c4 ed 39 3d 57 29 29 bd
       0.008679253 -0.032276083 0.045392767 -0.04129919
000070 91 47 09 bd 64 cc c0 bc 7c 37 5b 3c 77 b6 54 3c
       -0.033515517 -0.023534961 0.013379928 0.012982956
000080 0a fd d3 3c 46 7f 9d ba 3a a1 eb 3c 0e 80 21 3d
       0.025877494 -0.001201608 0.028763402 0.039428763
000090 50 f9 45 bd ef 64 1b bd 11 72 38 bd 46 7f 17 bd
       -0.048333466 -0.037938055 -0.045030657 -0.03698661
0000a0 db a7 ac 3c f6 0c 37 3d 84 31 84 3c b8 11 35 bd
       0.021076133 0.044690095 0.016136892 -0.04420635
0000b0 b1 08 d1 3c f3 0c 02 3d c8 61 54 3d 1e 46 18 bd
       0.02551684 0.03175063 0.051851064 -0.037176244
0000c0 83 20 4f 3c 3a cf 66 bc 84 0f 4f 3d bb 5c f4 3c
       0.012642029 -0.014087493 0.050551906 0.029829374
0000d0 01 29 6f 3b f0 e3 bc ba b8 43 bb 3c 60 68 25 bd
       0.0036492946 -0.0014411192 0.02285944 -0.040382743
0000e0 d2 ce ad bb a7 5d 13 bd e5 2b d6 3c 6a 0f b5 3c
       -0.005304196 -0.035977986 0.026143977 0.022102077
0000f0 a4 40 40 bd b9 7c 0d bb c5 1a c3 3c 1b a3 bc 3c
       -0.046936646 -0.0021589233 0.023816476 0.023026993
000100 cc 6f 3f 3d 83 28 34 bd 86 f2 1e bc 9a ba 5e bc
       0.046737477 -0.043983947 -0.009701377 -0.013594294
000110 f4 98 08 bd 2e 5e 16 bd 96 20 c5 bc 91 9f 3a 3d
       -0.033348992 -0.03671091 -0.02406339 0.04556233
000120 e7 77 a3 bc da f1 82 bb 82 3e ba bc 2a 22 02 bd
       -0.019954635 -0.003996116 -0.022734884 -0.031770863
000130 68 21 5a 3d b5 c0 ae bb f1 bc 75 bc 12 47 59 3d
       0.053254515 -0.005333031 -0.01499866 0.053046294
000140 06 98 ce bc 52 55 35 bc 9a 78 99 ba 67 d7 a6 bc
       -0.025218975 -0.011067705 -0.0011708916 -0.020366384
000150 72 0a 72 bc 87 1b ed ba 2a 7a 55 3c c0 98 dd bc
       -0.014772998 -0.0018089869 0.013029614 -0.027050376
000160 68 d7 14 bb 36 42 67 3d 12 6f ba 3b 5d e4 8d ba
       -0.00227114 0.056459628 0.00568951 -0.0010825504
000170 84 b1 3a bd 84 a8 fd bc 89 62 14 3d b7 51 3e 3d
       -0.04557945 -0.030964144 0.036226783 0.046464648
000180 92 da f5 bc ef b6 ca 3c 11 76 61 3c 57 c3 c6 bc
       -0.030011449 0.024745433 0.013761059 -0.024263067
000190 08 0f 09 3d ed 1a 83 bb d2 d5 4d bd 8d 36 11 3d
       0.0334616 -0.0040010125 -0.050252743 0.035452414
0001a0 11 a0 64 3c 20 c2 fd bc 9d 1d 25 3b 12 e9 10 3d
       0.013954178 -0.030976355 0.0025194653 0.035378523
0001b0 86 a2 01 3d 5d 4d 9a 3c dc 6e 2a 3c e4 c6 e1 bb
       0.031649135 0.018835718 0.0104024075 -0.0068901647
0001c0 79 5b ac 3b f6 54 0e bd 1d 42 d0 3b b5 6c 40 bd
       0.005259928 -0.034748994 0.0063555376 -0.04697867
0001d0 5e 31 1f 3d b5 92 e5 bc 30 9d d7 bc 8f 21 70 3d
       0.03886544 -0.028024057 -0.02632007 0.058625754
0001e0 46 d2 bb 3b fd fb 97 bc d3 75 12 bd 85 57 db 3c
       0.0057318537 -0.018552775 -0.035756897 0.026775131
0001f0 52 86 4c bd d9 a2 06 3d 48 e9 3f 3c 3e 89 3c 3d
       -0.049932785 0.032870147 0.011713333 0.04602932
000200 27 7f c4 bc 73 eb 38 bd be 54 b7 b9 61 09 3a 3d
       -0.023986412 -0.045146417 -0.00034967618 0.0454191
000210 6f 08 e6 bc 7f 0d 51 bd 17 21 1d 3d 06 bc fb 3c
       -0.028080193 -0.05103826 0.038361635 0.030729305
000220 1c a8 0d 3d 6f b9 04 3d 74 19 41 3b a2 74 2a bd
       0.03458415 0.032403406 0.0029464634 -0.041615136
000230 46 52 07 bd a0 d7 9c bc 1b db e9 bc c7 6c f9 bc
       -0.033037446 -0.019145787 -0.02854686 -0.030447377
000240 95 d5 70 3d 93 81 49 3d 25 34 1a bd 45 74 47 bc
       0.058797438 0.049195837 -0.037647385 -0.012173717
000250 2b f6 1c 3d 2e 28 2f 3c 9b 03 b0 bc b9 d3 b0 bc
       0.0383207 0.010690732 -0.021486094 -0.021585332
000260 18 54 b7 3c ef cd 8d bc b2 41 fd bc 9d e8 b8 bb
       0.022378966 -0.01731011 -0.030915115 -0.005642964
000270 92 55 1c 3d 92 e2 75 bc 2a 01 f7 bc ef 4d 87 bc
       0.038167544 -0.015007632 -0.030151922 -0.016516654
000280 fa 25 b0 bc cb da 17 bd e6 f6 d7 b9 62 9f cd 3c
       -0.021502484 -0.03707389 -0.0004119195 0.025100414
000290 d8 b0 49 3d 70 83 80 3c 01 62 3c 3d 19 6e 03 3d
       0.049240917 0.015687674 0.0459919 0.03208742
0002a0 96 3a df 3b 12 1d d8 bc 6c 5d 15 bc 15 88 d0 3c
       0.006812404 -0.02638105 -0.009116512 0.025455514
0002b0 1e b3 e9 3b 6c 64 b7 bc 98 45 10 bc 4d e1 34 3c
       0.007131948 -0.022386752 -0.008805655 0.011040044
0002c0 1b 16 8e bc 69 3c 02 3d 42 3a 1a bd 1e 2b 98 37
       -0.017344525 0.031795893 -0.037653215 1.813989e-05
0002d0 05 1c 66 3c b3 0f f5 3c 32 9e 93 bb 0b 9d 1b bc
       0.014044766 0.029914713 -0.0045049423 -0.009497891
0002e0 d3 82 08 3d 53 cf 2e bd 25 ed e0 bc 5f 29 0a bd
       0.03332789 -0.04267819 -0.02745683 -0.03373086
0002f0 d4 29 55 3d 23 ba c7 3b 1a 42 18 bd 12 f7 9f 3c
       0.052041844 0.0060951873 -0.037172414 0.019526992
000300 b2 d3 f7 bc f7 d2 25 3d e9 c7 24 3d ec aa 66 3c
       -0.030252311 0.040484395 0.04022971 0.014078837
000310 31 b2 c4 bc b7 9d 3f bd 20 02 04 3d 7c 44 b3 bc
       -0.02401075 -0.046781268 0.03222859 -0.021883242
000320 8f 28 11 3c 30 01 33 bc b8 36 2b 3d c1 95 2b bc
       0.008859768 -0.010925576 0.04180023 -0.010472716
000330 4a 3a e8 3c 31 c6 29 bd bf e6 37 bd 1c 8a ba 3b
       0.028348107 -0.041448776 -0.04489779 0.0056927335
000340 1f 2c 1d 3d 68 e4 13 bd 77 20 11 3d 10 6f b7 3b
       0.038372155 -0.036106497 0.03543135 0.0055979565
000350 99 f6 3c bd 12 6f ec bc ec c1 3b bb 9c 0c a0 3c
       -0.04613361 -0.028861556 -0.0028649522 0.019537263
000360 5a 5e 2a 3d 3e 7b 6b 3d 43 8b 37 3d 56 51 5a bd
       0.041593887 0.05749058 0.044810545 -0.053300224
000370 50 83 80 3c 03 7e 05 bd 55 bc a1 bc 33 b9 0a 3d
       0.015687615 -0.032590877 -0.019743124 0.033868026
000380 c3 a7 df bc 9b d3 12 bd da e0 98 3c af d8 4e bc
       -0.027301675 -0.035846334 0.018661905 -0.012624904
000390 10 17 b3 bb ed 1d 79 bc 8b 47 f1 3c 3d e2 a4 3c
       -0.0054653957 -0.015204889 0.02945306 0.02012741
0003a0 8f 21 c2 bb 34 30 15 bc 49 81 9c 3b 4a 28 fe bc
       -0.0059244107 -0.009105731 0.004776154 -0.03102507
0003b0 91 ba c8 3c 77 75 26 3d 45 1b 2d 3d 81 67 b1 bc
       0.024503024 0.040639367 0.042262334 -0.0216558
0003c0 ee f9 eb bb ff b4 58 3d 78 c8 11 3d 1e 82 98 3c
       -0.007201425 0.052906986 0.035591573 0.018616732
0003d0 79 0e d2 3c f3 f1 e8 3c 1c 87 2b bd 5a 6a 4b bd
       0.025641667 0.028435683 -0.041876897 -0.04966197
0003e0 e7 f2 b9 bb 5a 77 10 3d 85 7f 63 bc 7e 76 ae bc
       -0.005674708 0.035270073 -0.0138853835 -0.021296736
0003f0 47 40 3f bd 5b 0f 79 3c e3 19 61 3c da 66 cd bc
       -0.04669216 0.015201415 0.013739082 -0.025073458

Linear.bias f4 [96]
000000 bc 3e 09 bb bf ec 06 bc c4 a5 2b bc 82 76 b4 bb
       -0.0020941934 -0.008235156 -0.010476533 -0.0055072913
000010 70 6f 8e bb d6 d0 13 bc 3b bb 8c bc d0 b8 84 3b
       -0.0043467805 -0.009021958 -0.017179122 0.0040503517
000020 d0 42 19 b7 79 ed 20 bc 1b a7 e9 bb c6 b3 7d bc
       -9.135067e-06 -0.009822243 -0.007130516 -0.015484756
000030 57 c9 c9 bb 55 08 8b bc de 20 88 bb 03 c2 b7 bc
       -0.006158035 -0.016971746 -0.0041543087 -0.02243138
000040 e3 90 84 bb aa cc 1f bc b5 ca 54 bc 20 dc 32 bc
       -0.004045592 -0.009753386 -0.012987782 -0.01091674
000050 d2 91 57 bc 7e 74 64 bc 73 6e b9 bb 3c 17 46 bc
       -0.013157325 -0.0139437895 -0.0056589185 -0.0120905
000060 61 af 7e 3b 57 06 09 bc b0 37 4a ba 6a 72 b0 bb
       0.0038861858 -0.008363328 -0.00077139866 -0.005384733
000070 b9 84 86 bc d9 b8 5b bc e3 8e a8 bc e9 4e a3 bc
       -0.016420709 -0.01341077 -0.020575946 -0.019935088
000080 a6 6e 8e bc 18 29 27 bc a5 ed 4a bb c9 b6 ee bb
       -0.017386746 -0.010202669 -0.00309644 -0.0072849733
000090 33 de d4 3b 43 7a 70 bc 54 aa e6 bb d0 f4 84 bc
       0.006496215 -0.014677587 -0.0070393477 -0.016230017
0000a0 03 09 ae bc 41 eb 9d bc 0d f0 2f bb ad 7c 6a bc
       -0.021244531 -0.019277217 -0.0026845962 -0.014311952
0000b0 51 35 93 bc 11 ba 8c bc d7 b1 ae 3b ae 76 8a bc
       -0.01796976 -0.017178567 0.0053312588 -0.016902294
0000c0 de a9 89 bc 5e 52 e4 bb 8e a2 12 bc 62 06 44 bc
       -0.016804632 -0.0069678267 -0.008949889 -0.011964412
0000d0 b7 1b a9 bc d6 25 a6 bc 3a 29 80 bc b5 ae 92 bc
       -0.020643098 -0.020281713 -0.015644658 -0.017905572
0000e0 28 bf 31 bc c8 2b 7a bb 6f a9 b1 bc 24 eb c9 bc
       -0.010848798 -0.0038173068 -0.021687238 -0.024648257
0000f0 93 c2 37 bc 29 75 9d bc a9 91 21 bb e5 0a c5 bc
       -0.011215824 -0.019220905 -0.002465347 -0.024053046
000100 69 52 bd bc 83 0e bb bc ae 24 70 bc 70 23 c5 bb
       -0.023110585 -0.022834068 -0.014657183 -0.0060161874
000110 05 29 8f bc 27 4f b6 bc 01 e4 3a bc 14 80 b4 bc
       -0.017475614 -0.02225454 -0.011406899 -0.022033729
000120 7a 11 92 bc 90 6a f1 bb 7f c1 6b bc 1c 1e f3 bb
       -0.0178306 -0.0073674396 -0.014389395 -0.007419361
000130 e3 74 10 bc 30 c4 5a bc 8b 7b d7 bc d8 5c f4 bc
       -0.00881693 -0.013352439 -0.026304027 -0.029829428
000140 d4 fb c7 b9 b6 5b ab 3b ef c2 b3 bc c7 d1 dc bb
       -0.00038143864 0.0052294387 -0.021943538 -0.0067388746
000150 a1 ae 7c bb ca 8d c5 bc e1 97 1d 3b d4 48 8b bc
       -0.0038556235 -0.024115462 0.0024046826 -0.0170025
000160 5c 9c 4f 3b a9 e7 47 bc c3 e6 d9 bc 7d b0 dd b9
       0.003167889 -0.012201228 -0.026599294 -0.000422839
000170 27 ec 56 3b 30 08 9b bc 40 28 90 bc 08 6e 3f bb
       0.0032794566 -0.018924803 -0.017597318 -0.002920987
