checkpoints/336_96_Autoformer_ETTh1_ftM_sl336_ll48_pl96_dm16_nh4_el3_dl1_df128_fc1_ebtimeF_dtTrue_Exp_0/checkpoint.pth (torch, 758382 bytes, 61 tensors)

enc_embedding.value_embedding.tokenConv.weight f4 [16, 7, 3]
0.036675625 0.028450912 -0.07726967 -0.09681071 -0.55945116 -0.14486904 0.12711966 0.45039788
-0.46895313 0.3016239 0.07239272 0.059519097 0.39793113 0.11159933 -0.17556342 0.12685251
-0.036812875 0.38901564 -0.16741912 -0.25577533 -0.2623039 -0.3162193 -0.33403534 0.18732877
-0.53536594 -0.05760133 0.6033012 0.17946197 0.042915303 -0.06238724 -0.09362447 -0.24799973
0.36817804 -0.07882191 0.032060657 -0.20287266 0.04980494 0.23785308 0.029264154 -0.37627116
0.16045563 0.6944465 -0.5306685 0.13881557 -0.082678445 0.09280823 -0.38904694 0.25202364
-0.18822986 0.34324464 -0.42653832 0.03523411 -0.5746018 0.21292596 0.114810206 -0.10835
0.18849123 -0.1637641 -0.04289927 -0.283021 -0.23163337 -0.12965146 0.41952902 -0.10686877
0.13799486 0.26906028 -0.008115133 -0.6084798 0.45990807 0.1377951 0.1848922 0.3221461
0.18493828 -0.22910294 0.09917579 0.073808685 -0.036794793 -0.29844084 0.18432261 -0.6296583
0.13021542 -0.2077796 0.47606418 0.24498037 -0.052747283 0.51300836 0.056595135 -0.42613038
0.36453345 -0.49384436 -0.21243162 -0.2707323 0.38188416 -0.08242413 0.19184601 0.41244698
0.19544302 0.096112445 -0.2653244 -0.22950889 -0.07604364 0.5941435 -0.045051 0.28439596
-0.06267646 -0.033459462 -0.2807973 -0.10758827 -0.110563435 -0.18062957 -0.19591235 -0.28819844
0.13738292 0.39305964 0.110119544 0.28048685 0.083297476 0.31385127 0.2864714 0.070630305
-0.15896435 -0.329345 0.5371164 0.49927625 -0.19577731 -0.51337737 0.2132788 0.012844266
0.28060368 -0.088121444 0.20591433 -0.30415085 0.102601804 0.71698236 0.26997682 0.22787234
-0.027810974 0.15832213 -0.22001445 -0.37585375 -0.19728076 -0.2858324 0.070447035 0.13337761
0.22954318 -0.19821963 0.38267612 0.39262486 -0.09386478 -0.21116258 0.44427666 0.506965
-0.30406573 -0.26494953 -0.1988028 -0.14046752 0.49749213 0.39655575 0.5904675 0.22546905
0.25175202 -0.49796554 -0.06179627 0.5039665 0.14771074 -0.31857195 -0.45372236 -0.18075928
0.5586205 -0.17060664 -0.61584914 0.75100815 -0.0591008 -0.07374801 0.040686306 -0.116558544
-0.021402748 0.33981648 -0.22692172 0.29182193 -0.2757809 0.15771289 -0.2063644 -0.23220709
-0.22622856 -0.00585204 -0.443553 -0.31324345 -0.55414736 -0.02684522 0.07372302 0.32697356
0.09252611 0.5091361 -0.4498426 -0.39052635 -0.44989598 -0.13742277 0.5328098 0.13485172
0.014912395 0.32029265 -0.048382774 -0.17912109 -0.25118798 0.38562644 0.19348887 0.09495276
-0.19196819 0.55501056 0.26872152 -0.4353717 -0.029979812 0.5054134 -0.44909784 0.11198433
-0.0014219625 0.26284796 0.21363065 -0.016591668 -0.47440696 0.5009685 0.1441677 -0.5348994
0.13421355 0.06701326 -0.07730134 -0.25734904 0.058444936 0.38065103 0.018415494 0.026802562
0.62522817 -0.33032745 -0.26453018 0.2701042 -0.17652608 0.08145042 -0.05747158 0.46686223
0.26123124 0.45709366 0.6070313 0.12913229 -0.30810204 0.11237455 0.22313838 0.2075626
-0.36887068 0.40083155 0.49406254 -0.010199254 -0.1811128 -0.45598742 -0.059635572 -0.115864195
00000000: 2e39 163d e311 e93c 903f 9ebd b244 c6bd
00000010: 3138 0fbf 8d58 14be a82b 023e 8d9a e63e
00000020: a01a f0be 736e 9a3e a242 943d 4cca 733d
00000030: a1bd cb3e 318e e43d e6c6 33be a0e5 013e
00000040: 19c9 16bd 0f2d c73e eb6f 2bbe fcf4 82be
00000050: b24c 86be 7fe7 a1be ae06 abbe 1dd3 3f3e
00000060: be0d 09bf 5fef 6bbd f371 1a3f e1c4 373e
00000070: f5c7 2f3d c389 7fbd 30be bfbd a4f3 7dbe
00000080: d581 bc3e 626d a1bd 0952 033d dabd 4fbe
00000090: 4400 4c3d c28f 733e 61bb ef3c 9da6 c0be
000000a0: 7b4e 243e 3fc7 313f e4d9 07bf ab25 0e3e
000000b0: 5153 a9bd 3e12 be3d 2931 c7be 3e09 813e
000000c0: 54bf 40be c3bd af3e 3b63 dabe a451 103d
000000d0: 1b19 13bf 4309 5a3e 9d21 eb3d 9be6 ddbd
000000e0: d803 413e c7b1 27be 25b7 2fbd 21e8 90be
000000f0: 4c31 6dbe 5ac3 04be 82cc d63e 04de dabd
00000100: 864e 0d3e 45c2 893e 56f5 04bc 55c5 1bbf
00000110: 1279 eb3e 291a 0d3e 6254 3d3e 55f0 a43e
00000120: 7660 3d3e f699 6abe ad1c cb3d 0229 973d
00000130: 23b6 16bd 3dcd 98be 11bf 3c3e 4931 21bf
00000140: 3157 053e 2dc4 54be afbe f33e 22dc 7a3e
00000150: 890d 58bd 8454 033f 4dd0 673d c32d dabe
00000160: 21a4 ba3e 2bd9 fcbe ad87 59be 6d9d 8abe
00000170: 5286 c33e fbcd a8bd 4873 443e 402c d33e
00000180: 3722 483e 9ad6 c43d 9ad8 87be 6104 6bbe
00000190: c5bc 9bbd ca19 183f 6687 38bd 599c 913e
000001a0: 845c 80bd ca0c 09bd aac4 8fbe 3d57 dcbd
000001b0: 156f e2bd f5f6 38be 3f9d 48be bf8e 93be
000001c0: 1cae 0c3e 1d3f c93e 5b86 e13d f99b 8f3e
000001d0: de97 aa3d 1db1 a03e 61ac 923e 9fa6 903d
000001e0: 8dc7 22be e89f a8be 7680 093f 23a1 ff3e
000001f0: d979 48be b36c 03bf c265 5a3e c270 523c
00000200: 49ab 8f3e 0479 b4bd 35db 523e a9b9 9bbe
00000210: e520 d23d 288c 373f 673a 8a3e 5e57 693e
00000220: d7d3 e3bc 321f 223e 784b 61be e76f c0be
00000230: f803 4abe a058 92be 8946 903d 2494 083e
00000240: 5e0d 6b3e 16fa 4abe 20ee c33e 2006 c93e
00000250: 2e3c c0bd 013b 58be 3b78 e33e 75c8 013f
00000260: 81ae 9bbe 77a7 87be f692 4bbe b8d6 0fbe
00000270: 4ab7 fe3e 5b09 cb3e e128 173f 5ce1 663e
00000280: a4e5 803e 57f5 febe 161e 7dbd f303 013f
00000290: 7c41 173e dd1b a3be 4c4e e8be f618 39be
000002a0: c101 0f3f 82b3 2ebe 4aa8 1dbf 1242 403f
000002b0: ae13 72bd 3209 97bd afa6 263d 3fb6 eebd
000002c0: d154 afbc 6dfc ad3e 2b5e 68be af69 953e
000002d0: 2733 8dbe 7d7f 213e 3051 53be b2c7 6dbe
000002e0: 76a8 67be 78c2 bfbb 6119 e3be 7261 a0be
000002f0: 9adc 0dbf 82ea dbbc 18fc 963d 1469 a73e
00000300: 547e bd3d be56 023f c551 e6be 12f3 c7be
00000310: c458 e6be 8eb8 0cbe 3966 083f 9216 0a3e
00000320: 1e53 743c 66fd a33e 042d 46bd 856b 37be
00000330: b69b 80be d470 c53e f221 463e 9876 c23d
00000340: 4f93 44be 2c15 0e3f de95 893e 0ae9 debe
00000350: 3998 f5bc c662 013f 27f0 e5be 0a58 e53d
00000360: 2561 baba 0294 863e fec1 5a3e 40eb 87bc
00000370: 78e5 f2be 793f 003f b3a0 133e 2bef 08bf
00000380: 476f 093e 403e 893d 2a50 9ebd 41c3 83be
00000390: f563 6f3d b1e4 c23e 17dc 963c 0c91 db3c
000003a0: f40e 203f ae20 a9be 8070 87be 194b 8a3e
000003b0: 41c3 34be 7acf a63d 5267 6bbd 9108 ef3e
000003c0: 1ac0 853e 2e08 ea3e 6766 1b3f 413b 043e
000003d0: 8dbf 9dbe a124 e63d 637e 643e 4a8b 543e
000003e0: 9edc bcbe cb39 cd3e c4f5 fc3e c61a 27bc
000003f0: a275 39be 2f77 e9be 6e44 74bd 354a edbd

enc_embedding.position_embedding.pe f4 [1, 5000, 16]
0.0 1.0 0.0 1.0 0.0 1.0 0.0 1.0
0.0 1.0 0.0 1.0 0.0 1.0 0.0 1.0
0.84147096 0.54030234 0.3109836 0.9504153 0.099833414 0.9950042 0.031617504 0.99950004
0.009999833 0.99995 0.0031622713 0.999995 0.0009999998 0.9999995 0.00031622782 0.99999994
0.9092974 -0.41614684 0.5911271 0.8065784 0.19866931 0.9800666 0.063203394 0.9980007
0.019998666 0.9998 0.006324511 0.99998003 0.0019999985 0.99999803 0.0006324556 0.9999998
0.14112 -0.9899925 0.8126489 0.58275366 0.2955202 0.9553365 0.094726086 0.99550337
0.0299955 0.99955004 0.009486687 0.999955 0.0029999954 0.9999955 0.00094868336 0.9999996
-0.7568025 -0.6536436 0.95358074 0.30113748 0.38941833 0.921061 0.12615407 0.99201065
0.039989334 0.9992001 0.01264877 0.99992 0.003999989 0.999992 0.0012649109 0.9999992
-0.9589243 0.2836622 0.99994653 -0.010342338 0.47942552 0.87758255 0.15745588 0.987526
0.049979165 0.99875027 0.015810724 0.999875 0.004999979 0.9999875 0.0015811383 0.99999875
-0.2794155 0.96017027 0.9471482 -0.3207964 0.5646424 0.8253356 0.18860027 0.98205394
0.059964005 0.99820054 0.018972522 0.99982 0.0059999637 0.999982 0.0018973658 0.9999982
0.6569866 0.75390226 0.8004216 -0.5994375 0.6442176 0.7648422 0.2195561 0.9755999
0.06994285 0.997551 0.022134129 0.999755 0.006999942 0.9999755 0.0022135929 0.99999756
0.98935825 -0.14550003 0.5743178 -0.8186324 0.717356 0.6967067 0.25029233 0.9681703
0.07991469 0.9968017 0.025295515 0.99968004 0.007999914 0.999968 0.0025298197 0.9999968
0.4121185 -0.91113025 0.29125923 -0.9566442 0.78332686 0.62161 0.28077832 0.95977265
0.089878544 0.9959527 0.028456647 0.99959505 0.008999879 0.9999595 0.0028460464 0.99999595
-0.5440211 -0.8390715 -0.02068357 -0.9997861 0.84147096 0.54030234 0.31098357 0.9504153
0.099833414 0.9950042 0.031617496 0.99950004 0.009999833 0.99995 0.0031622727 0.999995
-0.9999902 0.004425698 -0.33057496 -0.94377977 0.89120734 0.4535962 0.34087786 0.9401076
0.1097783 0.9939561 0.03477803 0.9993951 0.010999777 0.9999395 0.003478499 0.999994
-0.53657293 0.84385395 -0.6076834 -0.7941793 0.9320391 0.36235783 0.3704313 0.9288599
0.119712204 0.99280864 0.03793821 0.9992801 0.011999711 0.999928 0.0037947248 0.9999928
0.42016703 0.9074468 -0.82452846 -0.5658205 0.9635582 0.26749888 0.3996143 0.9166834
0.12963414 0.9915619 0.041098017 0.9991551 0.012999633 0.9999155 0.00411095 0.99999154
0.9906074 0.13673721 -0.9596054 -0.28134948 0.98544973 0.16996728 0.42839777 0.90359026
0.13954312 0.990216 0.044257414 0.99902016 0.013999541 0.999902 0.004427175 0.9999902
0.65028787 -0.7596879 -0.9995187 0.031022351 0.997495 0.07073732 0.45675287 0.8895936
0.14943813 0.9887711 0.047416367 0.9988752 0.014999436 0.9998875 0.0047433996 0.99998873
00000000: 0000 0000 0000 803f 0000 0000 0000 803f
00000010: 0000 0000 0000 803f 0000 0000 0000 803f
00000020: 0000 0000 0000 803f 0000 0000 0000 803f
00000030: 0000 0000 0000 803f 0000 0000 0000 803f
00000040: a46a 573f 4151 0a3f 3e39 9f3e 6b4e 733f
00000050: 7675 cc3d 98b8 7e3f 5b81 013d 3cdf 7f3f
00000060: 57d6 233c b9fc 7f3f 1c3e 4f3b acff 7f3f
00000070: 6d12 833a f8ff 7f3f 61cb a539 ffff 7f3f
00000080: b7c7 683f 3311 d5be 1b54 173f ec7b 4e3f
00000090: f86f 4b3e a5e5 7a3f c870 813d f97c 7f3f
000000a0: 3ed4 a33c e5f2 7f3f d83d cf3b b1fe 7f3f
000000b0: 6812 033b dfff 7f3f 60cb 253a fdff 7f3f
000000c0: c381 103e 2670 7dbf c209 503f 582f 153f
000000d0: 6c4e 973e ef90 743f c0ff c13d 4fd9 7e3f
000000e0: 1fb9 f53c 83e2 7f3f 0d6e 1b3c 0dfd 7f3f
000000f0: 929b 443b b5ff 7f3f 10b1 783a f9ff 7f3f
00000100: cfbd 41bf 3055 27bf de1d 743f b12e 9a3e
00000110: d761 c73e a7ca 6b3f 882e 013e 69f4 7d3f
00000120: dbcb 233d 94cb 7f3f c93c 4f3c c2fa 7f3f
00000130: 5712 833b 7aff 7f3f 5ecb a53a f3ff 7f3f
00000140: 107c 75bf 2c3c 913e 7ffc 7f3f e972 29bc
00000150: 4377 f53e 40a9 603f 1d3c 213e 81ce 7c3f
00000160: f4b6 4c3d 19ae 7f3f 7e85 813c cff7 7f3f
00000170: ddd6 a33b 2eff 7f3f 333e cf3a ebff 7f3f
00000180: 8c0f 8fbe b8cd 753f 4e78 723f 6d3f a4be
00000190: 688c 103f 3249 533f 6e20 413e e367 7b3f
000001a0: d19c 753d 128a 7f3f 436c 9b3c 34f4 7f3f
000001b0: 589b c43b d2fe 7f3f 08b1 f83a e2ff 7f3f
000001c0: 4630 283f bdff 403f 6ee8 4c3f bc74 19bf
000001d0: 72eb 243f b3cc 433f 50d3 603e eac0 793f
000001e0: 323e 8f3d 815f 7f3f a252 b53c f2ef 7f3f
000001f0: c55f e53b 65fe 7f3f ed11 113b d7ff 7f3f
00000200: 9546 7d3f f6fd 14be 7e06 133f e591 51bf
00000210: a5a4 373f 5f5b 323f 5126 803e 02da 773f
00000220: 50aa a33d 652e 7f3f 8a38 cf3c 08eb 7f3f
00000230: 1212 033c e7fd 7f3f 55cb 253b caff 7f3f
00000240: 3201 d33e d53f 69bf ee1f 953e a2e6 74bf
00000250: 1c88 483f d521 1f3f 2dc2 8f3e a9b3 753f
00000260: 3e12 b83d c2f6 7e3f ea1d e93c 76e5 7f3f
00000270: 3a74 133c 59fd 7f3f bc84 3a3b bcff 7f3f
00000280: f844 0bbf 64cd 56bf 9770 a9bc fbf1 7fbf
00000290: a46a 573f 4151 0a3f 3d39 9f3e 6b4e 733f
000002a0: 7675 cc3d 98b8 7e3f 5981 013d 3cdf 7f3f
000002b0: 57d6 233c b9fc 7f3f 223e 4f3b acff 7f3f
000002c0: 5cff 7fbf 7205 913b 1f41 a9be 8d9b 71bf
000002d0: 2a26 643f c33d e83e 8b87 ae3e e4aa 703f
000002e0: 72d3 e03d e873 7e3f 6873 0e3d 5bd8 7f3f
000002f0: 6938 343c 09fc 7f3f 87f7 633b 9bff 7f3f
00000300: d85c 09bf d006 583f 2491 1bbf 564f 4bbf
00000310: 1d9a 6e3f f786 b93e 2ca9 bd3e c3c9 6d3f
00000320: ac2b f53d b528 7e3f 1965 1b3d d2d0 7f3f
00000330: 709a 443c 48fb 7f3f ebb0 783b 87ff 7f3f
00000340: 2220 d73e 6f4e 683f 4c14 53bf 9dd9 10bf
00000350: c0ab 763f 9df5 883e 3f9a cc3e c3ab 6a3f
00000360: d0be 043e 00d7 7d3f 6556 283d a1c8 7f3f
00000370: 6afc 543c 76fa 7f3f 26b5 863b 72ff 7f3f
00000380: 7298 7d3f d704 0c3e b3a8 75bf 0a0d 90be
00000390: 6f46 7c3f e70b 2e3e f456 db3e b151 673f
000003a0: 64e4 0e3e cc7e 7d3f 4347 353d c9bf 7f3f
000003b0: 555e 653c 94f9 7f3f d611 913b 5cff 7f3f
000003c0: 4479 263f e87a 42bf 75e0 7fbf 9622 fe3c
000003d0: d55b 7f3f bade 903d 83db e93e 68bc 633f
000003e0: 4f06 193e 1a20 7d3f aa37 423d 49b6 7f3f
000003f0: 32c0 753c a1f8 7f3f 856e 9b3b 43ff 7f3f

enc_embedding.temporal_embedding.embed.weight f4 [16, 4]
0.07503737 -0.28817227 0.47395134 -0.33103245 0.13650538 0.3801712 -0.30914727 0.182953
-0.36617824 0.40454006 0.38957623 -0.28374386 -0.09911068 0.3182773 0.42846102 -0.4000548
0.2282549 -0.08055251 -0.2524665 -0.34867486 0.15569781 0.20608869 -0.31526154 0.49356994
0.12281603 -0.06263345 -0.32352304 -0.087080896 0.008293593 -0.018221535 -0.3997253 0.18447082
0.3435523 -0.3194153 -0.04910693 -0.001138834 0.098446466 0.16780692 -0.015127557 0.41814396
0.15836544 0.30561656 0.24631958 -0.009604234 -0.013890521 -0.057417117 -0.33364254 -0.315999
-0.44789842 -0.44214448 0.09545229 -0.18031818 -0.39793572 0.45886648 0.0035829283 0.15341243
0.32588938 -0.026304103 -0.05717768 -0.35292843 0.2690365 0.14938234 0.010176428 0.18296513
00000000: 31ad 993d 518b 93be c0a9 f23e 167d a9be
00000010: 11c8 0b3e cda5 c23e 8d48 9ebe 0858 3b3e
00000020: b77b bbbe e01f cf3e 8976 c73e e046 91be
00000030: 8afa cabd 3ef5 a23e 3e5f db3e fcd3 ccbe
00000040: a7bb 693e b7f8 a4bd 4a43 81be 8385 b2be
00000050: 3f6f 1f3e ea08 533e f669 a1be 33b5 fc3e
00000060: f986 fb3d f745 80bd d0a4 a5be 7857 b2bd
00000070: dae1 073c 5445 95bc cba8 ccbe ebe5 3c3e
00000080: 16e6 af3e 678a a3be 5924 49bd ee44 95ba
00000090: 4d9e c93d 94d5 2b3e 93d9 77bc f716 d63e
000000a0: 8d2a 223e c679 9c3e 333b 7c3e 145b 1dbc
000000b0: 1195 63bc 362e 6bbd 32d3 aabe 9fca a1be
000000c0: f152 e5be c360 e2be 7d7c c33d 54a5 38be
000000d0: 3bbe cbbe 8cf0 ea3e 90cf 6a3b 2618 1d3e
000000e0: f9da a63e b47b d7bc 2533 6abd 09b3 b4be
000000f0: 27bf 893e aff7 183e 08bb 263c 365b 3b3e

dec_embedding.value_embedding.tokenConv.weight f4 [16, 7, 3]
0.31400934 0.31637967 0.29476416 -0.041638583 -0.11518583 -0.03594521 -0.27514595 0.05487157
-0.11306609 -0.09042803 0.13225977 0.054439954 -0.40847963 -0.3791779 0.9229299 0.14131863
0.21272384 -0.048678666 0.46040753 -0.13342038 0.36352953 0.32714814 0.39420757 -0.122670285
0.15580039 0.28237736 0.043031514 0.3200612 0.34133494 0.011252593 -0.10156323 0.47965068
0.14219607 -0.1745413 -0.054735884 0.084534846 -0.22953174 0.32643622 0.31548107 0.06855045
-0.343174 0.0020934306 0.33725697 -0.044033613 0.16755438 -0.12229255 0.24357979 0.36130172
-0.096295126 -0.07766994 0.3289647 -0.590311 0.001672545 -0.44438738 -0.07149547 0.7787282
-0.09498206 0.19068775 0.14288592 -0.257983 -0.121105686 -0.09629978 -0.58540076 -0.30477425
0.3546803 0.12739448 -0.30812818 -0.20446794 0.4592798 -0.46877086 0.15201484 -0.37740955
0.018116854 0.16704647 -0.022797842 -0.15397038 -0.27409205 -0.083150454 0.307686 0.31767228
-0.023454275 0.17159665 0.1370819 0.48200488 -0.79003865 -0.36701632 -0.11792362 -0.113728575
0.15146132 0.12518504 0.256259 0.24098794 -0.4254281 -0.1626314 0.03607551 -0.03976027
0.2568406 0.34156057 0.27138668 -0.09888687 -0.3592786 -0.087792076 0.15000027 0.19748628
-0.33333853 -0.2916722 0.26142588 -0.28910774 0.06717426 -0.10089204 0.07380629 0.00045864805
-0.18754284 -0.12946667 -0.24599588 -0.28766564 -0.16997835 -0.15324746 0.20485401 0.12027784
-0.17675702 0.41133466 -0.3927801 0.24347168 -0.20032325 -0.32663015 -0.09569838 -0.40750092
0.033424348 -0.09965835 -0.09589825 0.0026372508 0.014554664 -0.6208518 -0.0379767 -0.31492075
-0.1273573 0.37532347 0.29754153 -0.2143521 -0.1223043 0.20421818 0.08374502 0.4923522
-0.14414476 0.00562663 -0.3025483 0.22904965 -0.15320146 0.25733617 0.12014723 -0.057090826
-0.33742955 -0.07133311 0.056092005 0.044195987 -0.036055725 0.373739 0.111564085 -0.29944733
0.23866045 0.56666774 -0.012173072 -0.24781667 0.1348648 0.27022144 0.61172944 0.09321053
0.657545 -0.045794267 -0.072610214 0.003500669 -0.14973913 -0.55488455 0.441005 0.12494659
-0.1551043 0.603876 0.22115272 -0.22138755 -0.5799858 -0.17243703 0.09255996 0.43490076
0.37844726 0.18424657 0.31957856 0.3121695 0.01209374 -0.030155418 0.030238762 -0.13095622
-0.13013591 0.2688714 0.04218322 0.7388795 0.33454654 -0.15898065 0.24474736 -0.007267741
0.4719964 -0.55493444 0.20306414 0.112762265 -0.21513653 0.096736595 0.28572875 -0.5725066
-0.452177 0.3058863 0.8060811 -0.15279171 0.21149653 0.004425173 0.3077823 -0.22014047
0.20943075 -0.017591184 0.048870586 -0.049765784 -0.53484976 -0.39085823 0.6275605 -0.059772726
0.11063847 0.27095142 -0.06609031 -0.26646188 0.02522458 0.31530508 -0.32958266 -0.42124858
-0.22832054 0.26828295 0.21723972 -0.13963006 0.506268 0.4423907 -0.044042293 -0.21370558
-0.45632395 -0.09342099 -0.12615839 -0.19615136 -0.17271689 0.008196508 -0.44970807 -0.24062912
-0.38831025 -0.059956845 -0.22246692 0.34668747 -0.5401389 -0.082611434 -0.062410522 0.7100206
00000000: d5c5 a03e 84fc a13e 54eb 963e 388d 2abd
00000010: 8ce6 ebbd 493b 13bd eedf 8cbe 03c1 603d
00000020: 328f e7bd 5532 b9bd 1b6f 073e 6efc 5e3d
00000030: 3e24 d1be 9b23 c2be 2245 6c3f d5b5 103e
00000040: 47d4 593e 4863 47bd 89ba eb3e 5a9f 08be
00000050: 8b20 ba3e f67f a73e 93d5 c93e 8f3a fbbd
00000060: 238a 1f3e c493 903e d041 303d 10df a33e
00000070: 74c3 ae3e cc5c 383c 6200 d0bd c694 f53e
00000080: d99b 113e f4ba 32be bc32 60bd 9b20 ad3d
00000090: 5e0a 6bbe a622 a73e bc86 a13e 2e64 8c3d
000000a0: 81b4 afbe f031 093b f2ac ac3e 975c 34bd
000000b0: 6093 2b3e 8474 fabd fb6c 793e 8afc b83e
000000c0: 6136 c5bd 6b11 9fbd 106e a83e 9f1e 17bf
000000d0: 4c39 db3a be86 e3be 386c 92bd bb5a 473f
000000e0: f485 c2bd a643 433e b050 123e 5916 84be
000000f0: 4206 f8bd d238 c5bd d3dc 15bf 5f0b 9cbe
00000100: a898 b53e b373 023e fac2 9dbe 0b60 51be
00000110: b926 eb3e bc02 f0be c7a9 1b3e d33b c1be
00000120: cc69 943c 3b0e 2b3e 8ac2 babc 69aa 1dbe
00000130: cb55 8cbe c94a aabd 0589 9d3e f1a5 a23e
00000140: 2e23 c0bc 08b7 2f3e 335f 0c3e 58c9 f63e
00000150: f93f 4abf 90e9 bbbe f081 f1bd 87ea e8bd
00000160: ad18 1b3e 8230 003e 6134 833e 8bc5 763e
00000170: b6d1 d9be d988 26be eac3 133d aadb 22bd
00000180: 9c80 833e 07e1 ae3e 32f3 8a3e 3385 cabd
00000190: 5df3 b7be 55cc b3bd ac99 193e d839 4a3e
000001a0: 59ab aabe 0f56 95be 9dd9 853e ee05 94be
000001b0: a992 893d 7ca0 cebd c127 973d b376 f039
000001c0: 3b0b 40be e992 04be 58e6 7bbe e948 93be
000001d0: ce0e 2ebe e7ec 1cbe 40c5 513e 3a54 f63d
000001e0: cbff 34be 759a d23e 791a c9be a450 793e
000001f0: 8a21 4dbe 113c a7be 83fd c3bd f6a3 d0be
00000200: f8e7 083d ad19 ccbd 4d66 c4bd bad5 2c3b
00000210: af76 6e3c 25f0 1ebf 758d 1bbd 4b3d a1be
00000220: f469 02be 662a c03e 5d57 983e 1e7f 5bbe
00000230: ad7a fabd 921e 513e 8282 ab3d 9615 fc3e
00000240: af9a 13be 985f b83b 9ce7 9abe fe8b 6a3e
00000250: d8e0 1cbe 91c1 833e c00f f63d 12d8 69bd
00000260: 91c3 acbe 1817 92bd bbc0 653d da06 353d
00000270: 2baf 13bd b85a bf3e b67b e43d 2951 99be
00000280: 6863 743e 2311 113f 9171 47bc a7c3 7dbe
00000290: 001a 0a3e 775a 8a3e 4d9a 1c3f 2ae5 be3d
000002a0: de54 283f c592 3bbd aab4 94bd 7b6b 653b
000002b0: 3755 19be ea0c 0ebf 68cb e13e ffe3 ff3d
000002c0: a9d3 1ebe 9e97 1a3f dc75 623e 6bb3 62be
000002d0: f379 14bf 5593 30be 1490 bd3d 50ab de3e
000002e0: d7c3 c13e 22ab 3c3e cd9f a33e aed4 9f3e
000002f0: d224 463c 7f08 f7bc 48b7 f73c 6319 06be
00000300: 5942 05be 83a9 893e 50c8 2c3d 3527 3d3f
00000310: af49 ab3e d3cb 22be 0d9f 7a3e 3b26 eebb
00000320: 83a9 f13e 2f10 0ebf 0cf0 4f3e e7ef e63d
00000330: c04c 5cbe d61d c63d 0a4b 923e cb8f 12bf
00000340: be83 e7be 219d 9c3e 555b 4e3f 6e75 1cbe
00000350: 8c92 583e 0b01 913b a495 9d3e 816c 61be
00000360: 0475 563e 631b 90bc 862c 483d 35d7 4bbd
00000370: eaeb 08bf 921e c8be cea7 203f 3fd4 74bd
00000380: 6c96 e23d 25ba 8a3e 5b5a 87bd b16d 88be
00000390: c7a3 ce3c ab6f a13e 0fbf a8be e5ad d7be
000003a0: dccc 69be 625c 893e 1774 5e3e 2ffb 0ebe
000003b0: c89a 013f 0981 e23e b165 34bd a3d5 5abe
000003c0: 4ba3 e9be 8153 bfbd aa2f 01be e7db 48be
000003d0: b2dc 30be a54a 063c 2340 e6be 7b67 76be
000003e0: 9ad0 c6be 4f95 75bd 5ece 63be 0581 b13e
000003f0: 8b46 0abf 2f30 a9bd 2da2 7fbd e9c3 353f

dec_embedding.position_embedding.pe f4 [1, 5000, 16]
0.0 1.0 0.0 1.0 0.0 1.0 0.0 1.0
0.0 1.0 0.0 1.0 0.0 1.0 0.0 1.0
0.84147096 0.54030234 0.3109836 0.9504153 0.099833414 0.9950042 0.031617504 0.99950004
0.009999833 0.99995 0.0031622713 0.999995 0.0009999998 0.9999995 0.00031622782 0.99999994
0.9092974 -0.41614684 0.5911271 0.8065784 0.19866931 0.9800666 0.063203394 0.9980007
0.019998666 0.9998 0.006324511 0.99998003 0.0019999985 0.99999803 0.0006324556 0.9999998
0.14112 -0.9899925 0.8126489 0.58275366 0.2955202 0.9553365 0.094726086 0.99550337
0.0299955 0.99955004 0.009486687 0.999955 0.0029999954 0.9999955 0.00094868336 0.9999996
-0.7568025 -0.6536436 0.95358074 0.30113748 0.38941833 0.921061 0.12615407 0.99201065
0.039989334 0.9992001 0.01264877 0.99992 0.003999989 0.999992 0.0012649109 0.9999992
-0.9589243 0.2836622 0.99994653 -0.010342338 0.47942552 0.87758255 0.15745588 0.987526
0.049979165 0.99875027 0.015810724 0.999875 0.004999979 0.9999875 0.0015811383 0.99999875
-0.2794155 0.96017027 0.9471482 -0.3207964 0.5646424 0.8253356 0.18860027 0.98205394
0.059964005 0.99820054 0.018972522 0.99982 0.0059999637 0.999982 0.0018973658 0.9999982
0.6569866 0.75390226 0.8004216 -0.5994375 0.6442176 0.7648422 0.2195561 0.9755999
0.06994285 0.997551 0.022134129 0.999755 0.006999942 0.9999755 0.0022135929 0.99999756
0.98935825 -0.14550003 0.5743178 -0.8186324 0.717356 0.6967067 0.25029233 0.9681703
0.07991469 0.9968017 0.025295515 0.99968004 0.007999914 0.999968 0.0025298197 0.9999968
0.4121185 -0.91113025 0.29125923 -0.9566442 0.78332686 0.62161 0.28077832 0.95977265
0.089878544 0.9959527 0.028456647 0.99959505 0.008999879 0.9999595 0.0028460464 0.99999595
-0.5440211 -0.8390715 -0.02068357 -0.9997861 0.84147096 0.54030234 0.31098357 0.9504153
0.099833414 0.9950042 0.031617496 0.99950004 0.009999833 0.99995 0.0031622727 0.999995
-0.9999902 0.004425698 -0.33057496 -0.94377977 0.89120734 0.4535962 0.34087786 0.9401076
0.1097783 0.9939561 0.03477803 0.9993951 0.010999777 0.9999395 0.003478499 0.999994
-0.53657293 0.84385395 -0.6076834 -0.7941793 0.9320391 0.36235783 0.3704313 0.9288599
0.119712204 0.99280864 0.03793821 0.9992801 0.011999711 0.999928 0.0037947248 0.9999928
0.42016703 0.9074468 -0.82452846 -0.5658205 0.9635582 0.26749888 0.3996143 0.9166834
0.12963414 0.9915619 0.041098017 0.9991551 0.012999633 0.9999155 0.00411095 0.99999154
0.9906074 0.13673721 -0.9596054 -0.28134948 0.98544973 0.16996728 0.42839777 0.90359026
0.13954312 0.990216 0.044257414 0.99902016 0.013999541 0.999902 0.004427175 0.9999902
0.65028787 -0.7596879 -0.9995187 0.031022351 0.997495 0.07073732 0.45675287 0.8895936
0.14943813 0.9887711 0.047416367 0.9988752 0.014999436 0.9998875 0.0047433996 0.99998873
00000000: 0000 0000 0000 803f 0000 0000 0000 803f
00000010: 0000 0000 0000 803f 0000 0000 0000 803f
00000020: 0000 0000 0000 803f 0000 0000 0000 803f
00000030: 0000 0000 0000 803f 0000 0000 0000 803f
00000040: a46a 573f 4151 0a3f 3e39 9f3e 6b4e 733f
00000050: 7675 cc3d 98b8 7e3f 5b81 013d 3cdf 7f3f
00000060: 57d6 233c b9fc 7f3f 1c3e 4f3b acff 7f3f
00000070: 6d12 833a f8ff 7f3f 61cb a539 ffff 7f3f
00000080: b7c7 683f 3311 d5be 1b54 173f ec7b 4e3f
00000090: f86f 4b3e a5e5 7a3f c870 813d f97c 7f3f
000000a0: 3ed4 a33c e5f2 7f3f d83d cf3b b1fe 7f3f
000000b0: 6812 033b dfff 7f3f 60cb 253a fdff 7f3f
000000c0: c381 103e 2670 7dbf c209 503f 582f 153f
000000d0: 6c4e 973e ef90 743f c0ff c13d 4fd9 7e3f
000000e0: 1fb9 f53c 83e2 7f3f 0d6e 1b3c 0dfd 7f3f
000000f0: 929b 443b b5ff 7f3f 10b1 783a f9ff 7f3f
00000100: cfbd 41bf 3055 27bf de1d 743f b12e 9a3e
00000110: d761 c73e a7ca 6b3f 882e 013e 69f4 7d3f
00000120: dbcb 233d 94cb 7f3f c93c 4f3c c2fa 7f3f
00000130: 5712 833b 7aff 7f3f 5ecb a53a f3ff 7f3f
00000140: 107c 75bf 2c3c 913e 7ffc 7f3f e972 29bc
00000150: 4377 f53e 40a9 603f 1d3c 213e 81ce 7c3f
00000160: f4b6 4c3d 19ae 7f3f 7e85 813c cff7 7f3f
00000170: ddd6 a33b 2eff 7f3f 333e cf3a ebff 7f3f
00000180: 8c0f 8fbe b8cd 753f 4e78 723f 6d3f a4be
00000190: 688c 103f 3249 533f 6e20 413e e367 7b3f
000001a0: d19c 753d 128a 7f3f 436c 9b3c 34f4 7f3f
000001b0: 589b c43b d2fe 7f3f 08b1 f83a e2ff 7f3f
000001c0: 4630 283f bdff 403f 6ee8 4c3f bc74 19bf
000001d0: 72eb 243f b3cc 433f 50d3 603e eac0 793f
000001e0: 323e 8f3d 815f 7f3f a252 b53c f2ef 7f3f
000001f0: c55f e53b 65fe 7f3f ed11 113b d7ff 7f3f
00000200: 9546 7d3f f6fd 14be 7e06 133f e591 51bf
00000210: a5a4 373f 5f5b 323f 5126 803e 02da 773f
00000220: 50aa a33d 652e 7f3f 8a38 cf3c 08eb 7f3f
00000230: 1212 033c e7fd 7f3f 55cb 253b caff 7f3f
00000240: 3201 d33e d53f 69bf ee1f 953e a2e6 74bf
00000250: 1c88 483f d521 1f3f 2dc2 8f3e a9b3 753f
00000260: 3e12 b83d c2f6 7e3f ea1d e93c 76e5 7f3f
00000270: 3a74 133c 59fd 7f3f bc84 3a3b bcff 7f3f
00000280: f844 0bbf 64cd 56bf 9770 a9bc fbf1 7fbf
00000290: a46a 573f 4151 0a3f 3d39 9f3e 6b4e 733f
000002a0: 7675 cc3d 98b8 7e3f 5981 013d 3cdf 7f3f
000002b0: 57d6 233c b9fc 7f3f 223e 4f3b acff 7f3f
000002c0: 5cff 7fbf 7205 913b 1f41 a9be 8d9b 71bf
000002d0: 2a26 643f c33d e83e 8b87 ae3e e4aa 703f
000002e0: 72d3 e03d e873 7e3f 6873 0e3d 5bd8 7f3f
000002f0: 6938 343c 09fc 7f3f 87f7 633b 9bff 7f3f
00000300: d85c 09bf d006 583f 2491 1bbf 564f 4bbf
00000310: 1d9a 6e3f f786 b93e 2ca9 bd3e c3c9 6d3f
00000320: ac2b f53d b528 7e3f 1965 1b3d d2d0 7f3f
00000330: 709a 443c 48fb 7f3f ebb0 783b 87ff 7f3f
00000340: 2220 d73e 6f4e 683f 4c14 53bf 9dd9 10bf
00000350: c0ab 763f 9df5 883e 3f9a cc3e c3ab 6a3f
00000360: d0be 043e 00d7 7d3f 6556 283d a1c8 7f3f
00000370: 6afc 543c 76fa 7f3f 26b5 863b 72ff 7f3f
00000380: 7298 7d3f d704 0c3e b3a8 75bf 0a0d 90be
00000390: 6f46 7c3f e70b 2e3e f456 db3e b151 673f
000003a0: 64e4 0e3e cc7e 7d3f 4347 353d c9bf 7f3f
000003b0: 555e 653c 94f9 7f3f d611 913b 5cff 7f3f
000003c0: 4479 263f e87a 42bf 75e0 7fbf 9622 fe3c
000003d0: d55b 7f3f bade 903d 83db e93e 68bc 633f
000003e0: 4f06 193e 1a20 7d3f aa37 423d 49b6 7f3f
000003f0: 32c0 753c a1f8 7f3f 856e 9b3b 43ff 7f3f

dec_embedding.temporal_embedding.embed.weight f4 [16, 4]
0.51578975 0.27417725 -0.44895846 0.44628966 -0.30816033 0.034202226 0.4010151 -0.15753959
0.18407358 0.07377688 0.35518557 -0.24405573 0.21356896 0.2753184 -0.10181527 0.34730506
0.006241896 0.36188728 -0.15690021 0.3330983 0.48975942 0.3545795 0.32618794 0.49555412
0.04959158 0.42095256 0.39735746 -0.12249955 0.31285512 -0.16219991 -0.33634663 -0.4163371
-0.41812667 0.11083011 0.3949126 0.07773994 0.35403696 -0.4147776 0.024941139 0.32589677
-0.18590648 0.19770704 -0.23882474 0.3698785 -0.30565584 0.21924505 -0.16055721 0.23871534
0.39362657 -0.172647 -0.49751592 -0.07617276 -0.5154181 0.30591604 0.14212835 -0.028462045
-0.15369369 -0.062495705 0.37631124 -0.065248586 0.33480197 -0.4160233 -0.43940967 -0.29438293
00000000: cc0a 043f f660 8c3e e2dd e5be 1480 e43e
00000010: 31c7 9dbe a217 0c3d da51 cd3e 0f52 21be
00000020: c97d 3c3e 5518 973d e2da b53e bfe9 79be
00000030: d2b1 5a3e 89f6 8c3e 8684 d0bd f8d1 b13e
00000040: d288 cc3b 4a49 b93e 73aa 20be dc8b aa3e
00000050: bfc1 fa3e 728b b53e 1b02 a73e 45b9 fd3e
00000060: 8a20 4b3d 1887 d73e 7072 cb3e 0be1 fabd
00000070: 8c2e a03e bc17 26be a035 acbe 232a d5be
00000080: b314 d6be e6fa e23d fc31 ca3e 1e36 9f3d
00000090: 5544 b53e bb5d d4be 5c51 cc3c f1db a63e
000000a0: 455e 3ebe b773 4a3e 798e 74be b760 bd3e
000000b0: ec7e 9cbe c681 603e 1c69 24be cb71 743e
000000c0: 6c89 c93e 60ca 30be 68ba febe 7700 9cbd
000000d0: 71f2 03bf 07a1 9c3e 188a 113e 3c29 e9bc
000000e0: e161 1dbe 7ffb 7fbd deab c03e 0da1 85bd
000000f0: 2a6b ab3e 0201 d5be 4efa e0be 5cb9 96be

encoder.attn_layers.0.attention.query_projection.weight f4 [16, 16]
0.17040195 -0.057418752 -0.07850037 0.041221775 0.20565908 -0.1432713 -0.12125245 0.07778124
0.13303503 0.053091325 -0.2188112 -0.20323634 0.002763119 0.09930313 0.031693723 -0.19319256
0.097984076 -0.02282684 0.07975459 -0.16500722 -0.09452837 -0.0241018 0.0107632335 0.07288029
-0.1234468 0.055050388 0.13567214 0.013066732 -0.040968414 0.19020967 0.19478324 0.19655627
-0.10048322 0.13944574 0.084011465 0.097468756 0.07071933 -0.037238814 0.0081854435 0.16329287
-0.1780262 -0.24241541 -0.19393542 -0.0332803 -0.106377155 0.07739065 0.11656081 0.1160738
0.045463294 0.02271871 -0.15392317 0.047431465 0.12536147 0.112857975 -0.09403763 0.07752381
-0.2385447 0.18537766 0.12044613 -0.006353531 -0.16217484 0.18665473 -0.19443788 0.18347605
-0.06545885 0.10137204 -0.1421022 -0.017137142 0.023950925 0.21966146 -0.11919836 -0.19800422
-0.045608863 -0.09241744 -0.1414853 -0.0699242 -0.10525759 0.12056599 -0.08009332 0.10607568
0.13073944 0.06769415 -0.12529396 -0.10341194 -0.0029181754 -0.020301236 0.23160793 0.23324609
-0.21718316 0.014844106 -0.13193093 0.14308558 -0.19027539 -0.051231395 0.16363911 -0.1606504
0.15685299 -0.15874487 0.2432438 0.06722652 -0.02885387 0.023353279 0.09077574 -0.13892217
0.20144483 0.1574645 -0.19850866 0.074623786 0.23751217 -0.0884007 0.23895419 -0.12756622
-0.20328268 -0.2012634 0.099901214 0.22081375 0.15551947 -0.025938729 0.18395036 0.08339897
-0.15399829 0.056294046 -0.023470579 0.14447159 0.23390774 -0.03523099 0.107013725 -0.22518761
-0.036615085 -0.12198338 -0.01254267 -0.17157479 0.06973975 0.16558968 -0.19564126 0.22080305
0.1184135 -0.12873845 0.012596912 -0.15708406 0.22786742 -0.18867426 0.2324724 -0.11920996
0.087197654 -0.15151592 0.010952178 0.11134687 0.013594861 0.08771558 -0.08727904 -0.13920769
-0.20733877 -0.21852309 -0.07016475 0.033896383 -0.034021024 -0.0655694 -0.1955615 -0.038616836
0.16981821 -0.08462238 -0.16623226 0.05924059 -0.15977131 -0.04591217 0.041634433 0.015162952
0.19579597 0.13375819 -0.21369585 0.041654054 0.020739265 0.06291904 0.14413452 0.17105642
-0.133682 0.15347336 0.07734107 0.0042638727 0.1261018 0.15289697 -0.16494061 -0.13241532
0.14003709 0.20111422 -0.09237544 -0.14302862 -0.21330531 -0.06933256 -0.011062177 -0.1461419
-0.037577793 -0.05578448 0.03575384 0.14670956 0.16204052 0.09774698 -0.20698628 0.11739963
0.0363387 0.19294727 -0.013854539 0.044280097 -0.20252809 -0.101009205 -0.1462576 -0.1556312
0.045224953 -0.06398715 0.17004272 0.050008357 -0.20004773 -0.015529418 -0.16834602 -0.18160927
-0.05863934 -0.035702717 -0.009149755 -0.17314765 -0.1829132 0.056586254 -0.1259179 -0.13889925
-0.17046739 -0.24707036 -0.027683392 0.14188194 -0.115227945 -0.05028141 -0.09750504 -0.018481389
-0.2171722 -0.24018212 -0.16967878 -0.019683084 -0.1607074 0.06464889 -0.055510286 0.20084256
0.11415053 0.05929147 -0.09000723 -0.22064549 -0.2043609 -0.22772968 0.15969574 -0.10202564
0.07224023 0.19385126 0.19884285 0.07460883 0.14895676 -0.20855704 -0.071509056 -0.20774497
00000000: d97d 2e3e ed2f 6bbd cdc4 a0bd 2ad8 283d
00000010: 4b98 523e b6b5 12be 3453 f8bd c54b 9f3d
00000020: 563a 083e 4a76 593d 0b10 60be 301d 50be
00000030: 7215 353b 705f cb3d 47d1 013d 45d4 45be
00000040: e0ab c83d 5aff babc 6056 a33d a7f7 28be
00000050: 1798 c1bd 2371 c5bc 4658 303c 4342 953d
00000060: add1 fcbd 847c 613d a3ed 0a3e d915 563c
00000070: 7fce 27bd 53c6 423e 4275 473e 0c46 493e
00000080: 25ca cdbd ddca 0e3e 340e ac3d b39d c73d
00000090: 4cd5 903d ba87 18bd 3d1c 063c 3f36 273e
000000a0: 804c 36be bf3b 78be 0297 46be ed50 08bd
000000b0: 44dc d9bd fd7e 9e3d 6fb7 ee3d 1ab8 ed3d
000000c0: b837 3a3d 971c ba3c 099e 1dbe 7f47 423d
000000d0: c25e 003e 1522 e73d cd96 c0bd cec4 9e3d
000000e0: 1045 74be a4d3 3d3e 76ac f63d 4831 d0bb
000000f0: 2911 26be 6b22 3f3e b91a 47be 25e1 3b3e
00000100: 4a0f 86bd 259c cf3d 3d83 11be 3163 8cbc
00000110: bb34 c43c efee 603e 451e f4bd 9ec1 4abe
00000120: 5cd0 3abd 5b45 bdbd 86e1 10be 6b34 8fbd
00000130: 4b91 d7bd 4deb f63d f707 a4bd 353e d93d
00000140: 8fe0 053e 3ba3 8a3d 0f4d 00be a4c9 d3bd
00000150: dc3e 3fbb c74e a6bc a12a 6d3e 10d8 6e3e
00000160: 4365 5ebe b134 733c e718 07be 0785 123e
00000170: 8dd7 42be 03d8 51bd 0391 273e 8a81 24be
00000180: 129e 203e 048e 22be e714 793e 0fae 893d
00000190: f45e ecbc 604f bf3c a2e8 b93d 9d41 0ebe
000001a0: 8e47 4e3e 603e 213e db45 4bbe 5bd4 983d
000001b0: 6436 733e 6d0b b5bd 68b0 743e b8a0 02be
000001c0: 5629 50be fe17 4ebe 0299 cc3d 001d 623e
000001d0: 7f40 1f3e 757d d4bc 7c5d 3c3e 14cd aa3d
000001e0: bab1 1dbe 9694 663d 5f45 c0bc 5cf0 133e
000001f0: 8385 6f3e 5f4e 10bd 032a db3d 9597 66be
00000200: b3f9 15bd 6cd2 f9bd c57f 4dbc 4db1 2fbe
00000210: b7d3 8e3d 5790 293e 2f56 48be 321a 623e
00000220: c782 f23d 03d4 03be 4763 4e3c a5da 20be
00000230: 1456 693e d333 41be 3f0d 6e3e 5a24 f4bd
00000240: af94 b23d fd26 1bbe c470 333c d409 e43d
00000250: fbbc 5e3c 3aa4 b33d 5abf b2bd 768c 0ebe
00000260: 9d50 54be 84c4 5fbe 89b2 8fbd efd6 0a3d
00000270: a159 0bbd 4049 86bd 4641 48be b02c 1ebd
00000280: d3e4 2d3e 804e adbd ca38 2abe 43a6 723d
00000290: 179b 23be 660e 3cbd de88 2a3d 086e 783c
000002a0: bd7e 483e e8f7 083e 16d3 5abe 719d 2a3d
000002b0: 64e5 a93c b3db 803d 0098 133e 6a29 2f3e
000002c0: efe3 08be 1f28 1d3e ff64 9e3d f5b7 8b3b
000002d0: d520 013e 0691 1c3e 31e6 28be e297 07be
000002e0: e265 0f3e e3f0 4d3e 562f bdbd 1876 12be
000002f0: b56c 5abe 3bfe 8dbd 223e 35bc 39a6 15be
00000300: 2ceb 19bd 447e 64bd 9e72 123d 083b 163e
00000310: f3ed 253e 922f c83d 36f4 53be 386f f03d
00000320: e4d7 143d f893 453e 26fe 62bc 0c5f 353d
00000330: 8663 4fbe eadd cebd 8dc4 15be c95d 1fbe
00000340: cd3d 393d b20b 83bd ae1f 2e3e 90d5 4c3d
00000350: 50d9 4cbe 1a6f 7ebc e662 2cbe c8f7 39be
00000360: ce2f 70bd 033d 12bd dbe8 15bc 9e4d 31be
00000370: 994d 3bbe fdc6 673d 9ff0 00be 9b3b 0ebe
00000380: 018f 2ebe 0300 7dbe 48c8 e2bc 8049 113e
00000390: a1fc ebbd e1f3 4dbd b9b0 c7bd 4866 97bc
000003a0: 6462 5ebe 4df2 75be 46c0 2dbe 6b3e a1bc
000003b0: 7b90 24be a366 843d c15e 63bd aca9 4d3e
000003c0: c1c7 e93d 9ddb 723d b655 b8bd e4f0 61be
000003d0: fc43 51be f831 69be 4887 233e d2f2 d0bd
000003e0: b0f2 933d f280 463e 769d 4b3e 84cc 983d
000003f0: 1f88 183e fa8f 55be 5773 92bd 19bb 54be

encoder.attn_layers.0.attention.query_projection.bias f4 [16]
0.15322945 -0.030418506 0.1972186 0.08559398 0.11180911 -0.24663825 0.11349942 0.123811334
-0.24527462 -0.18610878 -0.07563492 -0.01737669 0.18134448 -0.17207107 -0.24489884 -0.09862338
00000000: 2ee8 1c3e 3b30 f9bc acf3 493e e64b af3d
00000010: 2dfc e43d bd8e 7cbe 6272 e83d cc90 fd3d
00000020: 4529 7bbe 4d93 3ebe 7be6 9abd 8f59 8ebc
00000030: 5eb2 393e 6633 30be c3c6 7abe 0efb c9bd

encoder.attn_layers.0.attention.key_projection.weight f4 [16, 16]
-0.09908143 -0.16995992 -0.046930507 0.086175874 0.16796026 -0.1495878 -0.057335973 -0.12528916
-0.17510322 0.24114783 -0.0741781 -0.22642416 0.12735151 -0.050045427 -0.115985654 -0.10723773
-0.204936 -0.17144881 -0.24509838 0.122842856 0.15132342 -0.1649638 0.07742879 0.2180605
-0.13194413 -0.23911743 -0.23876882 -0.07998973 0.21280475 -0.07547939 0.23444195 0.19466636
0.096991904 0.044083774 -0.020221109 0.06942529 -0.20693234 -0.2101737 0.034369275 -0.08964816
-0.159866 -0.0626179 0.14030245 0.16653512 0.10798349 0.019596405 -0.13283005 0.236736
0.13891609 -0.069581784 -0.0013067322 -0.0016648077 -0.035010282 0.22521256 0.14850977 0.2348904
-0.057715327 0.010574521 0.09121543 -0.15497984 0.2216899 -0.13473408 -0.07389628 -0.052248903
-0.051573418 -0.048713706 -0.086060606 0.16413906 0.09430444 0.14997539 0.10087184 -0.20184687
-0.06624823 0.049104102 -0.1483007 -0.15581515 0.23539987 0.19499204 -0.086592786 0.16291992
-0.14916377 0.056789108 0.13368098 0.11969177 -0.040151346 0.18979225 -0.13748653 -0.22114159
0.25304845 0.18397692 0.21387804 0.11822997 0.087820575 0.10333893 -0.0820769 -0.19212675
-0.035474543 -0.20852831 -0.087201826 0.06894766 -0.07586461 -0.13201487 -0.089058615 -0.08469697
0.1940732 -0.15517318 0.010236695 0.007137028 -0.061849788 0.041786533 0.24128032 -0.1600498
-0.15322371 -0.24083805 0.0056948513 -0.2118533 0.1780929 0.108042784 -0.13059704 0.13707387
-0.19356029 0.11591416 0.19627345 -0.19579758 0.16872033 -0.18740626 0.0057579414 0.22918499
-0.20362914 0.1859174 -0.042930253 -0.18822631 0.13245729 0.18793303 0.11696723 0.21315171
-0.088252276 0.15198688 -0.2074556 -0.1746745 0.011398151 0.10143831 0.14591421 0.13844806
-0.16114415 0.058831297 0.0077773714 -0.13152161 -0.17691024 0.024690857 0.11676282 0.0695064
0.15944299 0.08904734 -0.16646154 -0.15128303 0.21880242 0.020132875 0.23088068 -0.20299068
0.20104662 -0.12586495 -0.015031594 0.21443056 0.058529507 -0.063274294 0.036452625 -0.13109924
-0.10200295 -0.16186455 0.11057331 -0.17066936 -0.046577275 0.22010142 0.06330114 -0.18035482
-0.1422716 -0.22315319 0.19185823 -0.22928925 0.040448345 -0.20791176 -0.009939066 0.108065896
0.09171549 0.17351921 0.16816622 -0.22338523 -0.1718247 0.060854305 -0.10562151 -0.03427564
-0.17356737 0.114021525 0.19169477 -0.23042291 0.09796283 0.06006177 -0.14307983 -0.15502787
-0.16670217 -0.06029344 -0.11438168 -0.20189933 -0.009075004 -0.005501028 0.13811108 0.16365352
0.15532166 0.09239105 -0.23026781 -0.17083105 -0.11256204 0.12922792 -0.21829377 0.20739314
-0.08372502 -0.13831866 0.19788173 0.16855562 -0.08040548 -0.095306806 -0.11174973 -0.079841726
0.06410588 0.03755011 -0.036138393 0.02367727 -0.12204716 0.058623247 -0.22090055 -0.053057354
-0.24308066 -0.10506829 -0.048506536 0.01161561 0.17357025 -0.236563 0.12184477 0.17801763
-0.22141236 0.04764877 0.07043198 -0.24322596 0.23069425 0.24489224 -0.11225379 -0.1886969
0.12627324 -0.15275855 -0.20546712 0.076515645 0.076025955 0.012646177 0.178398 0.19668089
00000000: 34eb cabd f909 2ebe 343a 40bd fa7c b03d
00000010: c6fd 2b3e 8b2d 19be 20d9 6abd cd4b 00be
00000020: 424e 33be 75ef 763e b0ea 97bd bcdb 67be
00000030: 6f68 023e 6ffc 4cbd e389 edbd 749f dbbd
00000040: beda 51be 4790 2fbe 12fb 7abe 0995 fb3d
00000050: 87f4 1a3e 45ec 28be fc92 9e3d 404b 5f3e
00000060: 5d1c 07be 33db 74be d07f 74be a8d1 a3bd
00000070: 7de9 593e f094 9abd 8d11 703e 9e56 473e
00000080: b1a3 c63d 3091 343d bda6 a5bc d92e 8e3d
00000090: 12e6 53be c637 57be ccc6 0c3d 7499 b7bd
000000a0: eab3 23be d03d 80bd 72ab 0f3e 2f88 2a3e
000000b0: 7326 dd3d a488 a03c 9a04 08be ec6a 723e
000000c0: 0540 0e3e e580 8ebd a846 abba ad35 daba
000000d0: f166 0fbd 1f9e 663e f212 183e 1c87 703e
000000e0: e866 6cbd c140 2d3c 28cf ba3d 09b3 1ebe
000000f0: ad02 633e bbf7 09be ef56 97bd f202 56bd
00000100: a63e 53bd 0688 47bd 8b40 b0bd 1214 283e
00000110: b022 c13d 2693 193e e595 ce3d f2b0 4ebe
00000120: 27ad 87bd 6221 493d 24dc 17be 028e 1fbe
00000130: aa0c 713e feab 473e 8f57 b1bd 7bd4 263e
00000140: 63be 18be b29b 683d abe3 083e f520 f53d
00000150: bd75 24bd e658 423e 45c9 0cbe f172 62be
00000160: 918f 813e 7264 3c3e d802 5b3e 8e22 f23d
00000170: 46db b33d 5ca3 d33d ef17 a8bd e0bc 44be
00000180: c14d 11bd 7288 55be df96 b2bd 6e34 8d3d
00000190: e85e 9bbd e82e 07be 5d64 b6bd 9b75 adbd
000001a0: 20bb 463e b8e5 1ebe d0b7 273c bbdd e93b
000001b0: 3456 7dbd 5b28 2b3d 3012 773e 18e4 23be
000001c0: ade6 1cbe 409e 76be e09b ba3b 12f0 58be
000001d0: fc5d 363e 8945 dd3d 3bbb 05be 185d 0c3e
000001e0: ab34 46be 6764 ed3d e8fb 483e 297f 48be
000001f0: 06c5 2c3e 6de7 3fbe 1dad bc3b 78af 6a3e
00000200: 2884 50be 2261 3e3e a2d7 2fbd 66be 40be
00000210: e2a2 073e 8471 403e 848c ef3d 7144 5a3e
00000220: 9cbd b4bd 73a2 1b3e 3e6f 54be dfdd 32be
00000230: 4fbf 3a3c e4be cf3d 896a 153e 54c5 0d3e
00000240: f902 25be 16f9 703d 52d9 fe3b 9aad 06be
00000250: f527 35be 7b44 ca3c 5821 ef3d 5f59 8e3d
00000260: 0645 233e 745e b63d e574 2abe f0e9 1abe
00000270: be0d 603e b3ed a43c fc6b 6c3e cadc 4fbe
00000280: 2adf 4d3e bee2 00be 1347 76bc af93 5b3e
00000290: a3bc 6f3d f495 81bd 594f 153d e13e 06be
000002a0: ece6 d0bd d2bf 25be 4274 e23d f3c3 2ebe
000002b0: d0c7 3ebd 4462 613e 07a4 813d efae 38be
000002c0: a5af 11be 4582 64be 7c76 443e cdca 6abe
000002d0: 2aad 253d d2e6 54be 77d7 22bc a751 dd3d
000002e0: 55d5 bb3d 05af 313e c433 2c3e 19bf 64be
000002f0: d0f2 2fbe 5d42 793d 1750 d8bd 9d64 0cbd
00000300: a5bb 31be 1e84 e93d a24b 443e fcf3 6bbe
00000310: bca0 c83d 5503 763d 8583 12be a0bf 1ebe
00000320: f9b3 2abe 41f6 76bd f140 eabd b3be 4ebe
00000330: 53af 14bc f841 b4bb fe6c 0d3e ca94 273e
00000340: a40c 1f3e 8537 bd3d 53cb 6bbe 56ee 2ebe
00000350: ed86 e6bd 5354 043e 6788 5fbe de5e 543e
00000360: 0678 abbd 68a3 0dbe 82a1 4a3e d899 2c3e
00000370: a1ab a4bd 3730 c3bd 0bdd e4bd 0f84 a3bd
00000380: f249 833d 25ce 193d da05 14bd d6f6 c13c
00000390: ddf3 f9bd ee1e 703d c133 62be ab52 59bd
000003a0: 23ea 78be 0b2e d7bd caae 46bd 664f 3e3c
000003b0: 66bc 313e 923d 72be c089 f93d 414a 363e
000003c0: ecb9 62be 5b2b 433d a43e 903d 3a10 79be
000003d0: 1d3b 6c3e 08c5 7a3e 51e5 e5bd c339 41be
000003e0: c64d 013e bd6c 1cbe f965 52be 3cb4 9c3d
000003f0: 7fb3 9b3d e931 4f3c f7ad 363e b766 493e

encoder.attn_layers.0.attention.key_projection.bias f4 [16]
0.0801568 0.08537276 -0.23090966 -0.040760085 -0.1623428 0.07658678 -0.20829007 -0.022300135
-0.13573325 -0.16844758 -0.24368826 0.13601992 0.14908987 -0.18460287 0.05124731 -0.18611449
00000000: 4029 a43d ead7 ae3d 9573 6cbe 0cf4 26bd
00000010: 313d 26be 88d9 9c3d fe49 55be c6ae b6bc
00000020: a8fd 0abe 867d 2cbe 6a89 79be ce48 0b3e
00000030: 04ab 183e 8908 3dbe b3e8 513d cc94 3ebe

encoder.attn_layers.0.attention.value_projection.weight f4 [16, 16]
-0.21696375 -0.14991492 0.21757486 -0.27845508 -0.05270427 0.20799552 -0.07592719 -0.14828244
-0.004099494 0.112527974 -0.13916351 -0.17270409 0.18557046 -0.18479833 -0.057899483 0.029685678
-0.009639501 0.13432156 0.10362856 -0.13034073 0.16344061 -0.059679363 -0.1673926 -0.06396415
-0.1388546 -0.052633557 0.079082005 0.14269695 0.20553447 0.030774718 0.033495948 0.056105543
-0.06925841 0.001657265 0.10139726 -0.21982916 -0.13216418 -0.06664524 0.108266436 0.018284919
0.05069165 0.12978764 0.12840696 0.022251256 -0.05286657 -0.09432572 -0.019069495 0.017093517
-0.036965962 -0.20524329 -0.061887823 0.118002586 0.25790966 0.1279585 -0.028587723 0.06788211
0.22710226 -0.2281868 0.1279146 -0.2136285 -0.16426334 -0.11198432 -0.13202898 -0.26855853
-0.23838022 0.072575934 -0.12618019 -0.056100573 -0.1274065 0.21711822 0.015671154 0.06720357
0.06543666 -0.06349367 0.2686447 0.0069197016 -0.23289965 -0.2567725 0.13139988 0.23147286
0.13076141 -0.04170188 0.25508863 0.2086573 0.13946286 0.15355362 0.056583025 -0.16849019
0.20900784 -0.11045597 -0.14194892 0.11414201 -0.043738812 0.19862358 -0.1255849 -0.011166343
-0.18742402 -0.010465508 0.1334624 -0.21755446 -0.044744074 0.13750172 0.14943124 -0.027658423
-0.10408111 0.021429256 0.17127144 0.019480797 -0.11366395 -0.07139699 -0.11559118 0.15134038
0.10614144 -0.06352216 0.17807376 0.21846 0.054357093 -0.19822583 0.24522184 0.012002761
-0.11109377 0.08292685 0.1917838 0.21904896 -0.046298817 0.2076835 0.013114917 -0.017663114
0.12254328 -0.10449357 -0.06398177 0.08035186 0.10931768 0.19802605 -0.07880211 -0.061623447
-0.049329642 0.012866787 -0.06400818 0.08837542 -0.13414334 -0.17165881 0.13031575 -0.26694348
-0.13704814 0.030792885 -0.27663118 0.037266757 0.20307551 -0.05191326 -0.2051625 -0.0892437
-0.1330267 -0.07880216 -0.08654948 -0.1865821 -0.059742965 -0.081740834 0.17223862 -0.14451247
0.08716342 -0.017332744 -0.2141773 -0.11398161 -0.23320498 0.14392239 -0.14779645 -0.02878702
-0.038976766 -0.026540339 0.08625112 -0.24635954 -0.0076365145 0.013333994 -0.07553559 0.05692786
-0.1533691 0.26064584 -0.1345866 -0.20027862 0.1818895 -0.13892245 0.019021438 0.16598564
0.15864025 0.18654975 -0.1425247 0.0076185344 -0.023996625 -0.16874294 0.067380704 -0.07723109
0.09052069 -0.016990844 0.020819886 -0.08275021 0.24044359 -0.14217186 0.033765316 -0.18635342
-0.17290752 -0.11607629 -0.18871425 0.08125059 -0.062266298 -0.18492939 0.1467267 -0.18929921
0.1934081 -0.14265366 0.18026051 0.12428027 -0.040204085 0.1669837 -0.061213225 0.11170054
-0.05958149 0.14161727 0.13647977 -0.14024277 -0.050497003 -0.25207004 -0.15527871 0.017601507
-0.10339569 -0.19125217 -0.21519712 0.20342447 -0.21972159 -0.2132429 -0.079638645 0.1919326
-0.16208929 -0.09279232 -0.13718617 -0.04683188 0.10935974 -0.0036163991 -0.09256788 -0.03538245
0.180379 0.13160713 -0.008945645 0.14634098 -0.18382479 -0.14863811 0.11158022 0.082341045
-0.07120528 -0.017962907 -0.009328707 -0.20783679 -0.10832741 -0.19398978 0.0855781 0.078723796
00000000: bf2b 5ebe 4c83 19be f2cb 5e3e aa91 8ebe
00000010: 6fe0 57bd c7fc 543e b77f 9bbd 5ad7 17be
00000020: 0c55 86bb 1175 e63d e180 0ebe 57d9 30be
00000030: 2f06 3e3e c63b 3dbe 0228 6dbd 612f f33c
00000040: ffee 1dbc 978b 093e 363b d43d 0a78 05be
00000050: fa5c 273e 5972 74bd f768 2bbe a3ff 82bd
00000060: e62f 0ebe 4996 57bd bff5 a13d 261f 123e
00000070: a177 523e 431b fc3c 0c33 093d edce 653d
00000080: 5ad7 8dbd 9638 d93a 5ea9 cf3d e51a 61be
00000090: 0c56 07be 4d7d 88bd cbba dd3d 41ca 953c
000000a0: 0ca2 4f3d 0de7 043e 1d7d 033e 4448 b63c
000000b0: 9e8a 58bd d82d c1bd a137 9cbc b407 8c3c
000000c0: 9f69 17bd 4c2b 52be 167e 7dbd 57ab f13d
000000d0: bc0c 843e 8e07 033e cd30 eabc c705 8b3d
000000e0: 7f8d 683e cda9 69be 0bfc 023e 6ec1 5abe
000000f0: a634 28be 0958 e5bd 9b32 07be 8180 89be
00000100: f219 74be b1a2 943d 6135 01be b7c9 65bd
00000110: d976 02be 3d54 5e3e cb60 803c 06a2 893d
00000120: a803 863d f808 82bd cc8b 893e aabe e23b
00000130: 3f7d 6ebe af77 83be b18d 063e 3907 6d3e
00000140: 52e6 053e 97cf 2abd fa9a 823e 42aa 553e
00000150: 5acf 0e3e 293d 1d3e 9ac3 673d b188 2cbe
00000160: 2706 563e bd36 e2bd 0f5b 11be 49c3 e93d
00000170: 7827 33bd fb63 4b3e 5499 00be 0af3 36bc
00000180: 15ec 3fbe 8677 2bbc 5eaa 083e 99c6 5ebe
00000190: 9045 37bd 40cd 0c3e 8104 193e eb93 e2bc
000001a0: 7a28 d5bd 688c af3c c861 2f3e 3196 9f3c
000001b0: a5c8 e8bd 9638 92bd 12bb ecbd f9f8 1a3e
000001c0: af60 d93d e817 82bd f858 363e fab3 5f3e
000001d0: 8ba5 5e3d b6fb 4abe 6f1b 7b3e 3aa7 443c
000001e0: 2185 e3bd 8dd5 a93d f962 443e 5f4e 603e
000001f0: d4a3 3dbd fcaa 543e f3df 563c 3cb2 90bc
00000200: f9f7 fa3d ba00 d6bd e008 83bd 848f a43d
00000210: f3e1 df3d 57c7 4a3e 0063 a1bd de68 7cbd
00000220: e10d 4abd 37cf 523c b816 83bd 2cfe b43d
00000230: df5c 09be 54c7 2fbe 7e71 053e d1ac 88be
00000240: 5956 0cbe 5c41 fc3c 9aa2 8dbe 07a5 183d
00000250: 07f3 4f3e 00a3 54bd 1e16 52be 67c5 b6bd
00000260: 2738 08be 0763 a1bd db40 b1bd 610f 3fbe
00000270: 0ab5 74bd bd67 a7bd 525f 303e 14fb 13be
00000280: bc82 b23d 66fd 8dbc 4b51 5bbe 316f e9bd
00000290: 49cd 6ebe 6460 133e f457 17be c2d2 ebbc
000002a0: 1aa6 1fbd 206b d9bc 6da4 b03d ad45 7cbe
000002b0: ba3b fabb d376 5a3c 67b2 9abd 302d 693d
000002c0: ca0c 1dbe 5f73 853e 12d1 09be d715 4dbe
000002d0: 3e41 3a3e b041 0ebe d9d2 9b3c 24f8 293e
000002e0: 9772 223e e606 3f3e fff1 11be e6a4 f93b
000002f0: 9294 c4bc f3ca 2cbe e5fe 893d 552b 9ebd
00000300: e962 b93d 6230 8bbc 778e aa3c f178 a9bd
00000310: d836 763e 8095 11be 804d 0a3d 6ed3 3ebe
00000320: ab0e 31be 68b9 edbd 4f3e 41be b666 a63d
00000330: f20a 7fbd 215e 3dbe 863f 163e a7d7 41be
00000340: c60c 463e cd13 12be 3696 383e a786 fe3d
00000350: 0aad 24bd c6fd 2a3e b8ba 7abd 41c3 e43d
00000360: b80b 74bd 1e04 113e 5ac1 0b3e cd9b 0fbe
00000370: f2d5 4ebd 530f 81be 6201 1fbe 0931 903c
00000380: 1fc1 d3bd 9cd7 43be a25c 5cbe 814e 503e
00000390: b2fe 60be 595c 5abe 9619 a3bd fb89 443e
000003a0: bcfa 25be e609 bebd 887a 0cbe c9d2 3fbd
000003b0: 00f8 df3d 1c01 6dbb 3b94 bdbd 30ed 10bd
000003c0: 46b5 383e 05c4 063e c190 12bc 69da 153e
000003d0: 913c 3cbe 9734 18be 2c84 e43d 6ca2 a83d
000003e0: 13d4 91bd f226 93bc 6fd7 18bc 2bd3 54be
000003f0: c3da ddbd 42a5 46be 9243 af3d f139 a13d

encoder.attn_layers.0.attention.value_projection.bias f4 [16]
0.12552427 0.23478614 -0.22327273 -0.12855433 -0.1279965 0.10747613 -0.09244612 0.06879327
0.20420104 -0.003154809 -0.18820369 0.10432014 0.14240837 -0.06636148 -0.23061685 0.21112938
00000000: 6f89 003e c76b 703e 9ba1 64be bfa3 03be
00000010: 8411 03be 721c dc3d 6454 bdbd 7ce3 8c3d
00000020: 141a 513e e9c0 4ebb 78b8 40be cca5 d53d
00000030: 80d3 113e 87e8 87bd d326 6cbe 4d32 583e
