checkpoints/336_96_Transformer_ETTh1_ftM_sl336_ll48_pl96_dm16_nh4_el3_dl1_df128_fc1_ebtimeF_dtTrue_Exp_0/checkpoint.pth (torch, 766819 bytes, 86 tensors)

enc_embedding.value_embedding.tokenConv.weight f4 [16, 7, 3]
000000 08 0a 70 3d fc 76 51 3d 0f c3 54 bd e3 3d f5 bd
       0.058603317 0.051138863 -0.051943835 -0.119746946
000010 eb 38 15 bf 01 d7 2b be 35 84 1b 3e 41 97 f3 3e
       -0.58289975 -0.16781236 0.15187152 0.47576335
000020 7e cc e1 be a3 79 8b 3e f1 c1 35 3d 9c 5c 0e 3d
       -0.44101328 0.2724124 0.04437441 0.034756288
000030 d2 7f c9 3e 6f 8e d9 3d e2 a1 38 be 9f b5 fe 3d
       0.39355332 0.1062287 -0.18030503 0.12436985
000040 85 b9 28 bd 91 bb c2 3e 7c 65 4b be 93 c3 93 be
       -0.04119255 0.38033727 -0.19862932 -0.2886015
000050 6b 19 98 be 9b fd ab be 66 e7 b6 be 8c 21 1f 3e
       -0.29706892 -0.33591923 -0.35723418 0.15540141
000060 07 3f 01 bf 6c 02 e0 bc 8d 50 20 3f 3c 7d 22 3e
       -0.504868 -0.027344905 0.6262291 0.15868086
000070 9b b0 95 3c dc f9 c3 bd 9b 38 dc bd 7a e8 85 be
       0.018272689 -0.09569141 -0.10752984 -0.26153928
000080 64 51 b6 3e 43 17 7b bd 95 af 51 3d dd c4 33 be
       0.3560897 -0.06130148 0.05119284 -0.17555566
000090 d5 c3 c2 3d 2b 24 98 3e 36 f3 c7 3d 64 ea bc be
       0.09510008 0.29715094 0.09763186 -0.36897576
0000a0 1a 2d 2d 3e 7b c0 34 3f 25 c6 ed be b7 9f 4c 3e
       0.16911736 0.706062 -0.46440235 0.19982801
0000b0 d1 d3 dc bc e4 97 fa 3d 15 26 b5 be 86 0b 94 3e
       -0.02695647 0.12236002 -0.35380617 0.28915042
0000c0 04 af f6 bd a6 49 d0 3e fd f8 bc be 7a 1e 87 3d
       -0.120451 0.4068119 -0.36908713 0.0659761
0000d0 8f 4a 0a bf 3a 4d 81 3e 38 fd 0f 3e b1 1b b1 bd
       -0.5402002 0.25254232 0.14061439 -0.0864786
0000e0 1a b2 54 3e bd b8 5e be 14 73 b2 bd b8 aa a3 be
       0.20771065 -0.2175016 -0.08713356 -0.31966186
0000f0 60 1d 8b be e6 93 2d be b1 80 c3 3e cf 2b b1 bd
       -0.2717085 -0.1695095 0.3818412 -0.08650934
000100 41 df 19 3e e4 e8 88 3e a6 90 9d bb 25 2b 1c bf
       0.15026571 0.2674018 -0.004808503 -0.61003333
000110 b7 6b e8 3e a6 de 21 3e 97 a4 49 3e 7d bf a3 3e
       0.4539468 0.1580759 0.19691692 0.3198203
000120 16 86 43 3e 58 5b 69 be b3 81 c5 3d c7 3c c0 3d
       0.19094118 -0.22788751 0.09643879 0.09386592
000130 15 0d 80 bc b2 da 8d be d4 a5 2d 3e aa 1c 26 bf
       -0.015631238 -0.27705914 0.1695779 -0.6488749
000140 b6 b3 da 3d 92 7c 41 be 69 5d ff 3e 2d ea 8a 3e
       0.106788084 -0.18895176 0.49875954 0.27131787
000150 d7 61 b8 bd 2d b3 f3 3e e5 b7 a0 3c 45 87 eb be
       -0.090030365 0.47597638 0.019618938 -0.4600164
000160 2f 44 a6 3e 45 34 09 bf ab 8d 7f be 3c 3b 9d be
       0.32473895 -0.5359538 -0.24956386 -0.30709255
000170 7e 10 b1 3e 5b 1c 02 be b7 b7 11 3e 67 4b b8 3e
       0.34582895 -0.12706129 0.14230238 0.35995027
000180 a8 da 2b 3e 36 cf 85 3d d1 7d 96 be 94 c8 44 be
       0.1678263 0.06533663 -0.29392865 -0.1921714
000190 f1 bf 35 bd e0 ff 1f 3f 94 ed f4 bc d0 68 98 3e
       -0.044372503 0.6249981 -0.029898442 0.29767466
0001a0 d7 88 53 bd db 7b 48 bd 20 d4 9a be 5e a5 08 be
       -0.051644173 -0.048946243 -0.30239964 -0.13344333
0001b0 56 df f3 bd 31 a5 43 be fd 02 54 be b2 ca 97 be
       -0.11907832 -0.19105984 -0.20704265 -0.29646832
0001c0 9a a8 f9 3d 9e a1 be 3e 17 69 c7 3d 87 e6 87 3e
       0.12190361 0.3723268 0.09736841 0.26543066
0001d0 b6 b1 89 3d cb 8a 8f 3e 19 33 81 3e ff c9 12 3d
       0.06723349 0.28035578 0.25234297 0.03583717
0001e0 04 81 14 be b4 69 a1 be 33 0a 0d 3f fa 09 ea 3e
       -0.1450234 -0.31525958 0.5509369 0.45710737
0001f0 68 7c 70 be 87 7a 0c bf ee 38 8a 3e 8f e2 7e 3d
       -0.23484957 -0.5487446 0.2699656 0.06222778
000200 2b 48 a8 3e 39 7f ad bd 0b 42 49 3e 05 4d a7 be
       0.3286756 -0.084715314 0.196541 -0.3267595
000210 cd d8 1b 3e 21 2e 42 3f 4a 12 9d 3e 4e c3 79 3e
       0.15219422 0.7585164 0.30678016 0.24390909
000220 f2 08 d6 bc dd df 19 3e a0 d5 47 be ef 32 b4 be
       -0.026127312 0.15026803 -0.19515085 -0.3519511
000230 a3 7b 35 be 1c 1c 9d be c9 f8 44 3d 91 4b e0 3d
       -0.17722945 -0.30685508 0.048088823 0.10951913
000240 23 ff 88 3e 40 e9 1f be c5 50 da 3e 92 22 b4 3e
       0.26757154 -0.15616322 0.42639747 0.35182625
000250 1a fd 00 be 93 1a 6f be 22 1b e4 3e 38 4c 03 3f
       -0.1259655 -0.23349981 0.4455195 0.51288176
000260 48 7f 99 be e6 a4 9b be 5f fa 69 be 20 5a 23 be
       -0.2997992 -0.30399245 -0.22849415 -0.15952349
000270 9c fa 02 3f f1 4c d3 3e f9 ef 1a 3f 51 d1 3f 3e
       0.5116365 0.4126964 0.6052242 0.18732192
000280 ce 20 59 3e f1 0e 0a bf 41 db ca bd 5b 79 eb 3e
       0.2120392 -0.5392905 -0.099051006 0.45991024
000290 57 71 c8 3d 33 f7 9c be 55 1c e4 be 33 50 35 be
       0.09787243 -0.30657348 -0.44552866 -0.17706375
0002a0 70 e6 06 3f 0f 6e 40 be f1 18 20 bf a3 77 41 3f
       0.5269537 -0.18791984 -0.6253806 0.75573176
0002b0 27 86 52 bd ef 10 87 bd 85 f0 60 3c 08 e6 05 be
       -0.05139747 -0.06595027 0.013729219 -0.13076031
0002c0 69 40 f3 bc a1 ac b2 3e 14 8f 5b be 4c 91 9c 3e
       -0.0296938 0.3489733 -0.21441299 0.30579603
0002d0 61 7e 9d be 4d 4f 05 3e 37 c0 6d be a4 a4 73 be
       -0.30760482 0.13018532 -0.23217855 -0.23793274
0002e0 10 fa 6c be ac 88 37 bc bb 93 f6 be f8 f1 b6 be
       -0.23142266 -0.011202019 -0.48159584 -0.35731483
0002f0 87 fb 1a bf b1 93 11 bd 43 21 87 3d 60 98 a3 3e
       -0.6054005 -0.03554124 0.06598141 0.3195219
000300 0e 5c c7 3d 9c 17 07 3f f0 e4 d5 be b4 70 cc be
       0.09734355 0.527704 -0.41776228 -0.39929736
000310 cb 1c ea be 1d ef 13 be e2 48 0d 3f 28 e8 28 3e
       -0.45725092 -0.14446683 0.55189335 0.1649481
000320 44 9f 64 3d 00 5f 9b 3e 54 01 82 bd c1 0d 44 be
       0.05581595 0.30345917 -0.063479096 -0.19145872
000330 4d 41 97 be 7d 6e b1 3e 86 1a 23 3e dd 35 ca 3d
       -0.29542008 0.34654608 0.15928087 0.09873555
000340 7b ba 45 be d3 c9 0c 3f b7 ed 95 3e 67 1d d0 be
       -0.19309418 0.5499546 0.29282925 -0.40647432
000350 b7 21 4b 3b c5 e5 01 3f 02 c4 e6 be 95 0b e0 3d
       0.0030995437 0.50741225 -0.45071417 0.10939709
000360 ad ae b3 3c 27 f1 94 3e 9a fe 7b 3e 0d c0 21 bc
       0.021933878 0.29090235 0.24608842 -0.009872449
000370 18 a4 f1 be 31 ab 00 3f 43 79 3f 3e e8 f1 ff be
       -0.47195506 0.5026122 0.18698601 -0.49989247
000380 d1 48 2d 3e cb 3b d6 3c b3 9b 02 be e9 66 a2 be
       0.16922309 0.026151558 -0.12754707 -0.3171914
000390 d4 7c e1 3d 6c 67 dc 3e 02 e4 87 3d 28 05 4e 3c
       0.11010137 0.43047655 0.06635286 0.0125744715
0003a0 60 e4 1a 3f 39 57 b6 be 8a c4 81 be 3c bb 8b 3e
       0.6050472 -0.3561342 -0.2534526 0.27291286
0003b0 7a b9 39 be 5b 96 85 3d 60 38 a3 bd 2b 7b e0 3e
       -0.1813716 0.06522819 -0.07969737 0.4384397
0003c0 56 a3 8d 3e a3 0e ee 3e 75 6f 1b 3f be ae 02 3e
       0.27663678 0.46495542 0.60716945 0.12761971
0003d0 0c 44 a0 be ef 01 dd 3d dd 99 5a 3e ee ed 46 3e
       -0.31301916 0.107913844 0.21347757 0.194267
0003e0 2f e9 c5 be 35 d3 d9 3e bd 19 05 3f 5f f5 8e 3c
       -0.38654467 0.4254395 0.519924 0.017450986
0003f0 70 27 33 be aa 8f e2 be 3c 81 2c bd 30 79 c9 bd
       -0.17495513 -0.44250232 -0.042115435 -0.09837568

enc_embedding.position_embedding.pe f4 [1, 5000, 16]
000000 00 00 00 00 00 00 80 3f 00 00 00 00 00 00 80 3f
       0.0 1.0 0.0 1.0
000010 00 00 00 00 00 00 80 3f 00 00 00 00 00 00 80 3f
       0.0 1.0 0.0 1.0
000020 00 00 00 00 00 00 80 3f 00 00 00 00 00 00 80 3f
       0.0 1.0 0.0 1.0
000030 00 00 00 00 00 00 80 3f 00 00 00 00 00 00 80 3f
       0.0 1.0 0.0 1.0
000040 a4 6a 57 3f 41 51 0a 3f 3e 39 9f 3e 6b 4e 73 3f
       0.84147096 0.54030234 0.3109836 0.9504153
000050 76 75 cc 3d 98 b8 7e 3f 5b 81 01 3d 3c df 7f 3f
       0.099833414 0.9950042 0.031617504 0.99950004
000060 57 d6 23 3c b9 fc 7f 3f 1c 3e 4f 3b ac ff 7f 3f
       0.009999833 0.99995 0.0031622713 0.999995
000070 6d 12 83 3a f8 ff 7f 3f 61 cb a5 39 ff ff 7f 3f
       0.0009999998 0.9999995 0.00031622782 0.99999994
000080 b7 c7 68 3f 33 11 d5 be 1b 54 17 3f ec 7b 4e 3f
       0.9092974 -0.41614684 0.5911271 0.8065784
000090 f8 6f 4b 3e a5 e5 7a 3f c8 70 81 3d f9 7c 7f 3f
       0.19866931 0.9800666 0.063203394 0.9980007
0000a0 3e d4 a3 3c e5 f2 7f 3f d8 3d cf 3b b1 fe 7f 3f
       0.019998666 0.9998 0.006324511 0.99998003
0000b0 68 12 03 3b df ff 7f 3f 60 cb 25 3a fd ff 7f 3f
       0.0019999985 0.99999803 0.0006324556 0.9999998
0000c0 c3 81 10 3e 26 70 7d bf c2 09 50 3f 58 2f 15 3f
       0.14112 -0.9899925 0.8126489 0.58275366
0000d0 6c 4e 97 3e ef 90 74 3f c0 ff c1 3d 4f d9 7e 3f
       0.2955202 0.9553365 0.094726086 0.99550337
0000e0 1f b9 f5 3c 83 e2 7f 3f 0d 6e 1b 3c 0d fd 7f 3f
       0.0299955 0.99955004 0.009486687 0.999955
0000f0 92 9b 44 3b b5 ff 7f 3f 10 b1 78 3a f9 ff 7f 3f
       0.0029999954 0.9999955 0.00094868336 0.9999996
000100 cf bd 41 bf 30 55 27 bf de 1d 74 3f b1 2e 9a 3e
       -0.7568025 -0.6536436 0.95358074 0.30113748
000110 d7 61 c7 3e a7 ca 6b 3f 88 2e 01 3e 69 f4 7d 3f
       0.38941833 0.921061 0.12615407 0.99201065
000120 db cb 23 3d 94 cb 7f 3f c9 3c 4f 3c c2 fa 7f 3f
       0.039989334 0.9992001 0.01264877 0.99992
000130 57 12 83 3b 7a ff 7f 3f 5e cb a5 3a f3 ff 7f 3f
       0.003999989 0.999992 0.0012649109 0.9999992
000140 10 7c 75 bf 2c 3c 91 3e 7f fc 7f 3f e9 72 29 bc
       -0.9589243 0.2836622 0.99994653 -0.010342338
000150 43 77 f5 3e 40 a9 60 3f 1d 3c 21 3e 81 ce 7c 3f
       0.47942552 0.87758255 0.15745588 0.987526
000160 f4 b6 4c 3d 19 ae 7f 3f 7e 85 81 3c cf f7 7f 3f
       0.049979165 0.99875027 0.015810724 0.999875
000170 dd d6 a3 3b 2e ff 7f 3f 33 3e cf 3a eb ff 7f 3f
       0.004999979 0.9999875 0.0015811383 0.99999875
000180 8c 0f 8f be b8 cd 75 3f 4e 78 72 3f 6d 3f a4 be
       -0.2794155 0.96017027 0.9471482 -0.3207964
000190 68 8c 10 3f 32 49 53 3f 6e 20 41 3e e3 67 7b 3f
       0.5646424 0.8253356 0.18860027 0.98205394
0001a0 d1 9c 75 3d 12 8a 7f 3f 43 6c 9b 3c 34 f4 7f 3f
       0.059964005 0.99820054 0.018972522 0.99982
0001b0 58 9b c4 3b d2 fe 7f 3f 08 b1 f8 3a e2 ff 7f 3f
       0.0059999637 0.999982 0.0018973658 0.9999982
0001c0 46 30 28 3f bd ff 40 3f 6e e8 4c 3f bc 74 19 bf
       0.6569866 0.75390226 0.8004216 -0.5994375
0001d0 72 eb 24 3f b3 cc 43 3f 50 d3 60 3e ea c0 79 3f
       0.6442176 0.7648422 0.2195561 0.9755999
0001e0 32 3e 8f 3d 81 5f 7f 3f a2 52 b5 3c f2 ef 7f 3f
       0.06994285 0.997551 0.022134129 0.999755
0001f0 c5 5f e5 3b 65 fe 7f 3f ed 11 11 3b d7 ff 7f 3f
       0.006999942 0.9999755 0.0022135929 0.99999756
000200 95 46 7d 3f f6 fd 14 be 7e 06 13 3f e5 91 51 bf
       0.98935825 -0.14550003 0.5743178 -0.8186324
000210 a5 a4 37 3f 5f 5b 32 3f 51 26 80 3e 02 da 77 3f
       0.717356 0.6967067 0.25029233 0.9681703
000220 50 aa a3 3d 65 2e 7f 3f 8a 38 cf 3c 08 eb 7f 3f
       0.07991469 0.9968017 0.025295515 0.99968004
000230 12 12 03 3c e7 fd 7f 3f 55 cb 25 3b ca ff 7f 3f
       0.007999914 0.999968 0.0025298197 0.9999968
000240 32 01 d3 3e d5 3f 69 bf ee 1f 95 3e a2 e6 74 bf
       0.4121185 -0.91113025 0.29125923 -0.9566442
000250 1c 88 48 3f d5 21 1f 3f 2d c2 8f 3e a9 b3 75 3f
       0.78332686 0.62161 0.28077832 0.95977265
000260 3e 12 b8 3d c2 f6 7e 3f ea 1d e9 3c 76 e5 7f 3f
       0.089878544 0.9959527 0.028456647 0.99959505
000270 3a 74 13 3c 59 fd 7f 3f bc 84 3a 3b bc ff 7f 3f
       0.008999879 0.9999595 0.0028460464 0.99999595
000280 f8 44 0b bf 64 cd 56 bf 97 70 a9 bc fb f1 7f bf
       -0.5440211 -0.8390715 -0.02068357 -0.9997861
000290 a4 6a 57 3f 41 51 0a 3f 3d 39 9f 3e 6b 4e 73 3f
       0.84147096 0.54030234 0.31098357 0.9504153
0002a0 76 75 cc 3d 98 b8 7e 3f 59 81 01 3d 3c df 7f 3f
       0.099833414 0.9950042 0.031617496 0.99950004
0002b0 57 d6 23 3c b9 fc 7f 3f 22 3e 4f 3b ac ff 7f 3f
       0.009999833 0.99995 0.0031622727 0.999995
0002c0 5c ff 7f bf 72 05 91 3b 1f 41 a9 be 8d 9b 71 bf
       -0.9999902 0.004425698 -0.33057496 -0.94377977
0002d0 2a 26 64 3f c3 3d e8 3e 8b 87 ae 3e e4 aa 70 3f
       0.89120734 0.4535962 0.34087786 0.9401076
0002e0 72 d3 e0 3d e8 73 7e 3f 68 73 0e 3d 5b d8 7f 3f
       0.1097783 0.9939561 0.03477803 0.9993951
0002f0 69 38 34 3c 09 fc 7f 3f 87 f7 63 3b 9b ff 7f 3f
       0.010999777 0.9999395 0.003478499 0.999994
000300 d8 5c 09 bf d0 06 58 3f 24 91 1b bf 56 4f 4b bf
       -0.53657293 0.84385395 -0.6076834 -0.7941793
000310 1d 9a 6e 3f f7 86 b9 3e 2c a9 bd 3e c3 c9 6d 3f
       0.9320391 0.36235783 0.3704313 0.9288599
000320 ac 2b f5 3d b5 28 7e 3f 19 65 1b 3d d2 d0 7f 3f
       0.119712204 0.99280864 0.03793821 0.9992801
000330 70 9a 44 3c 48 fb 7f 3f eb b0 78 3b 87 ff 7f 3f
       0.011999711 0.999928 0.0037947248 0.9999928
000340 22 20 d7 3e 6f 4e 68 3f 4c 14 53 bf 9d d9 10 bf
       0.42016703 0.9074468 -0.82452846 -0.5658205
000350 c0 ab 76 3f 9d f5 88 3e 3f 9a cc 3e c3 ab 6a 3f
       0.9635582 0.26749888 0.3996143 0.9166834
000360 d0 be 04 3e 00 d7 7d 3f 65 56 28 3d a1 c8 7f 3f
       0.12963414 0.9915619 0.041098017 0.9991551
000370 6a fc 54 3c 76 fa 7f 3f 26 b5 86 3b 72 ff 7f 3f
       0.012999633 0.9999155 0.00411095 0.99999154
000380 72 98 7d 3f d7 04 0c 3e b3 a8 75 bf 0a 0d 90 be
       0.9906074 0.13673721 -0.9596054 -0.28134948
000390 6f 46 7c 3f e7 0b 2e 3e f4 56 db 3e b1 51 67 3f
       0.98544973 0.16996728 0.42839777 0.90359026
0003a0 64 e4 0e 3e cc 7e 7d 3f 43 47 35 3d c9 bf 7f 3f
       0.13954312 0.990216 0.044257414 0.99902016
0003b0 55 5e 65 3c 94 f9 7f 3f d6 11 91 3b 5c ff 7f 3f
       0.013999541 0.999902 0.004427175 0.9999902
0003c0 44 79 26 3f e8 7a 42 bf 75 e0 7f bf 96 22 fe 3c
       0.65028787 -0.7596879 -0.9995187 0.031022351
0003d0 d5 5b 7f 3f ba de 90 3d 83 db e9 3e 68 bc 63 3f
       0.997495 0.07073732 0.45675287 0.8895936
0003e0 4f 06 19 3e 1a 20 7d 3f aa 37 42 3d 49 b6 7f 3f
       0.14943813 0.9887711 0.047416367 0.9988752
0003f0 32 c0 75 3c a1 f8 7f 3f 85 6e 9b 3b 43 ff 7f 3f
       0.014999436 0.9998875 0.0047433996 0.99998873

enc_embedding.temporal_embedding.embed.weight f4 [16, 4]
000000 b2 36 09 3e 5b 46 85 be be be e3 3e 0b 80 a3 be
       0.13399771 -0.2603024 0.44481462 -0.31933627
000010 94 39 76 3d 40 24 c7 3e 13 84 99 be 59 e6 15 3e
       0.060113505 0.38894844 -0.29983577 0.14638652
000020 9b 84 c1 be a4 aa cb 3e 78 87 c6 3e 48 89 88 be
       -0.37796482 0.39778626 0.3877523 -0.26667237
000030 5a 2c 79 bd bd 94 9a 3e ae ce cd 3e 14 d4 ba be
       -0.060833313 0.30191603 0.40196747 -0.36489928
000040 31 6b 44 3e f1 42 82 bd 7b 43 85 be c4 14 c6 be
       0.19181515 -0.06360424 -0.26028046 -0.38687718
000050 02 7c ed 3d 36 55 49 3e 47 62 b5 be e6 86 f1 3e
       0.11595918 0.19661412 -0.35426542 0.47173232
000060 98 18 31 3e 54 43 92 bc 1e 1d af be 2b 7e 2c 3a
       0.17294538 -0.01785437 -0.34201902 0.000658008
000070 7d 96 33 3d 08 7b cd ba 6e b8 b8 be 8f 68 56 3e
       0.04384469 -0.0015676925 -0.3607821 0.20938323
000080 70 7d d1 3e 50 7d a5 be cb 2b 0b bd 79 7c 4a 3a
       0.40916014 -0.32322168 -0.03397731 0.00077242363
000090 f4 6b 9f 3d 6b ea 0a 3e 41 97 60 3c a5 76 d2 3e
       0.07784262 0.13565986 0.013707937 0.41106144
0000a0 17 b2 29 3e 3b ae 8d 3e 14 55 80 3e ce f3 42 3d
       0.16571842 0.2767199 0.2506491 0.04759579
0000b0 e5 9d 58 bc 81 1b e7 bc b4 ae 9f be 35 a3 93 be
       -0.013221239 -0.028211357 -0.31187975 -0.28835455
0000c0 f7 af e3 be fe c7 e0 be 28 cb 10 3e 2e cb 30 be
       -0.44470188 -0.43902582 0.14139998 -0.17265007
0000d0 cb b2 ac be 93 22 d7 3e 6b e6 7f 3d 4f 6b 40 3e
       -0.33730158 0.42018566 0.062475603 0.18790935
0000e0 f9 29 ae 3e ce 64 8b 3c 28 39 e6 bc c9 0c 9b be
       0.34016398 0.01701584 -0.028103426 -0.30283192
0000f0 18 f8 58 3e 87 aa 34 3e a5 40 08 bb 23 c2 1b 3e
       0.2118839 0.17643176 -0.0020790484 0.15210776

dec_embedding.value_embedding.tokenConv.weight f4 [16, 7, 3]
000000 6b c6 c4 3e e8 36 c8 3e 28 3e be 3e 04 23 b0 bc
       0.3843263 0.3910439 0.37156796 -0.021501072
000010 a2 87 c4 bd 06 59 3c bc 76 56 54 be 3d 64 01 3e
       -0.095961824 -0.011495834 -0.20736107 0.12635894
000020 dc 65 23 bd e8 3a a2 bd 9d b7 12 3e 36 c8 8e 3d
       -0.039892063 -0.07921392 0.14327855 0.06971781
000030 6c 97 b2 be 68 54 a5 be fc 51 77 3f b4 d7 32 3e
       -0.3488115 -0.3229096 0.96609473 0.17465097
000040 f4 41 7b 3e 39 fa 7b bc 5b 30 03 3f 62 b7 b0 bd
       0.24536878 -0.015379482 0.5124566 -0.086287275
000050 b1 fc c0 3e ba cf a4 3e fa 4d cd 3e 3e b5 f2 bd
       0.37692788 0.32189733 0.40098554 -0.118509755
000060 15 70 2d 3e b5 ae 9d 3e fc b9 b0 3d 9d 25 a2 3e
       0.16937287 0.30797353 0.08629224 0.31669322
000070 6c 21 b2 3e 61 f7 5e 3c b6 27 ad bd aa 87 02 3f
       0.34791124 0.013608784 -0.0845484 0.50988257
000080 77 ba 41 3e 8a 66 48 be 33 d3 56 bd 0a bb c4 3d
       0.18918787 -0.19570366 -0.05244751 0.09605987
000090 e9 de 83 be 0b 72 9f 3e a4 1a a5 3e d4 e1 f4 3d
       -0.25756004 0.31141695 0.32246888 0.11957136
0000a0 3f 31 9c be a9 20 02 3d 3d 8a ca 3e c1 e0 50 3c
       -0.30506322 0.03176943 0.39558592 0.012748898
0000b0 da 5b 52 3e d5 66 fc bd 87 09 79 3e ea 26 b4 3e
       0.20542851 -0.12324301 0.2432004 0.3518594
0000c0 3d 22 64 bd 00 80 15 bd de 66 b7 3e 50 c9 1a bf
       -0.055696715 -0.036499023 0.3582067 -0.6046343
0000d0 1c f7 96 bc 6f 37 f0 be 2c 10 39 bd 87 aa 51 3f
       -0.018428378 -0.46917292 -0.04518144 0.8190083
0000e0 6a 5b 96 bd 0c 27 72 3e 5d 40 50 3e fb 5a 5a be
       -0.073416546 0.23647708 0.20337053 -0.21323769
0000f0 55 14 02 be d0 7b cf bd 63 64 0f bf 61 54 ba be
       -0.12703069 -0.10131037 -0.5601255 -0.363925
000100 e2 c5 96 3e 16 d3 7d 3d dd f4 9f be 0f 2e 57 be
       0.29447848 0.061968885 -0.31241503 -0.21013664
000110 d3 e6 e9 3e 96 81 06 bf 06 37 c6 3d a1 09 e1 be
       0.45683917 -0.5254148 0.09678464 -0.4395266
000120 bf 1c 3c bb 7d 29 13 3e 77 e2 27 bd 49 21 45 be
       -0.0028703657 0.14371295 -0.040987458 -0.19250979
000130 9b 9c a2 be 41 49 04 be 91 58 bc 3e b8 9f be 3e
       -0.31760105 -0.12918569 0.3678632 0.3723123
000140 ec 1d b7 bb 71 28 3f 3e d2 f6 1d 3e bf 03 02 3f
       -0.0055882838 0.18667771 0.15426186 0.50786966
000150 fa 12 5c bf 61 b7 d7 be bc a0 38 be 77 12 3f bd
       -0.85966456 -0.42132095 -0.18030065 -0.04664847
000160 01 ce 5e 3e 7f d0 40 3e db fa 35 3e cd 6d 2f 3e
       0.21758272 0.18829535 0.17771475 0.1713173
000170 3b cd 00 bf e3 6f c7 bd 7a af cf 3d 72 1e d0 3c
       -0.50313157 -0.097381376 0.101408914 0.025405142
000180 c7 2f 9a 3e 6c d4 c4 3e 07 aa 9a 3e c0 79 b0 bc
       0.30114576 0.38443315 0.30207846 -0.02154243
000190 a9 d9 92 be e1 8a a0 bc 7c 80 46 3e dc dd 86 3e
       -0.28681687 -0.019597473 0.1938495 0.2634114
0001a0 10 17 7e be e3 2d 91 be 1c 13 8d 3e 45 96 a0 be
       -0.24813485 -0.2835532 0.27553642 -0.31364647
0001b0 78 b9 50 3d ce 36 eb bd 53 09 31 3d 87 50 03 3b
       0.050958127 -0.114850625 0.043221783 0.0020037012
0001c0 c1 ac 37 be 3c c3 27 be 63 3a 83 be 95 a1 97 be
       -0.17936994 -0.1638307 -0.25630483 -0.29615465
0001d0 ee 9f 4f be 73 33 01 be 40 be 70 3e 79 8f 1d 3e
       -0.20275852 -0.12617283 0.23510075 0.15386762
0001e0 07 f6 18 be 83 67 e4 3e 27 a4 b7 be f1 bb 2d 3e
       -0.14937602 0.44610223 -0.35867426 0.16966225
0001f0 05 aa 8c be 0e 1d bd be 2b 55 dd bd 69 58 e6 be
       -0.27473465 -0.3693623 -0.1080726 -0.44989327
000200 c8 8d 56 bb 26 df c1 bd 60 5a ae bd 88 8f 05 3c
       -0.0032738317 -0.0946639 -0.085133314 0.008151896
000210 93 39 7f bc 62 c5 29 bf bc 7e 99 bd 96 3e b0 be
       -0.015577692 -0.6631681 -0.07494876 -0.3442275
000220 98 ba 1e be 20 6b b0 3e 28 9a a9 3e c2 84 35 be
       -0.15500867 0.3445673 0.33125424 -0.17726424
000230 f7 6c aa bd 80 4b 93 3e 30 4e 2b 3e 12 2e 13 3f
       -0.08321565 0.2876854 0.16729045 0.5749217
000240 b2 69 17 be 4b 22 86 3c 18 eb 87 be ef 04 57 3e
       -0.14786413 0.016373774 -0.2654655 0.20997976
000250 5d ee 2c be 23 e8 77 3e 36 8a 42 3e a9 06 5f 3c
       -0.16887803 0.24209647 0.18998036 0.013612428
000260 45 13 88 be d0 f8 ae bd d3 62 31 3d fd 0a 02 3d
       -0.265772 -0.08543551 0.043307137 0.03174876
000270 b3 a8 b9 3c c3 e2 e0 3e dd 1c 35 3e 3c 92 9e be
       0.02266345 0.43923005 0.17686792 -0.30970943
000280 a8 f0 6b 3e b6 18 10 3f f9 70 e5 bc ec c2 88 be
       0.23041022 0.56287706 -0.028007971 -0.26711214
000290 6b 52 f3 3d 19 a2 a1 3e c1 7e 27 3f 45 35 04 3e
       0.11880954 0.31568983 0.65427786 0.12910946
0002a0 72 ab 21 3f f8 df 9c bd 18 54 ee bd b9 cb e1 3b
       0.6315223 -0.07659906 -0.11637133 0.0068907407
0002b0 52 08 15 be 8f 71 0b bf e9 94 d3 3e 58 b5 be 3d
       -0.14553955 -0.5447015 0.41324547 0.09311932
0002c0 34 df 4d be 20 82 19 3f 5f ba 5e 3e e2 c5 5f be
       -0.20104676 0.5996418 0.21750782 -0.2185283
0002d0 26 55 19 bf f6 05 50 be 9f 9d 79 3d 9e 00 ef 3e
       -0.5989555 -0.20314774 0.060941335 0.46680158
0002e0 ee 91 d1 3e 16 14 4a 3e a5 c7 8f 3e c4 65 8a 3e
       0.40931648 0.19734225 0.28082004 0.27030766
0002f0 9e e5 76 bc f8 a0 a7 3a 93 3d c1 3d e5 40 e0 bd
       -0.015069393 0.0012789061 0.094355725 -0.10949878
000300 f1 86 10 be fc 71 8e 3e 93 79 dd 3c 8b 47 49 3f
       -0.14113976 0.27821338 0.02703551 0.7862479
000310 b2 f0 cd 3e e1 29 02 be 35 bd 9d 3e 59 cf 71 3d
       0.40222698 -0.12711288 0.30808416 0.059035633
000320 f6 32 08 3f 20 72 1e bf 47 9a 0e 3e c8 4c 40 3d
       0.5320276 -0.6189289 0.1392604 0.046948224
000330 a3 5f 7f be 7d 75 90 3d 22 69 79 3e 04 e5 25 bf
       -0.24938826 0.07053659 0.24356511 -0.64802575
000340 95 c1 07 bf 93 82 78 3e ea da 5f 3f 2a da a2 bd
       -0.5302976 0.2426856 0.8744341 -0.07951768
000350 39 16 8c 3e 38 74 b1 3c 27 77 a6 3e 22 a2 58 be
       0.27360705 0.021661863 0.3251278 -0.21155599
000360 25 c3 8d 3e 91 c1 5f 3d 63 ea d1 3d ca 8d a6 bc
       0.27687946 0.05462796 0.10249784 -0.020331282
000370 82 47 01 bf dc 4d be be 09 e0 32 3f 50 f9 64 3b
       -0.5049974 -0.37168777 0.698731 0.003493864
000380 62 70 36 3e 45 de 83 3e 4e 6c ad bd 20 b8 91 be
       0.17816308 0.25755516 -0.08467923 -0.2846079
000390 74 12 83 3b ab f7 94 3e 35 2a b5 be ce 39 e1 be
       0.0040000025 0.29095206 -0.35383764 -0.43989414
0003a0 5f f8 80 be 6d 47 50 3e 6f 49 7a 3e da 2c df bd
       -0.25189492 0.20339747 0.24442075 -0.10897227
0003b0 2a ff 0a 3f 14 94 de 3e 9e b4 6b bd f2 47 8d be
       0.542956 0.4347235 -0.057545297 -0.27593952
0003c0 6a 57 dc be ab af a3 bd 12 53 dc bd 38 6e 5f be
       -0.43035442 -0.079924904 -0.10758032 -0.21819389
0003d0 fb f3 4d be b3 ee 31 bc 65 de ea be 2e f2 7e be
       -0.20112602 -0.010860133 -0.458728 -0.24897072
0003e0 b2 cc c6 be 79 c6 6a bd 87 a9 65 be 0a 0e c7 3e
       -0.38828045 -0.057318185 -0.22427951 0.38877898
0003f0 e2 f2 f0 be 21 e0 55 bc 29 4e c6 bc b3 cb 45 3f
       -0.47060305 -0.013053925 -0.024207192 0.77263945

dec_embedding.position_embedding.pe f4 [1, 5000, 16]
000000 00 00 00 00 00 00 80 3f 00 00 00 00 00 00 80 3f
       0.0 1.0 0.0 1.0
000010 00 00 00 00 00 00 80 3f 00 00 00 00 00 00 80 3f
       0.0 1.0 0.0 1.0
000020 00 00 00 00 00 00 80 3f 00 00 00 00 00 00 80 3f
       0.0 1.0 0.0 1.0
000030 00 00 00 00 00 00 80 3f 00 00 00 00 00 00 80 3f
       0.0 1.0 0.0 1.0
000040 a4 6a 57 3f 41 51 0a 3f 3e 39 9f 3e 6b 4e 73 3f
       0.84147096 0.54030234 0.3109836 0.9504153
000050 76 75 cc 3d 98 b8 7e 3f 5b 81 01 3d 3c df 7f 3f
       0.099833414 0.9950042 0.031617504 0.99950004
000060 57 d6 23 3c b9 fc 7f 3f 1c 3e 4f 3b ac ff 7f 3f
       0.009999833 0.99995 0.0031622713 0.999995
000070 6d 12 83 3a f8 ff 7f 3f 61 cb a5 39 ff ff 7f 3f
       0.0009999998 0.9999995 0.00031622782 0.99999994
000080 b7 c7 68 3f 33 11 d5 be 1b 54 17 3f ec 7b 4e 3f
       0.9092974 -0.41614684 0.5911271 0.8065784
000090 f8 6f 4b 3e a5 e5 7a 3f c8 70 81 3d f9 7c 7f 3f
       0.19866931 0.9800666 0.063203394 0.9980007
0000a0 3e d4 a3 3c e5 f2 7f 3f d8 3d cf 3b b1 fe 7f 3f
       0.019998666 0.9998 0.006324511 0.99998003
0000b0 68 12 03 3b df ff 7f 3f 60 cb 25 3a fd ff 7f 3f
       0.0019999985 0.99999803 0.0006324556 0.9999998
0000c0 c3 81 10 3e 26 70 7d bf c2 09 50 3f 58 2f 15 3f
       0.14112 -0.9899925 0.8126489 0.58275366
0000d0 6c 4e 97 3e ef 90 74 3f c0 ff c1 3d 4f d9 7e 3f
       0.2955202 0.9553365 0.094726086 0.99550337
0000e0 1f b9 f5 3c 83 e2 7f 3f 0d 6e 1b 3c 0d fd 7f 3f
       0.0299955 0.99955004 0.009486687 0.999955
0000f0 92 9b 44 3b b5 ff 7f 3f 10 b1 78 3a f9 ff 7f 3f
       0.0029999954 0.9999955 0.00094868336 0.9999996
000100 cf bd 41 bf 30 55 27 bf de 1d 74 3f b1 2e 9a 3e
       -0.7568025 -0.6536436 0.95358074 0.30113748
000110 d7 61 c7 3e a7 ca 6b 3f 88 2e 01 3e 69 f4 7d 3f
       0.38941833 0.921061 0.12615407 0.99201065
000120 db cb 23 3d 94 cb 7f 3f c9 3c 4f 3c c2 fa 7f 3f
       0.039989334 0.9992001 0.01264877 0.99992
000130 57 12 83 3b 7a ff 7f 3f 5e cb a5 3a f3 ff 7f 3f
       0.003999989 0.999992 0.0012649109 0.9999992
000140 10 7c 75 bf 2c 3c 91 3e 7f fc 7f 3f e9 72 29 bc
       -0.9589243 0.2836622 0.99994653 -0.010342338
000150 43 77 f5 3e 40 a9 60 3f 1d 3c 21 3e 81 ce 7c 3f
       0.47942552 0.87758255 0.15745588 0.987526
000160 f4 b6 4c 3d 19 ae 7f 3f 7e 85 81 3c cf f7 7f 3f
       0.049979165 0.99875027 0.015810724 0.999875
000170 dd d6 a3 3b 2e ff 7f 3f 33 3e cf 3a eb ff 7f 3f
       0.004999979 0.9999875 0.0015811383 0.99999875
000180 8c 0f 8f be b8 cd 75 3f 4e 78 72 3f 6d 3f a4 be
       -0.2794155 0.96017027 0.9471482 -0.3207964
000190 68 8c 10 3f 32 49 53 3f 6e 20 41 3e e3 67 7b 3f
       0.5646424 0.8253356 0.18860027 0.98205394
0001a0 d1 9c 75 3d 12 8a 7f 3f 43 6c 9b 3c 34 f4 7f 3f
       0.059964005 0.99820054 0.018972522 0.99982
0001b0 58 9b c4 3b d2 fe 7f 3f 08 b1 f8 3a e2 ff 7f 3f
       0.0059999637 0.999982 0.0018973658 0.9999982
0001c0 46 30 28 3f bd ff 40 3f 6e e8 4c 3f bc 74 19 bf
       0.6569866 0.75390226 0.8004216 -0.5994375
0001d0 72 eb 24 3f b3 cc 43 3f 50 d3 60 3e ea c0 79 3f
       0.6442176 0.7648422 0.2195561 0.9755999
0001e0 32 3e 8f 3d 81 5f 7f 3f a2 52 b5 3c f2 ef 7f 3f
       0.06994285 0.997551 0.022134129 0.999755
0001f0 c5 5f e5 3b 65 fe 7f 3f ed 11 11 3b d7 ff 7f 3f
       0.006999942 0.9999755 0.0022135929 0.99999756
000200 95 46 7d 3f f6 fd 14 be 7e 06 13 3f e5 91 51 bf
       0.98935825 -0.14550003 0.5743178 -0.8186324
000210 a5 a4 37 3f 5f 5b 32 3f 51 26 80 3e 02 da 77 3f
       0.717356 0.6967067 0.25029233 0.9681703
000220 50 aa a3 3d 65 2e 7f 3f 8a 38 cf 3c 08 eb 7f 3f
       0.07991469 0.9968017 0.025295515 0.99968004
000230 12 12 03 3c e7 fd 7f 3f 55 cb 25 3b ca ff 7f 3f
       0.007999914 0.999968 0.0025298197 0.9999968
000240 32 01 d3 3e d5 3f 69 bf ee 1f 95 3e a2 e6 74 bf
       0.4121185 -0.91113025 0.29125923 -0.9566442
000250 1c 88 48 3f d5 21 1f 3f 2d c2 8f 3e a9 b3 75 3f
       0.78332686 0.62161 0.28077832 0.95977265
000260 3e 12 b8 3d c2 f6 7e 3f ea 1d e9 3c 76 e5 7f 3f
       0.089878544 0.9959527 0.028456647 0.99959505
000270 3a 74 13 3c 59 fd 7f 3f bc 84 3a 3b bc ff 7f 3f
       0.008999879 0.9999595 0.0028460464 0.99999595
000280 f8 44 0b bf 64 cd 56 bf 97 70 a9 bc fb f1 7f bf
       -0.5440211 -0.8390715 -0.02068357 -0.9997861
000290 a4 6a 57 3f 41 51 0a 3f 3d 39 9f 3e 6b 4e 73 3f
       0.84147096 0.54030234 0.31098357 0.9504153
0002a0 76 75 cc 3d 98 b8 7e 3f 59 81 01 3d 3c df 7f 3f
       0.099833414 0.9950042 0.031617496 0.99950004
0002b0 57 d6 23 3c b9 fc 7f 3f 22 3e 4f 3b ac ff 7f 3f
       0.009999833 0.99995 0.0031622727 0.999995
0002c0 5c ff 7f bf 72 05 91 3b 1f 41 a9 be 8d 9b 71 bf
       -0.9999902 0.004425698 -0.33057496 -0.94377977
0002d0 2a 26 64 3f c3 3d e8 3e 8b 87 ae 3e e4 aa 70 3f
       0.89120734 0.4535962 0.34087786 0.9401076
0002e0 72 d3 e0 3d e8 73 7e 3f 68 73 0e 3d 5b d8 7f 3f
       0.1097783 0.9939561 0.03477803 0.9993951
0002f0 69 38 34 3c 09 fc 7f 3f 87 f7 63 3b 9b ff 7f 3f
       0.010999777 0.9999395 0.003478499 0.999994
000300 d8 5c 09 bf d0 06 58 3f 24 91 1b bf 56 4f 4b bf
       -0.53657293 0.84385395 -0.6076834 -0.7941793
000310 1d 9a 6e 3f f7 86 b9 3e 2c a9 bd 3e c3 c9 6d 3f
       0.9320391 0.36235783 0.3704313 0.9288599
000320 ac 2b f5 3d b5 28 7e 3f 19 65 1b 3d d2 d0 7f 3f
       0.119712204 0.99280864 0.03793821 0.9992801
000330 70 9a 44 3c 48 fb 7f 3f eb b0 78 3b 87 ff 7f 3f
       0.011999711 0.999928 0.0037947248 0.9999928
000340 22 20 d7 3e 6f 4e 68 3f 4c 14 53 bf 9d d9 10 bf
       0.42016703 0.9074468 -0.82452846 -0.5658205
000350 c0 ab 76 3f 9d f5 88 3e 3f 9a cc 3e c3 ab 6a 3f
       0.9635582 0.26749888 0.3996143 0.9166834
000360 d0 be 04 3e 00 d7 7d 3f 65 56 28 3d a1 c8 7f 3f
       0.12963414 0.9915619 0.041098017 0.9991551
000370 6a fc 54 3c 76 fa 7f 3f 26 b5 86 3b 72 ff 7f 3f
       0.012999633 0.9999155 0.00411095 0.99999154
000380 72 98 7d 3f d7 04 0c 3e b3 a8 75 bf 0a 0d 90 be
       0.9906074 0.13673721 -0.9596054 -0.28134948
000390 6f 46 7c 3f e7 0b 2e 3e f4 56 db 3e b1 51 67 3f
       0.98544973 0.16996728 0.42839777 0.90359026
0003a0 64 e4 0e 3e cc 7e 7d 3f 43 47 35 3d c9 bf 7f 3f
       0.13954312 0.990216 0.044257414 0.99902016
0003b0 55 5e 65 3c 94 f9 7f 3f d6 11 91 3b 5c ff 7f 3f
       0.013999541 0.999902 0.004427175 0.9999902
0003c0 44 79 26 3f e8 7a 42 bf 75 e0 7f bf 96 22 fe 3c
       0.65028787 -0.7596879 -0.9995187 0.031022351
0003d0 d5 5b 7f 3f ba de 90 3d 83 db e9 3e 68 bc 63 3f
       0.997495 0.07073732 0.45675287 0.8895936
0003e0 4f 06 19 3e 1a 20 7d 3f aa 37 42 3d 49 b6 7f 3f
       0.14943813 0.9887711 0.047416367 0.9988752
0003f0 32 c0 75 3c a1 f8 7f 3f 85 6e 9b 3b 43 ff 7f 3f
       0.014999436 0.9998875 0.0047433996 0.99998873

dec_embedding.temporal_embedding.embed.weight f4 [16, 4]
000000 9f 7e 09 3f b5 4c 64 3e 4a 3f de be bf e0 f0 3e
       0.53708833 0.22294886 -0.4340766 0.47046468
000010 c8 ee a2 be f3 90 34 3d 6f 4c ef 3e 0b bb c9 bd
       -0.318228 0.044083547 0.46738002 -0.09850129
000020 cc a8 08 3e c8 33 d7 3d d0 b1 c5 3e fd 42 9d be
       0.13345641 0.10507923 0.38612223 -0.3071517
000030 49 da 4f 3e 76 81 a2 3e 9d 62 20 be 75 a1 9c 3e
       0.20298113 0.31739396 -0.15662618 0.30591932
000040 94 3c d3 3b ee 38 cb 3e 01 92 62 be 11 78 93 3e
       0.0064464305 0.3969187 -0.22126009 0.2880254
000050 47 83 05 3f a3 7f bd 3e a3 2c 8c 3e e2 2d d9 3e
       0.5215344 0.37011442 0.27377805 0.42417818
000060 4e 8c 6e 3d 48 29 e0 3e 75 79 c8 3e 08 54 36 be
       0.058239274 0.43781495 0.39155164 -0.17805493
000070 5a bf 8c 3e f3 c3 c1 bd 22 9e ac be 1b be d6 be
       0.2748974 -0.094612025 -0.33714396 -0.41941914
000080 f4 99 f0 be 26 0c 04 3e 36 06 d4 3e af 65 35 3d
       -0.46992457 0.1289526 0.4141099 0.044286426
000090 05 9d bf 3e 24 3c da be ba 50 04 bd 30 fe 8c 3e
       0.37424484 -0.4262401 -0.03230355 0.2753768
0000a0 39 02 3e be af 76 4d 3e a3 48 59 be 11 36 cb 3e
       -0.18555535 0.20064805 -0.21219115 0.39689687
0000b0 f0 d5 bf be 88 5b 91 3e 04 c5 c2 bd ca 5c 78 3e
       -0.3746791 0.28390145 -0.09510234 0.24254146
0000c0 14 47 f0 3e 74 64 48 be 7e 20 e0 be 9c 3e 18 bd
       0.46929228 -0.1956957 -0.4377479 -0.037169084
0000d0 14 df eb be 21 e3 9d 3e 9c 5c de 3d d2 f4 5f 3c
       -0.46068633 0.30837348 0.108575076 0.01366921
0000e0 3e d1 2e be 6d 89 2b bd df a8 c3 3e 55 e0 a3 bd
       -0.17072007 -0.041879106 0.38214776 -0.08001772
0000f0 d8 09 9a 3e 96 1d be be 6e c0 f6 be dd 48 96 be
       0.30085635 -0.37131947 -0.48193687 -0.29352465

encoder.attn_layers.0.attention.query_projection.weight f4 [16, 16]
000000 90 96 55 3e 70 d5 c5 bd 07 d4 ab bd df 4a 26 3d
       0.20858216 -0.096598506 -0.083900504 0.040598746
000010 69 94 4b 3e ac b1 04 be 6a 98 f0 bd df 81 79 3d
       0.19880833 -0.12958401 -0.11747821 0.06091487
000020 5f 27 2f 3e 27 68 f9 3b 0b a3 73 be b7 aa 65 be
       0.17104863 0.007611293 -0.23792665 -0.22428404
000030 fd f9 1c bd 9b ff 92 3d 27 55 b3 3c 73 d4 63 be
       -0.038324345 0.07177659 0.02189119 -0.22249012
000040 cc ef d3 3d 00 07 c4 bc e0 41 f7 3d f2 4c 1e be
       0.10348472 -0.02392912 0.120731115 -0.1545904
000050 0a fb 78 bd 0c cd 69 bd 20 87 e4 bb bf 0e 05 3d
       -0.060786285 -0.057080314 -0.006974116 0.032484766
000060 55 bd 20 be 7f 61 65 3d 1e 09 e4 3d ee 7d 2c bb
       -0.15697224 0.056001183 0.111345515 -0.0026320177
000070 74 ce 5c bd 29 15 29 3e 0c 8e 51 3e 9a c8 33 3e
       -0.053907827 0.16511978 0.20464343 0.17556992
000080 b0 36 ff bd 3a dc 20 3e 1b 12 ac 3d c6 49 10 3e
       -0.12461603 0.1570901 0.08401891 0.14090642
000090 27 bd ec 3d 61 9f 83 bd d1 43 00 3d 65 1a 1e 3e
       0.115595154 -0.064268835 0.031314675 0.15439756
0000a0 4b bd 70 be d2 13 5f be 10 8d 32 be f5 17 f5 bb
       -0.2350971 -0.21784905 -0.17436624 -0.0074796625
0000b0 84 cc bd bd f7 07 be 3d 89 92 19 3e cc 29 d5 3d
       -0.09267524 0.09278863 0.14997305 0.10408363
0000c0 5b f8 29 3d 4a 45 02 3c 2d 7f 05 be 31 6a 15 3d
       0.041496616 0.00795109 -0.13036795 0.036478225
0000d0 a8 8f e7 3d 05 52 f5 3d cc 53 e3 bd 97 4a 7b 3d
       0.11306697 0.119785346 -0.11099967 0.06135043
0000e0 3c b6 78 be 21 98 27 3e ab 17 b4 3d 6e 64 34 bd
       -0.24288267 0.16366626 0.08793577 -0.04404109
0000f0 97 69 35 be de 1b 21 3e a0 16 62 be 46 3f 35 3e
       -0.1771606 0.15733287 -0.22078943 0.17699918
000100 19 bc 8c bd 3c 57 e1 3d 1c e1 2f be 12 09 e4 3c
       -0.06871814 0.11002967 -0.17175716 0.027836356
000110 19 cb 64 3d cb 81 56 3e 00 20 cb bd 15 c3 62 be
       0.05585775 0.2094795 -0.09918213 -0.2214473
000120 7c 32 9c bd 04 47 cb bd 1e 31 d1 bd f9 4b 25 bd
       -0.07626817 -0.099256545 -0.102144465 -0.040355656
000130 58 5d d8 bd d3 af 12 3e 72 57 3f bd 27 1b 0e 3e
       -0.10564679 0.14324884 -0.046714254 0.13877545
000140 19 d3 e2 3d 59 08 ac 3d 7b 5b 13 be 36 27 c6 bd
       0.1107542 0.0840003 -0.14390366 -0.09675448
000150 48 45 cc 3c ef c9 eb bb 26 fd 7e 3e 7e 3a 81 3e
       0.02493538 -0.007195703 0.24901256 0.25239938
000160 6b 5b 80 be 05 05 1e 3d 5a 3f ff bd 60 29 28 3e
       -0.25069746 0.038579006 -0.12463255 0.16422033
000170 ab ec 36 be 76 74 23 bd 82 2a 40 3e cf b7 35 be
       -0.17863719 -0.039905988 0.18766215 -0.17745899
000180 17 1a 19 3e b6 bf 17 be 0e f7 69 3e 01 41 68 3d
       0.14951359 -0.14819226 0.2284815 0.056702618
000190 f9 f6 b7 bc f9 50 cc 3c 50 fb ad 3d 6b b9 de bd
       -0.022456633 0.024940955 0.084952 -0.108752094
0001a0 30 2b 3e 3e 82 d3 39 3e bd d9 69 be 99 38 90 3d
       0.18571162 0.1814709 -0.22836967 0.07042045
0001b0 08 c2 7b 3e e7 ef c6 bd 68 de 7c 3e 28 ac 2e be
       0.24585736 -0.097137265 0.24694216 -0.1705786
0001c0 00 16 4b be 7b f6 5c be 32 91 f3 3d 68 d0 60 3e
       -0.19832611 -0.215784 0.11892928 0.219545
0001d0 3d 71 0e 3e 94 30 ea bc 5b b9 34 3e 67 3f 69 3d
       0.13910384 -0.028587617 0.17648832 0.05694523
0001e0 e0 aa 15 be fe ce 29 3d 40 3a bf bc 74 2c 08 3e
       -0.14615965 0.04145717 -0.023343205 0.13298208
0001f0 8c 18 65 3e 8b 11 44 bd 3b 91 c0 3d 50 1f 49 be
       0.22372645 -0.047868293 0.094027005 -0.19640851
000200 82 1b ec bc 9e 9f a6 bd 36 12 9e 3c eb 3a 49 be
       -0.02882171 -0.08135913 0.019295793 -0.19651382
000210 23 e8 ce 3d 4c c4 48 3e 44 c9 70 be f6 3d 5b 3e
       0.1010287 0.19606131 -0.23514277 0.21410355
000220 14 c1 a8 3d 33 8c 06 be 8d 64 c4 bc 2c 4d 3a be
       0.08239952 -0.1313942 -0.023973728 -0.18193501
000230 ae 52 82 3e 7e ff 5a be 25 5d 64 3e 55 76 b8 bd
       0.25453705 -0.21386525 0.22301157 -0.09006945
000240 16 e7 ca 3d 11 f5 15 be a7 8c 86 3d ea 4d a7 3d
       0.099073574 -0.14644267 0.06569796 0.08169158
000250 83 e2 07 3d 01 04 0b 3e 84 9c 0a be 1c 9f 14 be
       0.033175003 0.13575746 -0.13536268 -0.1451382
000260 fc 7e 5d be fc e2 67 be 5d 3a ed bd 4d 5c fd ba
       -0.21630472 -0.22645181 -0.115833975 -0.0019329876
000270 0d 48 92 bc e8 65 cd bd 62 80 5f be 1f 21 09 bc
       -0.017856622 -0.10029203 -0.21826318 -0.008369713
000280 b3 76 1f 3e 18 73 d2 bd f8 69 4c be ca 8e ae 3d
       0.15572624 -0.10275859 -0.19962299 0.085233286
000290 30 06 3b be 48 a3 b6 bd 67 a6 a3 3d 51 c8 f6 3c
       -0.18264079 -0.08917862 0.07990723 0.030124815
0002a0 d3 94 68 3e e7 4e 1a 3e dc b4 2c be 93 1c 97 3d
       0.22713022 0.15069161 -0.16865867 0.07378497
0002b0 6e 2e 93 3c c5 7a d7 3d ed 68 28 3e d2 60 15 3e
       0.017966475 0.10521463 0.16446276 0.14587715
0002c0 4d db 04 be b2 06 3a 3e de b0 d8 3d bd 6e 68 bc
       -0.12974282 0.18166617 0.1058061 -0.014186558
0002d0 b3 a9 34 3e b1 68 53 3e 70 77 4c be 6d d8 13 be
       0.1764286 0.20645405 -0.19967437 -0.14438029
0002e0 87 85 ed 3d 0e 62 4f 3e d6 72 e2 bd f3 04 1b be
       0.11597734 0.20252249 -0.110570595 -0.15138607
0002f0 e4 36 46 be a8 60 ad bd a2 29 5f bc c6 fb f2 bd
       -0.19356877 -0.08465701 -0.013620766 -0.11864428
000300 16 57 7b bc 89 da ae bd 76 aa 04 3d e0 fa 1f 3e
       -0.015340587 -0.08537776 0.032389127 0.15623045
000310 43 35 3a 3e e2 4b 09 3e 6d ba 52 be 91 00 af 3d
       0.1818438 0.13407853 -0.20578928 0.0854503
000320 22 98 39 3d ed c7 2a 3e 3b b5 81 bc fc 96 11 3d
       0.0453111 0.16677828 -0.015833488 0.03554438
000330 63 60 73 be 49 45 f6 bd 9d 1a 22 be a2 ca 0e be
       -0.23767237 -0.12024934 -0.15830465 -0.13944486
000340 bf 68 7b 3d fa 37 d6 bd 7b 8c 46 3e 8c f7 37 3d
       0.06137919 -0.104598954 0.19389527 0.044913813
000350 4c f6 33 be 25 b1 2a 3d c8 0a 38 be b7 59 51 be
       -0.17574424 0.041672844 -0.17972863 -0.2044438
000360 ec 2e ac bc 0e 55 54 bd d0 6c 2f bc a0 ef 44 be
       -0.021018468 -0.051838927 -0.010707095 -0.19232035
000370 9d c1 57 be ee 60 4e 3d 4b a0 21 be 14 73 f5 bd
       -0.21069951 0.050385408 -0.15783803 -0.1198484
000380 88 20 2f be 8a 3d 82 be fb 4f fa bc a6 dc 1c 3e
       -0.17102253 -0.25437576 -0.030555716 0.15318546
000390 46 e8 d8 bd f7 d5 d9 bc c8 12 c0 bd 5b 58 02 bd
       -0.10591178 -0.026591284 -0.09378582 -0.031822544
0003a0 7a bd 5d be d9 a6 78 be 39 67 24 be 35 ab 7f bc
       -0.21654311 -0.24282397 -0.16055001 -0.015604784
0003b0 92 ab 2e be fa b3 87 3d 4f 21 72 bd 7f bf 60 3e
       -0.17057636 0.06626125 -0.059113797 0.2194805
0003c0 50 62 0e 3e a6 c1 5e 3d 18 22 c7 bd 67 f4 5e be
       0.1390469 0.054383896 -0.097233 -0.2177292
0003d0 90 1d 2f be 4b 83 59 be 6d 7b 1d 3e 07 6c 0f be
       -0.17101121 -0.2124149 0.15379114 -0.14006053
0003e0 ef 87 2d 3d 83 a6 41 3e 61 e1 35 3e b0 59 93 3d
       0.042365965 0.18911175 0.17761756 0.07194841
0003f0 10 fc 05 3e 12 92 7b be a8 d8 80 bd 97 95 32 be
       0.13084435 -0.2456744 -0.06291324 -0.17439876

encoder.attn_layers.0.attention.query_projection.bias f4 [16]
000000 87 34 15 3e 5a 43 81 bd 8a b6 40 3e c7 7a 86 3d
       0.14570819 -0.063116744 0.18819633 0.06566387
000010 15 e9 20 3e 22 95 86 be 78 ff 81 3d 69 37 22 3e
       0.15713914 -0.26285654 0.06347555 0.1584145
000020 1c 70 7d be 14 31 42 be 7e ec 8b bd 97 03 fe bb
       -0.24749798 -0.18964034 -0.06832217 -0.007751893
000030 1c ea 57 3e e7 07 14 be f6 51 50 be 3a e6 ab bd
       0.210854 -0.1445614 -0.20343766 -0.083935216

encoder.attn_layers.0.attention.key_projection.weight f4 [16, 16]
000000 8c 7a 8e bd a6 9b 4c be e5 bc 8f bd 8a e4 e6 3d
       -0.06956968 -0.1998125 -0.07018451 0.11274059
000010 91 c3 45 3e 38 cc 02 be fb ee 49 bd a3 62 0d be
       0.19312884 -0.12773216 -0.049300175 -0.13807158
000020 e9 1c 12 be 3d 38 55 3e 29 c5 e8 bd 02 f2 84 be
       -0.14268841 0.20822234 -0.1136573 -0.25965887
000030 43 2c a9 3d bb 94 cd bd c7 2d 22 be 73 b7 cc bd
       0.082603954 -0.10038134 -0.15837775 -0.09995928
000040 61 0f 5c be cf d5 15 be ee f4 74 be 6d 54 ef 3d
       -0.21490242 -0.14632343 -0.23921558 0.11686025
000050 5f 65 14 3e 3a 3c 3a be e0 56 a3 3d 76 78 61 3e
       0.14491795 -0.18187037 0.079755545 0.22018608
000060 68 01 14 be b0 f6 60 be 24 a5 55 be 6a b1 5b bd
       -0.14453661 -0.21969104 -0.20863777 -0.053635992
000070 a3 80 6d 3e f4 f6 07 bd 59 f1 8a 3e 3c e5 39 3e
       0.23193602 -0.033194497 0.2713726 0.18153852
000080 b2 08 e8 3d fd 47 81 3d e2 2a 39 bd fd 4b c3 3d
       0.113297835 0.06312559 -0.04520691 0.09535978
000090 90 09 2d be 33 ec 5f be e2 ae 2c 3d 0d 18 ec bd
       -0.16898179 -0.21867447 0.04215897 -0.11528025
0000a0 31 d8 53 be 4c 71 6f bd cc 61 33 3e c3 a8 42 3e
       -0.20687939 -0.058457658 0.17517775 0.1900969
0000b0 72 fe d0 3d 04 c1 0f 3d 0c e3 cb bd 95 d8 61 3e
       0.102047816 0.035096183 -0.09955415 0.22055276
0000c0 ab 34 1d 3e f8 85 37 bd 6d bd 64 bc 1d f0 de 3b
       0.15352122 -0.044805497 -0.013961178 0.006803526
0000d0 8e 92 20 bd 8d 5c 54 3e 66 ce 1b 3e 30 f3 6f 3e
       -0.039202265 0.2073843 0.15215454 0.23432612
0000e0 31 ff 5a bd 77 50 9f 3c f2 c8 e8 3d 3d 02 10 be
       -0.053466026 0.019447548 0.11366452 -0.14063354
0000f0 3a a4 5e 3e 07 d3 fb bd 34 d8 5f bd f0 50 75 bd
       0.21742335 -0.1229611 -0.054649547 -0.05989164
000100 89 b1 52 bd df 17 ef bc 59 36 b1 bd d1 66 02 3e
       -0.051438842 -0.029186187 -0.08652944 0.12734534
000110 67 32 83 3d e0 1d 36 3e 5a 3f 4e 3d 87 12 2b be
       0.06406098 0.17784834 0.050353386 -0.16706286
000120 20 7d d4 bc 2f 9c 94 3d 6d 68 4c be 22 48 41 be
       -0.02593857 0.07256352 -0.1996171 -0.18875173
000130 e3 bb 8f 3e 91 15 36 3e bb 37 17 be eb b6 4b 3e
       0.28073034 0.17781664 -0.14767353 0.19893996
000140 86 a2 12 be ba 0d ce 3c ce cd 14 3e 52 bc 21 3e
       -0.1431981 0.02515303 0.14531633 0.15794495
000150 de 23 95 bb 00 ab 27 3e 91 9e b8 bd b5 57 88 be
       -0.004551395 0.16373825 -0.09014619 -0.26629415
000160 3c 78 5b 3e e8 e3 39 3e 9a 43 86 3e f6 85 17 3e
       0.21432585 0.18153346 0.2622345 0.14797196
000170 33 3f 5a 3d 75 9d fb 3d ad 6e 58 bd 38 3e 6a be
       0.053282928 0.12285892 -0.052839924 -0.22875297
000180 34 f6 c4 bc 7d 88 5a be 22 33 c0 bd 95 f9 aa 3d
       -0.02404318 -0.21341129 -0.09384753 0.08348385
000190 4f 76 51 bd 03 09 1d be 37 6a 79 bd 61 0f 8c bd
       -0.05113822 -0.15335469 -0.06089231 -0.06838871
0001a0 d3 22 2c 3e 8c 10 fd bd 68 2c ce 3c 45 8a ee 3c
       0.1681016 -0.12356672 0.025167659 0.029118666
0001b0 7e 3a 7f bd 0a 7e 8b 3d 6a f3 93 3e fc 8d 3b be
       -0.062311642 0.068111494 0.28896648 -0.18315881
0001c0 e6 29 25 be a2 95 75 be ae 95 a6 3c be b2 44 be
       -0.16129264 -0.23982862 0.020335045 -0.1920881
0001d0 62 04 4b 3e dd 32 b1 3d d2 3e de bd 4a de 08 3e
       0.1982589 0.086522795 -0.10851826 0.13366047
0001e0 e4 ba 6a be c8 95 1a 3e a8 44 6c 3e 65 02 30 be
       -0.22922856 0.150962 0.23073065 -0.17188413
0001f0 f9 2d 3d 3e d1 8a 29 be cf 5e 68 3c eb e9 5d 3e
       0.18474568 -0.1655686 0.01418276 0.21671264
000200 1a 71 66 be 7e 51 57 3e 9b 24 93 bd 0c 7a 3e be
       -0.22504082 0.2102718 -0.07184716 -0.18601245
000210 64 1f 11 3e b8 8a 22 3e b9 a9 0d 3e 7c 84 88 3e
       0.14172131 0.1587323 0.13834275 0.26663578
000220 16 44 3c bd a6 ef 59 3e f7 b9 86 be 39 9e 15 be
       -0.04596337 0.21282825 -0.26313755 -0.14611138
000230 57 c2 f7 3c 8a 76 d1 3d 9f 39 34 3e c1 d2 08 3e
       0.030244036 0.10227688 0.17600106 0.13361646
000240 87 f9 23 be 1d d7 69 3d 7b 83 10 3c 3d de 13 be
       -0.16013156 0.057089914 0.00882041 -0.14440246
000250 47 e2 3e be 95 a6 d3 3c d7 12 f3 3d ef 51 d7 3d
       -0.18641005 0.025836268 0.11868828 0.105136745
000260 92 75 49 3e 64 e8 01 3e 4e 17 68 be d7 f8 10 be
       0.19673756 0.12686306 -0.2266514 -0.14157425
000270 5c 9a 71 3e b6 b8 af 3c 10 8d 59 3e cb 8e 52 be
       0.2359404 0.021450382 0.21245217 -0.20562284
000280 e9 56 69 3e cd d6 07 be 85 99 7a bc 56 40 6b 3e
       0.2278706 -0.13265534 -0.015295391 0.22973761
000290 c5 41 b1 3d fc a2 2f bd 17 b1 ef 3c 2e 99 3a be
       0.08655123 -0.042880043 0.029259248 -0.18222496
0002a0 ac 0c 14 be 3e d1 6b be 82 3a 24 3e 4b d7 49 be
       -0.14457959 -0.23029038 0.16037944 -0.19711034
0002b0 5d 6f a0 bd fd 50 4c 3e 30 23 a6 3d 44 61 3c be
       -0.07833741 0.1995277 0.0811218 -0.18396479
0002c0 e6 42 05 be 36 f7 6b be f6 fa 42 3e ed bf 74 be
       -0.13013801 -0.23043522 0.19041047 -0.23901339
0002d0 2e 38 95 3c cc 9f 57 be a8 21 64 bc 41 4a 12 3e
       0.018215265 -0.21057051 -0.01392404 0.14286138
0002e0 4b 42 04 3e 82 14 55 3e 4b 9c ef 3d 33 f2 60 be
       0.12915914 0.20808604 0.116997324 -0.21967392
0002f0 51 76 24 be 2e a4 87 3d ac 84 cd bd f7 bc 15 bd
       -0.16060759 0.06623112 -0.10035071 -0.036557164
000300 2d 2d 2e be a0 72 01 3e 62 1b 5b 3e 87 e8 90 be
       -0.1700942 0.12641382 0.21397164 -0.28302404
000310 cc 87 a5 3d 60 e9 c4 3d 6d df 36 be 66 12 05 be
       0.08082542 0.09614825 -0.17858668 -0.129953
000320 57 8f 19 be 46 f7 1c bd 0d 50 f0 bd 04 37 79 be
       -0.14996086 -0.038321756 -0.117340185 -0.24337393
000330 8a 83 40 3c 6f a5 b0 bb 61 77 dd 3d e4 b5 43 3e
       0.011750111 -0.005390815 0.10813785 0.19112355
000340 c2 ee 01 3e 95 a2 e4 3d ea e7 66 be 73 94 67 be
       0.12688735 0.111638226 -0.22549406 -0.22615223
000350 6f 92 0e be be dc 14 3e 7f 7d 79 be 2c 55 7a 3e
       -0.13923047 0.14537331 -0.24364279 0.24446553
000360 ac 25 7d bd 64 29 df bd ea a1 3d 3e 18 64 0d 3e
       -0.061803505 -0.108965665 0.18518797 0.13807714
000370 f6 0f 2a bd 29 89 b2 bd bc 66 18 be 96 f1 11 bd
       -0.041519128 -0.087175675 -0.1488294 -0.035630785
000380 58 70 b4 3c d1 55 a3 3d 1c 4d f8 bc c3 ac 11 bd
       0.022026226 0.079753526 -0.030310206 -0.03556515
000390 8a be 24 be 8a 88 8e 3d 3d 1c 7b be 17 cf 62 bb
       -0.1608831 0.069596365 -0.24522491 -0.0034608298
0003a0 ef d9 69 be 17 c8 75 bd 56 f2 81 bd fe 95 3f 3c
       -0.22837041 -0.060005274 -0.0634505 0.011693476
0003b0 e2 d7 64 3e f3 92 64 be b7 26 b6 3d 82 fa 65 3e
       0.22347978 -0.22321682 0.08894103 0.22458842
0003c0 28 14 5c be 36 43 97 3c 39 12 85 3d 3d 1b 69 be
       -0.21492064 0.018464666 0.06497616 -0.22764297
0003d0 1e 4a 80 3e 9e bf 77 3e b8 09 c7 bd 12 63 52 be
       0.25056547 0.2419419 -0.097186506 -0.20545605
0003e0 be 34 f2 3d bd 63 24 be 6f 98 50 be 4e b5 c0 3d
       0.11826466 -0.16053672 -0.20370649 0.09409581
0003f0 56 5d 7c 3d 5a 48 00 3c 65 1a 4a 3e 3f 71 3f 3e
       0.06161245 0.00782975 0.19736631 0.18695544

encoder.attn_layers.0.attention.key_projection.bias f4 [16]
000000 86 78 a4 3d 31 33 ae 3d 87 7f 6c be c1 dc 27 bd
       0.080308005 0.08505858 -0.23095523 -0.04098201
000010 fa 0b 26 be 18 93 9c 3d 9c 38 55 be 92 05 b8 bc
       -0.16215506 0.076452434 -0.20822376 -0.022463594
000020 8a 0f 0b be da 11 2c be 9a be 79 be 82 7f 0b 3e
       -0.13580146 -0.16803685 -0.24389115 0.13622859
000030 1c c9 18 3e 59 9e 3c be 4a ad 52 3d e7 90 3e be
       0.14920467 -0.1841978 0.051434793 -0.18609963
